models/latest_3.1_turbo/b1.npy (npy, 1152 bytes, 1 tensors)

array f8 [128]
0	0xbfa948752fa2a5ef	-0.049380933823453314
1	0xbfa57d65ac52ffc3	-0.04197232941214637
2	0xbfb3afa8f013a76f	-0.07689910756348949
3	0xbfa138100ccf9b61	-0.033630849422300775
4	0x3f7dc1b3ba4544e4	0.007264806805623556
5	0xbf87f7cfebb5cea7	-0.011703132992557498
6	0xbf885f50c7de2b90	-0.011900549983485026
7	0xbf970d59cdd167df	-0.02251186674798322
8	0x3f955266987b49c6	0.020822146469819967
9	0x3fa2f2da9a70d5ec	0.037009078362114284
10	0x3fa9906638d3e79b	0.04992980426500467
11	0x3f8cd0216be9a9b9	0.014068852525458963
12	0x3fa4baf260150e3f	0.04048879073027622
13	0xbf796951d97d23aa	-0.006203956341615783
14	0xbfa75a1dfd72b1dd	-0.04560941428039531
15	0xbfa1a1216fa043e3	-0.034432453991150934
16	0x3fb40698a67b9f71	0.078225651402702
17	0xbfa44a3cabf574f9	-0.03962888335329668
18	0x3f74ec089806dc3d	0.005107911653275341
19	0x3f6560bd631fa541	0.0026096056908399283
20	0xbf768c46106b7446	-0.005504869163556475
21	0xbf687a85d8c686db	-0.002988110942354944
22	0x3f8cd7d89cc9189c	0.014083568844523157
23	0x3f730b90c18eb3d0	0.004649701550914778
24	0xbfa275b86d813bf3	-0.036054385535514565
25	0xbf78423f16623b00	-0.005922552523897506
26	0x3fb1b5d6f435243d	0.06918090307330345
27	0x3f929980d121beeb	0.01816369320334747
28	0x3f94e3e93db57e56	0.0204006618417892
29	0x3fa1e77cc092d437	0.0349692330432067
30	0x3f89b1bfd8af09fb	0.012546061325228832
31	0xbf95f9a406a0e623	-0.021460116295406572
32	0xbf78eac9d85c34be	-0.006083286721844048
33	0x3f95868e8e386551	0.02102110617679404
34	0xbf91e985bef43d2b	-0.017492379932318485
35	0x3f9a55c5657330bf	0.025717815701498333
36	0x3f9bf9a708ba5e96	0.027319536121096798
37	0xbfa0a186daa4b393	-0.03248235148416891
38	0xbfa0113e068bbf25	-0.03138154821306064
39	0x3fa42296776899bb	0.039326383663410756
40	0x3fa1d45dacdadbf2	0.034823348379568034
41	0xbf9a34438a7ddfd5	-0.025589995696890206
42	0xbf753455df16a599	-0.0051768640854929155
43	0x3f8c207e29bf086b	0.013733850144380185
44	0x3fa2069b1d76d8f1	0.03520664915724748
45	0xbf90a5c33bbd38c4	-0.016257334252536962
46	0xbf93cf9fcc720d66	-0.019346711018909522
47	0x3fa1269e72c655bb	0.03349776412066371
48	0x3f9652f7957e5e3f	0.021800869464270397
49	0xbf815770d8cfcec2	-0.008467561356133916
50	0xbf92cc0b5ea05098	-0.018356492662932128
51	0xbf82c03673740b53	-0.009155679128985439
52	0xbf4ee5bc7345b139	-0.0009429140250581176
53	0x3f8096da1ee207db	0.008100227420303632
54	0x3fb2fde94fe67a7b	0.07418688011828493
55	0x3f617a370e014c27	0.002133471993184272
56	0xbf698a3deaaba2ad	-0.003117676669138389
57	0x3f413d162c614668	0.0005260809200626328
58	0x3f68ebc839884bc1	0.0030421171798109274
59	0xbf6bec7013b885a1	-0.0034086407665802764
60	0xbf8ea9ac8323ab19	-0.014972064735464795
61	0xbf813147a8d6ccbe	-0.008394775238093618
62	0x3fa50f6c958f99e2	0.041133301979971795
63	0x3f9598b01a1eac1e	0.021090270609118382
64	0xbf91a7e4987d579b	-0.01724202328417555
65	0x3f9092b5c0d1eb37	0.016184654134558243
66	0x3f7684e38851f44f	0.005497826384382411
67	0xbf84083dbe242e2c	-0.00978134380831993
68	0x3fa0274a6d277eb0	0.03154976446580571
69	0xbf6bc1a7014e5c32	-0.0033882390802762114
70	0x3f8f150dc9defff0	0.015176875804058881
71	0xbf94e4582a54b08d	-0.020402314742725514
72	0x3f976320b2102ed0	0.022839079731098277
73	0x3f99eb169a244680	0.02531085315519599
74	0x3f9de8ba1d9c5997	0.029208095605179087
75	0x3f8d11dd751749e7	0.014194231162865513
76	0x3f8c819f8e58e8fd	0.013919111758799558
77	0x3f7800e3afcf9212	0.005860223199281938
78	0xbf57c0b289293ac6	-0.0014497512353447858
79	0xbf82dcdea067ef15	-0.009210337896540058
80	0x3f8821322b9e4d48	0.011782066303374208
81	0x3fa3cd0db8c3e125	0.03867380981859218
82	0xbf992f7b451dc6f6	-0.02459519013741037
83	0xbf84ddc1df61ba8f	-0.010188593511171433
84	0xbf624b71d92fee63	-0.0022332404710121863
85	0x3faa570e1732d072	0.05144542725739222
86	0x3f89432e8b586085	0.012335170390585634
87	0xbf5540ded6e6b720	-0.0012972046057301914
88	0xbf934d017f590038	-0.018848441503223706
89	0xbfa62c8c855c34b3	-0.04330863120967745
90	0xbf7174e55f120f5f	-0.004261871320640014
91	0x3fa0e362f14708a3	0.03298482127458271
92	0xbfb1784278b2f1f2	-0.06824126669648203
93	0xbf72a13bbb5e7af9	-0.00454829533364775
94	0x3f6b5aafe4f29472	0.003339141410452267
95	0xbf85241895ae07b7	-0.01032275397097125
96	0xbf7869623bfa131b	-0.005959876754450001
97	0x3f8daaec7e3f1cb1	0.014486167528856649
98	0xbf82dfbd45835969	-0.00921581142794699
99	0x3f50362136f62b7c	0.0009894680368655864
100	0x3f7f6bf9dd9051c0	0.007671333348316656
101	0x3f8e957e16b549b0	0.014933571880338586
102	0x3fa3e5ece4bd28ff	0.038863566324453196
103	0xbf52661833561cca	-0.001122974046070801
104	0x3f79ca5160fe14de	0.006296460996854962
105	0x3fa0034d3b4213a0	0.031275189860969776
106	0xbfa46002f4f20c0e	-0.039795009995053574
107	0xbf8d2acc97aa863c	-0.014241789225084671
108	0xbf9985bcece4d585	-0.024924232443671385
109	0x3f813ae8484ee142	0.008413138109845012
110	0xbf82d053ea98259a	-0.00918641624140797
111	0x3fa5d241fbdc8a6e	0.042619764323053796
112	0x3fa1c39acd4cdfb1	0.034695470391340584
113	0x3f969c7493dd3577	0.02208120491495921
114	0x3f86c1845a27f238	0.011111291886657701
115	0x3f959c416d12edd2	0.021103880197854093
116	0x3f5f00dbf50f9839	0.0018922946949202614
117	0x3f44e021e2c35014	0.0006370702226612423
118	0xbf8d64e31bfe4a7f	-0.014352583209789714
119	0x3fa4db792e92d46e	0.04073694890522793
120	0x3f9092e61caa5d90	0.016185374736406966
121	0xbf67f3bdf9412f5c	-0.002923842470442679
122	0xbf925a9abd4a8cfd	-0.01792375355092889
123	0xbfb3dcdbd6936c25	-0.07758878697079348
124	0xbf4fb10a215ca60e	-0.0009671496834233199
125	0x3fa910daf2d491ae	0.04895672048795362
126	0x3f9805e05fc728c2	0.023459916921446895
127	0xbf7c66f50b173c6c	-0.006934125137788443
