models/latest_3.1_turbo/b2.npy (npy, 640 bytes, 1 tensors)

array f8 [64]
000000 74 68 cc 3b d9 10 a2 3f 59 fa 42 64 0d 0b 76 3f
       0.03528479437791612 0.005381634055253126
000010 6d 59 4c dc bc e7 9b bf 18 38 9f 6c e0 ff 94 bf
       -0.027251196809709045 -0.02050734198547141
000020 ef a5 04 4d e0 65 b6 bf 6a 76 fa 1f 44 0d cf 3f
       -0.08749200706792924 0.2425923496384031
000030 07 18 c8 65 27 78 bb bf 26 f9 98 d2 3f 7c bf bf
       -0.10730215296652555 -0.12298964396993436
000040 e5 ed b7 1c 09 60 b1 bf cc b4 3f 28 ac c4 80 bf
       -0.0678716368783437 -0.0081876230032897
000050 56 5e ce 28 02 bb 81 3f 81 0a a1 09 26 89 c2 3f
       0.008657471533111732 0.14481044264001144
000060 1c 04 93 0b 32 68 aa bf 14 b4 be b6 4b 49 b0 3f
       -0.051576198494793085 0.06361840449854156
000070 65 eb 65 d6 ff 15 94 bf 7f dd e4 04 b6 86 cf bf
       -0.019615170918295805 -0.2462985538383968
000080 44 8f 64 2b 57 d2 92 bf e1 df 6e 11 bd 89 72 3f
       -0.018380510352599147 0.004525888964899112
000090 b9 db d5 06 49 35 a8 3f 9a 18 89 4b 5d 11 4d 3f
       0.047281534275433974 0.0008870797674454145
0000a0 49 ba f2 03 ca 4a c4 3f 33 6b 81 4e 4d b1 b6 3f
       0.1585323828962422 0.08864291350020607
0000b0 ab 31 29 31 fc 3c 9d 3f 60 a7 88 e6 e4 c2 c0 bf
       0.02855295229010017 -0.1309476972249355
0000c0 c1 a7 55 34 87 e7 9a 3f 09 7b 05 f7 54 4e a4 bf
       0.02627383477139467 -0.03966012492559485
0000d0 24 bf 18 b4 fe ce ab bf 71 62 16 12 0e 27 b5 bf
       -0.054313621029335374 -0.08262718144977456
0000e0 5a b3 29 1a 14 a4 bd bf e3 c9 52 d9 1c 56 c1 3f
       -0.11578488959066871 0.1354404507779484
0000f0 90 bb d6 1b b6 12 c5 3f eb f4 1a 37 1f 33 ca 3f
       0.16463352546039944 0.20468511763275585
000100 49 28 ce 87 24 b0 ba bf d1 10 c8 c8 1d 72 75 3f
       -0.10425022426184784 0.005235782952244431
000110 73 5d 55 71 c9 3c be 3f 32 10 95 5d c9 f4 b7 bf
       0.11811503426485163 -0.09357889685367196
000120 95 44 e0 b7 a3 b5 bd 3f fa 41 b6 9e 43 68 91 3f
       0.11605284918938914 0.01699929863167602
000130 2e 9c 5b d8 ec ec b3 bf a4 c3 99 cc 17 57 c6 bf
       -0.0778339412896549 -0.17453286638513277
000140 f3 21 45 1f 5f 57 a6 bf 61 e9 80 24 03 26 bc 3f
       -0.04363534218515843 0.10995502129745695
000150 6d ba 64 47 26 c9 bb 3f 65 c2 87 2f c0 97 98 3f
       0.10853804820065145 0.02401638307668676
000160 0b 6b 48 76 df 7d bb 3f 5b 73 48 a0 ef 3a 9d bf
       0.10738941800847727 -0.028545135648630687
000170 e6 11 a6 f0 f6 63 59 bf 13 8b 54 0e 56 25 b1 3f
       -0.0015497123264093192 0.06697595453128384
000180 70 ea 6d cd d8 54 91 bf 57 6d 63 a4 85 bb 93 bf
       -0.01692522767869281 -0.019270027311774154
000190 fa 17 52 65 55 7d a7 bf 7c 22 b4 af 7b d9 8f bf
       -0.04587809430908858 -0.015551534938383009
0001a0 a8 9b ce 42 b4 87 a4 bf a0 a1 f4 0f 53 2d b3 3f
       -0.04009784045711423 0.07491034640827943
0001b0 fd 26 24 f2 dc c9 be 3f 52 06 b2 a7 30 d7 99 3f
       0.12026768600130917 0.02523494742900418
0001c0 1f d4 b0 94 9c 0b b1 3f 00 c1 04 92 e1 7b bb bf
       0.0665834296240324 -0.10735902609735959
0001d0 ed 16 ea 3f 3c 24 b7 3f 75 39 b9 30 46 ff a3 3f
       0.09039665756617028 0.03905696244020166
0001e0 bb 2e 72 6a f2 af b2 3f 21 87 94 4b 9d 86 7c bf
       0.07299723719386979 -0.006964315828811769
0001f0 bf d2 82 df 71 15 57 bf 6a 3a fe 0a 46 1a c6 3f
       -0.0014089214364904482 0.1726768068005698
