models/latest_3.1_turbo/weights1.npy (npy, 802944 bytes, 1 tensors)

array f8 [128, 784]
00000000: 27cd 4d0d b545 f7bf 8608 7f94 4d80 f53f
00000010: e214 47bf 80d0 d1bf 7bea 76b0 35eb eebf
00000020: 4eeb 75a8 c0d2 f8bf 498b 3de0 a562 fc3f
00000030: 88a6 31ad 51e8 d6bf ea01 e955 dc6f f4bf
00000040: 0640 4b63 c259 f73f 98a9 5849 b978 e13f
00000050: 42c2 c7d9 1d19 e43f 808d cfb0 b613 cbbf
00000060: 04ff c765 7e63 d43f b95e 5153 f6df f5bf
00000070: a9c9 bda4 e0bf f6bf 6b84 40eb 1f42 e2bf
00000080: 45a6 7984 52c3 f4bf a057 da64 dfd1 d2bf
00000090: 4d96 a82d 03b1 f53f 998b b671 6058 00c0
000000a0: 117a d6e0 8434 0140 4663 22b9 2f09 cdbf
000000b0: 0a86 d5fb 1496 f53f 8c64 aaee 1c8e c53f
000000c0: ab91 165a 4e97 f73f 4e9c aefd 1e65 d7bf
000000d0: eb92 7458 c907 f6bf 5cb3 452a 4d42 f6bf
000000e0: 1488 6286 08cb d43f 2960 823d 697c d9bf
000000f0: afe4 f648 d650 c63f 6c60 8aed eaea d1bf
00000100: c911 f2cd 55f3 dfbf bfd2 711c 27e2 0440
00000110: 7706 1ac9 ae6d d73f de78 266d 9cc5 e63f
00000120: 38b7 bc19 c62f d2bf b7b3 8651 1bad ef3f
00000130: 9fc5 8c6b 421d edbf 8753 d658 c8cd bcbf
00000140: fb6b 3f06 a139 b13f 8555 c030 949b dcbf
00000150: 842d 1e95 9710 f43f 1990 cfb3 ddd1 f93f
00000160: 3ab5 a7b8 4277 f13f 9474 9e01 49af f03f
00000170: 037f 86ed ce14 b23f 4546 cfbe 63a2 d93f
00000180: a869 6ce7 5a71 f33f 76a3 1bb7 6c84 e23f
00000190: f817 db06 869a b0bf 0a2f 77e8 d8da f7bf
000001a0: fa28 5a11 1106 e9bf aa0a 767f e06c e63f
000001b0: 147a f3ad 6065 f7bf 37f8 b496 745c 02c0
000001c0: 88c4 1444 bd66 0140 7c0b 7adf 1769 fb3f
000001d0: df4e 50da dedd cebf f22d faac 1229 bbbf
000001e0: c3cb ba01 1e44 e03f 79c2 1cde 10ee 703f
000001f0: f22e bbf2 e659 c23f 9289 231d 4434 e43f
00000200: 847a 63f7 c305 f33f 9f18 6f56 96ff d7bf
00000210: 80c0 f13e 1a9e c03f e5b0 d529 34ae f03f
00000220: d72e 9509 d80f ddbf fdef 55fc 5509 f9bf
00000230: 24f6 f8ea 3586 e6bf f277 4e6b 2eff afbf
00000240: 4e78 a139 ac75 a1bf 8fc5 bd82 9663 f13f
00000250: 2596 d489 bf0a fd3f 86a3 8105 be30 d83f
00000260: c374 3d74 74db ec3f 7599 e6b6 17da dc3f
00000270: 4c23 8978 bf32 e5bf 0e18 504a a7d5 d5bf
00000280: aebd 005e 904e f43f dd44 b989 b183 d53f
00000290: a8b6 0c61 5ec8 e7bf 9d84 3556 cc88 f33f
000002a0: 3dde 958c 945c e13f 252f f7b0 f8b6 0140
000002b0: 1131 5c90 ddb1 e8bf f69d 6498 3e47 0540
000002c0: e1c3 fb3c af04 debf 7a2c d505 d9a8 f2bf
000002d0: 5273 3071 bd8f e7bf e310 7206 76ea f93f
000002e0: 8eb6 daa2 84ef f23f 69d7 f9de 6e66 fe3f
000002f0: 0a0c 935d 5cc3 f03f 661f ed4c 9a69 f0bf
00000300: f674 7179 6598 fd3f 6dae b9d6 ed2f e93f
00000310: 8e58 b6ce 4ddb fa3f 64e7 c52b 0d54 f73f
00000320: fdeb 2121 b690 d03f 1c71 6b4f 2706 cebf
00000330: 8c9d 1531 9ff0 e73f 763f 4e21 04c0 ee3f
00000340: 78ab 41ab ad92 de3f ea44 1fae 26ea f1bf
00000350: 781e a6cd 7cb3 cdbf c33f e37a 3e07 df3f
00000360: 25db fb17 b7b3 d6bf 48d4 9d1c 6212 eb3f
00000370: 4da0 0c84 b1b3 c03f c312 89a4 4dde e9bf
00000380: cd30 f6df d6be cabf 963f 6f4c c0b9 dd3f
00000390: 8b4e 2664 6d80 f9bf ff87 abf6 c059 c63f
000003a0: d09b 421b 0730 f3bf ce02 f301 a89a eb3f
000003b0: 6312 5dc9 162c e9bf 1a8d 3d10 5630 cebf
000003c0: 5cc5 fde7 da52 ff3f 019f db9b f2b7 d2bf
000003d0: c955 bb4e 637c f13f daec 930c 920a dc3f
000003e0: e169 6178 2d78 e93f 5d1c 6f59 da46 eb3f
000003f0: d591 d0ff c186 dabf e3f9 c274 256a f93f
00000400: 63b2 4616 e08a dd3f d8e7 c7a4 69d2 f5bf
00000410: ce0e ab97 2799 f13f 6fea b448 27ed f2bf
00000420: 257e b234 f19b d6bf fbf1 d6d7 211c b23f
00000430: 7dec 7a9a 171c cf3f 940d 98ba 7ee7 c3bf
00000440: 17cc 06b3 28f6 c13f ea97 8eb7 2385 f73f
00000450: 86f8 3e6f 9244 f63f 1152 bd36 b0dc f6bf
00000460: f2fd ac0b e315 a53f d41b 147a 0309 e03f
00000470: f2bf 16a1 67da ec3f 232c ac8f e8ff bd3f
00000480: 00d0 aca8 0ab8 d9bf 2fc5 bcba 50c8 cf3f
00000490: a424 e5f2 504f dbbf 0351 57d8 87be debf
000004a0: f4cd 8aeb 5bdd f1bf 7b95 0a1f 125f edbf
000004b0: 2961 e6f4 5a8c 93bf fc05 231d 9395 e7bf
000004c0: d64f 493a 8adb e13f 3d49 ca7c 6dbd e5bf
000004d0: d8b3 6fe8 9f34 e6bf b37c 0656 f020 b8bf
000004e0: 3982 30ac 551f f73f d2bb 02a1 8163 cc3f
000004f0: 6a54 95ed a27a bf3f 54b1 a665 ea1f f4bf
00000500: 1963 0301 b242 c7bf df74 1900 cb1c b13f
00000510: d46b 5fa7 edf7 e73f fa20 b922 d637 ebbf
00000520: 7a8c 1287 f800 dc3f 5583 7bec 554e be3f
00000530: 5010 d587 5537 9dbf 11bf 2a30 4027 cdbf
00000540: 1923 1794 3e3f cdbf b023 c230 a4c6 d5bf
00000550: ed40 cbe5 a1c9 f93f 736d 5a7d 6857 f2bf
00000560: 1165 965e 8ec1 da3f d6d7 8272 4f76 ea3f
00000570: a6e7 1808 78c7 febf 1c3d 86c4 58b5 e4bf
00000580: 5e0d 3409 5374 d83f 08e8 74e8 9fd0 e43f
00000590: e97a 5009 dc8f de3f c311 4b21 ac4e e9bf
000005a0: 0375 183d 2548 e23f 2710 c4ed 79b6 d73f
000005b0: c5e7 5b4b dd42 da3f 0edc eadb db15 d93f
000005c0: 00e6 2c03 6c7d dc3f 61c1 6811 30d9 f63f
000005d0: 6d2d 83ed 2f47 c4bf 59e6 f4da 7f3b d83f
000005e0: 3d32 e037 0e0e d0bf 6277 c47a f8a9 01c0
000005f0: a679 4ebb 4f8c e9bf 6062 eb80 9cda ebbf
00000600: 864b 1258 0457 dabf 0ef4 d84c 8927 f63f
00000610: 8a92 b13c 79b2 93bf a163 299d a6a6 0240
00000620: 41f3 2414 266f cfbf bcba 2858 b9e6 d83f
00000630: f9a6 dedb b945 cc3f 2e00 92d3 fefa 00c0
00000640: 08b8 0c40 d56e f0bf 5b12 ae37 5a0a d7bf
00000650: e0e1 fa01 ea1a e03f c152 9665 86e1 e33f
00000660: d335 4f7d d6f1 fa3f 2181 1a43 a01e cebf
00000670: fb69 e705 ed2c f53f fb19 ab08 38a9 fcbf
00000680: 6c44 0693 f805 a83f 6311 4231 7abb eebf
00000690: c333 99e9 92e4 cfbf ce31 5c66 c807 ddbf
000006a0: 6f34 0496 c751 c7bf 357c 4f7e 399d f13f
000006b0: 8e7f ec41 c8ed eabf 8d0c 9d5f 1f92 e43f
000006c0: 4145 901a 82ed ed3f 50d3 e6eb 0aff f9bf
000006d0: bbc6 a73c 6bfa d13f 78da b5e2 e867 dabf
000006e0: 5567 4839 cf2b debf d7d7 2426 739a ddbf
000006f0: a195 8cf6 98d0 f13f d264 db74 ffa3 b8bf
00000700: 7103 8334 7399 babf 851f d19e 7354 e83f
00000710: 742f a1ba c82a e2bf 5893 616d e29d d83f
00000720: 4323 90f7 37b2 cfbf 0a77 8e51 4876 e0bf
00000730: 6169 142f 6965 f6bf d24e 7eb2 3d03 dcbf
00000740: 6182 15f2 ef8f d63f 8b15 5704 fb74 d33f
00000750: f785 3035 2619 ffbf e484 7b4a 8e58 f2bf
00000760: b366 91d5 334f e3bf fbf6 b61d 2eb4 dc3f
00000770: 09d2 87d1 d35a d43f 0cf9 edc0 9ad5 ed3f
00000780: fedc 0326 f72b d23f 4bd7 cb82 bbe2 0340
00000790: 0404 e127 9ecc c13f cd74 f688 5423 bc3f
000007a0: 8252 91e7 0909 ee3f d682 fa94 f0f7 c33f
000007b0: 407c c216 2bae b6bf 8933 7835 5a20 d13f
000007c0: d19e 5a8c 0fd6 e63f 105d 8655 bfe9 03c0
000007d0: d346 6d01 4f39 ff3f 8fe3 4210 29f3 fe3f
000007e0: a449 5fdf 1788 f13f 9d72 62da 05a6 d2bf
000007f0: 869f 2d99 44d3 f93f afb0 58de 7db6 ef3f
-1.4545183677372024 1.3438239861139052 -0.27835100821933 -0.9662121244976584 -1.5514532642834697 1.7740839728728182 -0.35792962945434015 -1.2773097377649898
1.4594138983411553 0.5459867889924679 0.628065991737522 -0.21153911240899603 0.3185726160008786 -1.3671782736400202 -1.421845096131259 -0.5705718607679392
-1.2976861166774978 -0.2940596089259717 1.355715921739278 -2.043152702697125 2.150644070191682 -0.22684284724962306 1.3491411053913702 0.16839944509118643
1.474439956576229 -0.36554693959846396 -1.3769010024345174 -1.3911868716488334 0.3248921692230635 -0.3982184506107865 0.17434195101467284 -0.27996323773687126
-0.49922700034974504 2.6104261610256283 0.3660695041545305 0.7116224414674226 -0.2841658831920202 0.9898811905201147 -0.9098217106422232 -0.11251499337079283
0.06728559877903699 -0.44699578057164785 1.2540508103291765 1.6137368224963267 1.091616364773769 1.0427942336312173 0.0706300096412598 0.40053647645718043
1.2151745834331482 0.5786651207282449 -0.06485784213427326 -1.4909295159040448 -0.7819905604276578 0.7007906426882375 -1.4622504038776514 -2.295144250295404
2.175165683635502 1.7131575326500004 -0.24114595088814547 -0.10609547350957607 0.5083150895865106 0.004133287324109441 0.1433685956202378 0.6313801354520356
1.1889075912110068 -0.3749748081285222 0.12982490609602237 1.0425302156609686 -0.4540920346814636 -1.5647792679656043 -0.7038831319147829 -0.06249375400442138
-0.034100896868708305 1.0868134600717416 1.8151240715027452 0.37797499215826524 0.9017889280618409 0.4508113180294438 -0.6624448160374441 -0.3411653733932106
1.2691806480396326 0.3361629338224484 -0.7432090659619535 1.2208979957143022 0.542551302510169 2.2143415284571284 -0.771712095216147 2.6597873597818262
-0.46903592067161354 -1.1662225940551978 -0.7362963877418258 1.619741463830956 1.1834761010644885 1.9000080785749225 1.047695508503923 -1.025781918042378
1.849706148517098 0.7871007150510657 1.678540999860647 1.4580203733334764 0.25883248553844834 -0.23456279161371973 0.7481227835350395 0.9609394693852511
0.47770253872175017 -1.119665794529562 -0.23204002419901193 0.4848171424937357 -0.3547189459053917 0.8459940489689268 0.1304838080188823 -0.8083866323073255
-0.20894895492199908 0.46446235145867243 -1.5938543235869556 0.17461406750140893 -1.1992255272723362 0.8626289403983607 -0.7866319592363421 -0.2358501033114429
1.9577282964858886 -0.2924772760438686 1.092868144556052 0.43814517238906847 0.7959201193983142 0.852399038959344 -0.4144749639692951 1.5884146271706576
0.46160127807050894 -1.3638702809098415 1.099891273931394 -1.182898792276912 -0.3532679571744402 0.07074176330110753 0.24304480593659497 -0.1555021678069407
0.14032467595606654 1.4700047655292061 1.391741213373764 -1.4288789881003405 0.04118260877157444 0.5011002907129929 0.9016607424036904 0.11718610293989733
-0.40185801002667176 0.24830063932453458 -0.426716077043759 -0.48037906767901023 -1.1165427399508845 -0.9178553205753553 -0.01909010047674645 -0.7370086258962938
0.5580493105321647 -0.6793734967525676 -0.6939239063045717 -0.09425260639408144 1.44515006314772 0.22178669320916683 0.12296503353475577 -1.257791897845057
-0.18172287988161243 0.06684559585979198 0.7490146893500147 -0.85056597501628 0.43755925360364467 0.11838280700204724 -0.028531395354790157 -0.2277603373709032
-0.2284925673577838 -0.3402491069942313 1.6117266632391491 -1.1463398834810874 0.4180637286859375 0.826942180304054 -1.9236984554577048 -0.6471370542875863
0.38209987543833346 0.6504668750924347 0.4775304881058405 -0.7908535623797025 0.5713068192741563 0.37051246852229486 0.41033108100202426 0.3919591567641313
0.44515514669510026 1.428024356846514 -0.15842246148381936 0.37863155729755743 -0.2508578820859702 -2.2079934683996933 -0.7983778627711231 -0.8704359548529048
-0.41156109429100984 1.384652424035497 -0.019235510186620654 2.331372478318784 -0.24557949050531572 0.38908227547919316 0.22087786899401587 -2.12255635537442
-1.0270588399830576 -0.3600068610906299 0.5032854117080738 0.6212799057126049 1.684042443742659 -0.23530963207759562 1.3234682303069565 -1.7913132036788955
0.04692055506451073 -0.9603854143211205 -0.24916302114652752 -0.45360002513987474 -0.18218321633358722 1.1008849081042744 -0.8415261542868266 0.6428372256708755
0.9352427023715465 -1.6247662749203364 0.28090935634018493 -0.4125921453445822 -0.4714239177134137 -0.462551867723389 1.1134271269632807 -0.09625240900949741
-0.10390396148706117 0.7603090383426979 -0.5677226681814163 0.3846365039992654 -0.24762630069769828 -0.514438781061217 -1.399758514313895 -0.4376978152369989
0.3525352348424687 0.3040149252304551 -1.9436399533955162 -1.1466200742218513 -0.6034182711839179 0.4484973230536153 0.31804366552322044 0.9323247688442122
0.28393343651210035 2.485709211202367 0.13905693957534038 0.10991409629646683 0.9386033556753122 0.1560040213999147 -0.0885950975957579 0.2675996324695054
0.713630460862044 -2.489134472048711 1.951491361211471 1.934365333099979 1.0957258916356318 -0.29138323141686745 1.6140790923618353 0.9910268156723044
