models/latest_3.1_turbo/weights3.npy (npy, 5248 bytes, 1 tensors)

array f8 [10, 64]
1.2390898056119313 -0.0033428481278640785 -0.33019870194186995 -1.397995307603205 1.7060620569904121 -0.37136338042295386 0.46811687784860995 0.4378006386395789
0.7163274071833586 2.117205465755115 0.11979726489449607 -0.34465584076901135 0.2648872088649583 0.1812059829400514 0.9159679956988593 -0.3900755691000296
-1.8126134988239149 -0.452414114878044 0.7627210857847252 1.432421096742198 -1.7812104391442463 -0.17077436976918173 0.9593187763914296 0.3971914283960532
0.14709033835819305 -1.9072466184596242 1.5358964048715118 -0.6094179380834605 -2.0512101669289 0.4610890357382251 1.5080234988359578 -1.7136498688722626
-0.6147278978394456 -1.2570459498277309 -0.699963909769127 -1.073622102059564 0.12887788219578686 -0.30251519566010715 -0.7936171057929041 -1.7136824283179035
-0.4356782512300722 -1.4779831951314946 0.6277999710641533 0.008621434963422757 -0.8647504636027857 -0.7563403016324931 0.27248802730402133 -0.9805048337697416
-0.41663939877703954 1.4638067139648587 -0.3927865964969546 -1.840598142804362 1.8385726521814971 1.106732125065863 -1.5552408779384095 -0.2853014735335985
0.5964510804535218 -2.565107311655782 -0.16737383268165387 -0.5425138260335949 -1.454426106539834 -1.2126085266032596 0.9018502004567808 -0.30407457572149804
-1.2147702145472252 0.31578798826094817 0.49451846784835257 -0.2791424937599596 -0.5127177973354251 -1.7475913969175192 -0.2787235694116943 0.6311004399412755
-0.2332849918664361 0.08465556638107545 -0.9908168381646068 -0.5239522490971461 -1.3316078938542493 0.9057857714925905 -1.087523805443736 0.7377409622219396
-0.3504111134196822 2.030202912494551 -0.38539823270975837 0.3822822394151429 -0.7859041898904081 -0.3890104436022872 0.040664249195951574 -1.407483071091275
-0.9225405155550995 1.722935506172912 -0.8270060966963354 -0.7839770413551992 2.507127989612869 0.5977670655575374 -0.5923559395222219 0.16831540935356354
0.13744181717090162 -1.0497369281653415 -2.096069545295215 1.6927966208562442 -1.4923970088402696 -0.4785163359452428 -0.4929449391570871 0.5677870050295846
0.44071750638546914 0.8741019040751329 -0.5441076146258462 1.011963790110269 1.2954120405090679 1.7103659810915819 -0.7446074621481157 -0.7269488219116007
-2.9186579299139703 0.6810953042978202 -0.8768238558705944 1.8230907638878506 -1.2401854051203005 -1.2322039336161663 -1.745414133203636 0.19150121128419761
0.2642648815312777 1.1973306437993805 1.3890748728127418 -1.921904823135339 -0.24241887935464249 1.353314398860131 0.10813939094142253 0.6100719199159101
-0.21456454634686786 0.3182562359953025 0.6958810791599807 -0.3899299609270482 1.0192640546739271 1.0045887693431077 -1.0576433119336737 1.464062746042719
-1.5385434525944301 -0.6806082413923296 0.09660284080605712 1.0180232408491794 -0.33759179340410095 -0.9022571667837379 -0.9563124269699923 1.2065827430387237
0.20531563763975086 -0.2007146165054571 -0.39576140094552165 1.3106819500493283 0.5507204005087685 -0.5450952919441711 -0.1735942035554666 -0.6622619963385947
-0.6917104789048781 0.8044925903713909 0.7753294606021762 -0.04849187083463124 -1.2471965591571013 -1.3301690402257584 -0.18105195454774772 -0.4083594303708427
1.6149418335333863 -0.5469247133306174 0.38478817148454686 -0.5629932376014247 -0.2845975027669869 0.16358704876114522 0.66743808171615 0.14437774273577678
-0.22616145599138823 -0.2692896295191175 -0.7833014630958214 -1.6620655407138187 -0.06888568942432192 -1.3118640333486915 0.5262352784463802 0.016191488236275454
-1.441049910402168 -0.4978454285673104 -0.2283874101384803 0.9858244565408685 1.4792926604583234 0.08171759694532127 0.2219413037376373 -0.014492379446475584
0.3586850577142277 0.6238558707057728 0.36775544488550915 -0.2841783451045717 0.6457388164467989 -1.4990504749184297 0.43895536147586495 0.4613288809143451
-0.3054971148744386 -0.6662441449093187 -0.5715320569633098 -1.3810440294088895 -0.12318419757364803 -0.5462317429457458 0.9902739126412213 1.583681057278313
0.07861057894287875 1.5894766008571144 -0.7960040588911463 -1.7485505732628155 -0.7672441094106378 0.045393696509774935 -1.2264722120637344 -1.9199251109240016
0.9264647062265012 -2.1776086257958482 -1.0844445611783824 -0.4382657783853829 -0.21619750985185504 -0.3902425799590622 1.152700345583402 0.6177606783312327
1.556455032707187 0.2800578767681897 -1.2310334927932733 0.553727523245427 -0.6539074258159411 -0.3732302155008381 -0.11962794903686721 -0.970191816612973
0.4151842699099796 -1.2450162722052993 0.6965996673609284 -0.3094858803435839 -0.20405792498291156 -0.18807249621954633 1.8081340682934606 1.7852278052240094
-0.10441721334474918 0.11387496104511875 -1.292758555348983 0.6652622302065787 0.9284673008150027 0.3918026943346298 1.325454829563001 -1.1758203842268689
-0.023394842858480182 -0.31589637924439073 0.49472764783339335 -0.03633876248852004 0.18537099254069447 -0.19834391185107822 -0.017405763349621503 0.5777287525325827
0.6159827025789276 -0.10620344145334852 0.5379776328392912 0.5324313173250205 -0.372399734897005 0.6176554848919578 0.3311554255278209 -1.5284292903082222
00000000: 5a90 fed4 4fd3 f33f a639 4fec 7562 6bbf
00000010: 2c68 81bc f921 d5bf 28e0 e153 305e f6bf
00000020: 6286 3bba 074c fb3f 5b4f 76e9 6ac4 d7bf
00000030: 9f2f 447e a0f5 dd3f 73fe 47f8 ec04 dc3f
00000040: 8f97 6274 27ec e63f 35a5 526b 09f0 0040
00000050: 9242 df96 08ab be3f 429c 1e5f d70e d6bf
00000060: b409 cd7a e9f3 d03f 4095 48f5 c131 c73f
00000070: 56b2 361d 9c4f ed3f ae34 1085 fff6 d8bf
00000080: 22ca 1b03 7700 fdbf 5f99 e954 5af4 dcbf
00000090: b947 ed0c 3668 e83f 28bb 4962 32eb f63f
000000a0: 81b1 7684 d67f fcbf b1aa 933e efdb c5bf
000000b0: 1547 614a bdb2 ee3f d19a cd98 956b d93f
000000c0: 732b 6730 dbd3 c23f 020d bb07 1584 febf
000000d0: 5179 cf1b 0893 f83f 4141 350c 5a80 e3bf
000000e0: 6775 41e0 e068 00c0 ef8c 4296 7b82 dd3f
000000f0: 5399 913f dd20 f83f ed9d f91f 1c6b fbbf
00000100: 8f18 25d7 d9ab e3bf 1045 c136 dc1c f4bf
00000110: 98d6 9ab6 1a66 e6bf d5bc 895e 8e2d f1bf
00000120: e3b4 9a08 127f c03f 0dce f9b1 685c d3bf
00000130: 7da7 5db3 4f65 e9bf 25af 1544 3e6b fbbf
00000140: fa24 2708 27e2 dbbf a609 f2b4 d1a5 f7bf
00000150: 22cf 04f7 ef16 e43f d92e b369 1da8 813f
00000160: 63fe 0b2a 09ac ebbf 1111 8593 f033 e8bf
00000170: 00a1 749f 7170 d13f f58c 53ac 4b60 efbf
00000180: 3b3d fe4b 38aa dabf 084f c296 c06b f73f
00000190: 88bd 9064 6a23 d9bf e8c4 c609 1773 fdbf
000001a0: 3f08 4728 cb6a fd3f 8a72 a9be 2cb5 f13f
000001b0: 605d 4242 44e2 f8bf 5ff4 941c 6142 d2bf
000001c0: 95c6 8693 2016 e33f 2556 72fb 5685 04c0
000001d0: e174 c978 816c c5bf e025 8ef4 455c e1bf
000001e0: 5e98 204f 5445 f7bf b6c9 c932 d866 f3bf
000001f0: 1a4b 9bf3 f4db ec3f d135 9135 f575 d3bf
00000200: ed29 7ae4 b26f f3bf d339 83d2 de35 d43f
00000210: 154f abc9 30a6 df3f c4dd 677a 78dd d1bf
00000220: f43f 7427 2f68 e0bf d881 8865 22f6 fbbf
00000230: e4d8 cf61 9bd6 d1bf 693f c18c f931 e43f
00000240: 5663 5b59 48dc cdbf 9bf4 07b9 fcab b53f
00000250: 90c7 8783 c5b4 efbf 6136 d181 37c4 e0bf
00000260: e830 3314 444e f5bf 10c5 3771 32fc ec3f
00000270: 7909 a05c 7f66 f1bf ad35 35ef 929b e73f
00000280: 05b8 12bc 226d d6bf ae43 4b06 db3d 0040
00000290: ce2c 5b59 5daa d8bf b14c 08ed 4f77 d83f
000002a0: 33cc 2b8b 2026 e9bf f0c0 440f 8ce5 d8bf
000002b0: 9075 d3c8 f1d1 a43f b32b 00f8 0c85 f6bf
000002c0: 8769 f1af 7385 edbf eb13 42d2 2491 fb3f
000002d0: 71e8 5c7d d576 eabf f6ee 2d05 5716 e9bf
000002e0: 2130 921e 990e 0440 a141 a665 e820 e33f
000002f0: 85db 7a71 94f4 e2bf 6a0f 4bfd 5b8b c53f
00000300: e308 ed86 b197 c13f 71fa fdf2 b8cb f0bf
00000310: f079 191c c0c4 00c0 c8b5 d5e8 b115 fb3f
00000320: f9df 99af dbe0 f7bf ea23 5ffb 02a0 debf
00000330: 3523 1aee 688c dfbf 6e44 36a7 4f2b e23f
00000340: 14d1 2c33 b734 dc3f 03f8 6b8e a4f8 eb3f
00000350: 9552 4a5f 5469 e1bf 3228 74f1 0031 f03f
00000360: 144c cdf9 01ba f43f 35ab 0fb8 a85d fb3f
00000370: 3114 4907 d3d3 e7bf d43b ff2c 2a43 e7bf
00000380: 5288 2954 6959 07c0 c362 2d61 88cb e53f
00000390: 6523 2ae7 f00e ecbf 8d9b 8838 612b fd3f
000003a0: c17d bfa6 ccd7 f3bf d224 ce78 1bb7 f3bf
000003b0: 745f c15e 37ed fbbf f814 ce97 1c83 c83f
000003c0: 2a1f ea3f b7e9 d03f 16df 592d 4428 f33f
000003d0: 3fd1 e692 a639 f63f 5041 9645 1fc0 febf
000003e0: a96d 61f3 9407 cfbf 6df6 c4ff 2ca7 f53f
000003f0: 6eb5 80eb 05af bb3f 80e5 078c b585 e33f
00000400: 8d6e b8de d976 cbbf b443 5667 4f5e d43f
00000410: b7b6 9c65 a844 e63f f961 7acb 9cf4 d8bf
00000420: 8701 4dd3 e74e f03f dd1e 64ac cb12 f03f
00000430: 7e69 b964 1bec f0bf 16ba d80e cd6c f73f
00000440: 58e3 45bd df9d f8bf 5061 45ef 8ac7 e5bf
00000450: 2374 f6b9 f6ba b83f 153e e0bc d249 f03f
00000460: fa63 049c 1a9b d5bf 635e fd6b 4adf ecbf
00000470: 3006 d384 1c9a eebf 034f d4b4 294e f33f
00000480: 2e93 8266 c847 ca3f e52c dc3c 04b1 c9bf
00000490: 5321 85a0 2754 d9bf beb5 eea2 8df8 f43f
000004a0: 189b ad63 809f e13f 3952 83ae 6b71 e1bf
000004b0: ebdf 85b9 5538 c6bf d00d f511 4031 e5bf
000004c0: 694d a603 7e22 e6bf 529f b03e 67be e93f
000004d0: 612c 9dba 7fcf e83f ef93 b62e edd3 a8bf
000004e0: 3637 1461 84f4 f3bf d0bd de54 5f48 f5bf
000004f0: 0569 d4df b52c c7bf 6d2e 9d97 8f22 dabf
00000500: a07d 7f3f cdd6 f93f 3822 a441 6880 e1bf
00000510: 2f7b 1a91 5ea0 d83f bbc0 eb64 0a04 e2bf
00000520: 2014 ba71 d836 d2bf 2638 3da0 6bf0 c43f
00000530: 486d a21b a75b e53f ed04 a949 f87a c23f
00000540: 07a4 8ccc dbf2 ccbf b2f0 fb91 0a3c d1bf
00000550: e3f9 dc3a ce10 e9bf 60ca 5209 d297 fabf
00000560: 7f68 3d17 7ea2 b1bf 2380 0024 65fd f4bf
00000570: 8eb7 dd5d ebd6 e03f fa21 cb61 8094 903f
00000580: f24b d159 8a0e f7bf 9038 8a12 b3dc dfbf
00000590: e473 ae74 cc3b cdbf 8214 0ebb df8b ef3f
000005a0: ef19 dec7 2eab f73f 144b 63c6 71eb b43f
000005b0: 0ba6 9798 9268 cc3f a355 1c3e 2eae 8dbf
000005c0: 2393 1c2c b2f4 d63f 2d2a 4396 a0f6 e33f
000005d0: 6863 2d22 4e89 d73f 8527 9d5e fa2f d2bf
000005e0: 29b2 4c73 e4a9 e43f 2d3f cd59 1cfc f7bf
000005f0: 2b55 7c3a d817 dc3f 928d 0e92 6986 dd3f
00000600: cd1d 5ac5 438d d3bf 2d2f b13d df51 e5bf
00000610: 9ebc a898 fd49 e2bf 1b5b ca9f c118 f6bf
00000620: 6d7b f6e3 ff88 bfbf 5ba6 fffd ba7a e1bf
00000630: 3f08 9cea 52b0 ef3f 84e1 c4f2 c156 f93f
00000640: fbe5 ada9 d21f b43f 4f04 2704 7f6e f93f
00000650: a276 0d81 dd78 e9bf b30d 792a 10fa fbbf
00000660: 69f4 be84 438d e8bf f976 e8b3 d73d a73f
00000670: a643 8453 a19f f3bf 1001 a364 03b8 febf
00000680: a683 c44f 99a5 ed3f d03e 3a12 be6b 01c0
00000690: 2c61 498a e259 f1bf cbc1 47e8 8b0c dcbf
000006a0: 5c2a 2529 5cac cbbf d692 9b03 bcf9 d8bf
000006b0: d3e5 e5ea 7571 f23f 59ff c50a b2c4 e33f
000006c0: 6dc0 7264 3de7 f83f 7e38 6ddf 77ec d13f
000006d0: 823e fd2c 50b2 f3bf 797e 67c8 22b8 e13f
000006e0: 61b6 0f44 cfec e4bf e220 5dfc 00e3 d7bf
000006f0: be07 cdf0 ef9f bebf b462 66b5 cf0b efbf
00000700: 8eed 440b 6192 da3f e6c0 c12e 96eb f3bf
00000710: 8107 b762 8b4a e63f c990 a9dd 9dce d3bf
00000720: e946 25f1 911e cabf df1f 4572 c212 c8bf
00000730: 58a9 21fd 1dee fc3f 398d f507 4b90 fc3f
00000740: e084 7424 16bb babf a9a5 85d1 e826 bd3f
00000750: c591 4d98 23af f4bf 7a0a 4004 d449 e53f
00000760: 91fc 8c0e 01b6 ed3f 0cb9 a99b 4b13 d93f
00000770: 04c6 941f 1035 f53f c897 0309 29d0 f2bf
00000780: aa90 e353 d1f4 97bf dce2 7172 a537 d4bf
00000790: 81c5 f726 9ea9 df3f 7a3c ee88 fe9a a2bf
000007a0: 956f 4b97 3cba c73f 536b 6153 5563 c9bf
000007b0: 9ce7 6401 d1d2 91bf 22c3 4202 c17c e23f
000007c0: 534d 4f5b 21b6 e33f cbc8 c313 2630 bbbf
000007d0: abc6 60de 1c37 e13f 81de e866 ad09 e13f
000007e0: 3dfd 9ab2 65d5 d7bf 98ca 796f d5c3 e33f
000007f0: b13c a286 a631 d53f f5f4 8145 7274 f8bf
