first_luckyweights1.npy (npy, 100480 bytes, 1 tensors)

array f8 [16, 784]
0	0x3fe17b4648ab9ab2	0.5462981623976104
1	0x3ff7df669e87f099	1.4920412247293255
2	0xbfe686e626a782e9	-0.703967166420708
3	0x3fe1c1491ee8eb7f	0.5548444369991187
4	0xbfea7974f259d760	-0.8273262723366592
5	0x3fbaff76f31e76af	0.1054605811645739
6	0x3fe20c5d2c5a0ab5	0.56400927221724
7	0xbfe23fbf8996214a	-0.570281761859442
8	0x3fed165658bf4d2e	0.9089767201752801
9	0xbfd72f222c0dbf86	-0.3622517996036482
10	0xbfd86e1c665f4ae6	-0.3817206382492898
11	0xbfef69bb0d5f9666	-0.9816565762709615
12	0xbfea8afc45b305d1	-0.8294659959139442
13	0x3fe4c3169915f390	0.6488144864994059
14	0x3fe046a202c398ed	0.5086221746430774
15	0x3fc131f523115e91	0.13433708393380475
16	0xbfe59675928b62fe	-0.6746166097828732
17	0xbffafc51b3e9f677	-1.6866013553511985
18	0x3fdaa5f5338e20fc	0.4163792613476429
19	0x3ff9d098e105aca1	1.6134270467689833
20	0x3fe85128ce128c99	0.7599071526386921
21	0xbfedc8c37dfbfa15	-0.9307572804098664
22	0xbfe501811139919f	-0.6564336143897441
23	0x3fc26ae533ab217d	0.14388718626856792
24	0x3ffc41aea3b664a0	1.7660356898325418
25	0x3fe3f842baad0129	0.6240552564632128
26	0xbffa4b265d3bf680	-1.643347133823596
27	0xbfbbc76ade431809	-0.10851161886520812
28	0xbfec918b32ea3ac9	-0.8927665705139926
29	0x3fff6598f141e32c	1.9623040603748434
30	0x3ff42f00e5d07377	1.2614754654998401
31	0x3fea20c30ade4150	0.81649925348942
32	0xc003468102ea2d2f	-2.409425757190227
33	0xbfb994b1834676c9	-0.0999251313682762
34	0x3ffb4451f4d3eb98	1.7041797221743078
35	0xbfcbefa2b6559cc4	-0.2182505979828645
36	0x3fe0cea3c52b06ec	0.5252245760859444
37	0x3fe33842a32ef8f4	0.6006177127053705
38	0xbff6c58c9c064a35	-1.423229798766113
39	0x4002a74e1ba186ca	2.331691947810076
40	0xbff14e6a230f68a9	-1.0816441888369275
41	0x3ff3437944261a28	1.203973070341485
42	0xbff8f40750a7db47	-1.559577288686073
43	0xbfddc9df7c222413	-0.4654463493575928
44	0x3ffa31ad76403971	1.6371283168005812
45	0xbfd7745692e5b8c9	-0.36647571893162173
46	0x3fd442f336b295d1	0.31658630696832996
47	0xbff580e70536242e	-1.3439703181814013
48	0xbff7ba653805dd79	-1.4830066860575626
49	0xbfebfa94ea5e6dc8	-0.8743385865704392
50	0xbffc13c63351ab1f	-1.754827690567886
51	0xbfccbb4e29d59e9b	-0.22446610491464444
52	0xbfd6a5d6a3ac2a50	-0.35387197478909105
53	0xbfb5b8a6b981f843	-0.08484880475040861
54	0x3fb1114a6cd4684a	0.06667008549666878
55	0xbf83b8296c06a77f	-0.009628604516212167
56	0x3fbcc7ebe01da8e5	0.11242555829599928
57	0x3ffc0d2f2b39049e	1.7532188118350756
58	0xbfec44c8d573ee51	-0.8833965462685659
59	0x4001cae8bec2be28	2.2240767386608873
60	0x3fee0b42817fb867	0.9388744859004533
61	0xbff3cca8a7fca176	-1.2374655305848967
62	0xbfea8d8754114309	-0.8297764436666465
63	0xbfed9a9eca325810	-0.925124545016617
64	0xbfc1bde072950058	-0.138607078502903
65	0x3ff5a159f9320c3f	1.3518924459647363
66	0xbfd66b1d42e85434	-0.35028773817004155
67	0xbff3557ea82f9fa2	-1.2083727426306514
68	0xbfe76747611b76fb	-0.7313572785021444
69	0xbfe7202f2c1de073	-0.7226787435202041
70	0x3fc41992516e5680	0.15703038192866714
71	0x3fe56c99209f4fd2	0.6695066105989957
72	0x3ff154e1518146af	1.0832226928509205
73	0xbfd11f310af0dbda	-0.2675287825435909
74	0x3fc5607b6b08cb8a	0.16700690008437064
75	0x3ff9cfe538aeff40	1.6132557119562563
76	0x3ff7e2b58b29088f	1.492848914713736
77	0x3feaf2bfcd12e8cf	0.8421324735020564
78	0x3fda2a842d3b2583	0.4088449899396311
79	0x3fd3063918c5c4a0	0.2972548238677266
80	0x3fec32162e237115	0.8811140919820298
81	0x3fdcd466385e1291	0.4504638243163664
82	0x3fd0070f3ee51bc0	0.25043088094792765
83	0x3fce29a837bc102e	0.2356462738172253
84	0xbff2194d093b2a75	-1.1311769829359524
85	0xbfb4be1d6edde1b4	-0.08102592426974448
86	0xbfe4b1d9b8212f3c	-0.6467102619439866
87	0xbfde3b2cb0d7a2d2	-0.47236172933348286
88	0xbfbb2b3e7cff367e	-0.10612860252077813
89	0x3fc0e93eb9a82727	0.13211807313228371
90	0xbfe7390496172db3	-0.7257101947265511
91	0xbfb3ea128443fb10	-0.07779041031970402
92	0x3fef8f083c6e3733	0.9862099819453988
93	0xbfb3c76ff38edf06	-0.07726192184679456
94	0xbff6e3b0cbd80724	-1.4305885279322377
95	0xbfb93abc0cfbb227	-0.09855246846172659
96	0xbfd3a7cc9f3e0ec1	-0.30711665678994043
97	0xbff287d3b666b520	-1.1581608891531872
98	0x3fe205a3fccef71c	0.5631885469117353
99	0xbff81a1617095b51	-1.5063687229027958
100	0x3fd15805989623ee	0.27099742795013426
101	0x3fd8bda55d7bec5c	0.38657507066063146
102	0xbfd4b89ce8673b47	-0.32376787849073135
103	0x3ff05cddc3671eca	1.0226724274561314
104	0xbff8f3fad56d7a27	-1.5595653855340375
105	0x3fe84fc4506071a6	0.7597371644838418
106	0xbfd5bfe4f1ecc968	-0.3398372995899508
107	0xbffe9a5a2ffc5fc0	-1.912683665699646
108	0xbfd188f2d130781e	-0.2739836733688906
109	0xbfd184ddabb56a28	-0.27373449104712444
110	0x3fe1d6db895a0eb6	0.5574777300502862
111	0xbff349f44bd387f4	-1.2055552446331577
112	0x3ff12099b3465c3b	1.0704590800212503
113	0x3ffbcefe8b6779aa	1.7380357213474817
114	0xbfeb7c79aac3f60c	-0.8589447341216228
115	0xbfdc6cafd5a9f115	-0.44413371911629557
116	0x3f65f9a8ecad92d5	0.0026825236613369032
117	0xbff1aff948ceb73b	-1.1054623455087966
118	0x3fdf2d9dd09c1137	0.4871592080310338
119	0xbfefc2e588284977	-0.9925410899470951
120	0x3fdfa3d23d77752d	0.494373855615623
121	0x3fdead1cdb412d98	0.47931596194822523
122	0xbfe26971747355c9	-0.5753714823173876
123	0xbfc56e4e0f740e82	-0.16742873911436013
124	0x3fe5e2d358199bc0	0.6839386673644796
125	0xbfdfbaf36e2530cc	-0.49578557735800355
126	0x3fd87583928fb7b0	0.3821724826110495
127	0xbffbf273e3970b8a	-1.7466925516352796
128	0x3ff1678b7e084752	1.0877795146120275
129	0x3ff26ece1b1bc349	1.1520520266460201
130	0x3fde881712577267	0.4770562819592556
131	0xbfd696a41350a51b	-0.35294439207298617
132	0x3ff627ab2585d8df	1.384684702466579
133	0xbfecd7d1caf37046	-0.9013451541791333
134	0xbfdbfc2c75057691	-0.4372664587770965
135	0x3fe31b0514a29755	0.5970483210592002
136	0x3f771867d635abe9	0.005638509380655223
137	0x3fe32e83b030d129	0.5994280282234615
138	0x3fec492422d852b2	0.8839283638540876
139	0x3fe371a9a58d6e7c	0.6076248391577361
140	0xbfb98f81f38b40f7	-0.0998460025396105
141	0xbff141f06610dc7f	-1.0785984026859123
142	0xbfdd2a8f02f0b331	-0.45572257315761805
143	0x3fe8d484b5f49e85	0.7759421876734939
144	0xbfe4f83fe39d005e	-0.6553039022037515
145	0x3ff1af9172435df1	1.1053633178142912
146	0x3fc8cfb7724ea2c4	0.19383900720028724
147	0x3fe8de8aa49bb6af	0.7771657195096021
148	0xbfca81495db8f377	-0.2070705134991859
149	0xbfffb12b978e0874	-1.980754463206293
150	0x3ffac4158338c85c	1.67287207849997
151	0x3fe466113359bf10	0.6374593737545826
152	0xc00468766c88e6fb	-2.5510071257857567
153	0xbffc993fdc0dc99d	-1.7874144168714345
154	0xbffbea5b98f2121d	-1.7447162603795114
155	0x3feebf7e3e4d3fb0	0.9608756272154917
156	0x3fd737afc9568aac	0.3627738443557671
157	0x3fe2f2d57ec29324	0.5921428180487038
158	0x3fd6537eb36f2c3f	0.3488461258209021
159	0xbfccf7a37b948ddc	-0.22630733045762852
160	0xbfe466d4e606b7f8	-0.6375526898098078
161	0xbfd8bbf92fd68eef	-0.38647298499766597
162	0xbffca053762e78c6	-1.7891420952287702
163	0xbfc851cda3c50da7	-0.18999643799371066
164	0x3fe738a9f0620c53	0.7256669707279663
165	0x3fe9c2dcb55d4dae	0.8050368826174485
166	0x3ff429f07ec77b88	1.2602391197503682
167	0x3fd06edae9339d53	0.25676605962367666
168	0xbfcc503e4b2830bb	-0.22119883222365452
169	0x4002c0f682ddff9d	2.344220182800156
170	0xbff0c1b58307df61	-1.0472922438038597
171	0xbff2b5948c4fecfc	-1.1693311196275422
172	0x3fe6849955eeb6fc	0.7036863973969214
173	0xbfaa811620d05b95	-0.05176610136566421
174	0xbfcf42811f943c64	-0.2442170528597415
175	0xbfcedfafb0af7b8a	-0.2412013638231339
176	0x3fcf8f6c917194ee	0.24656445600263716
177	0xbfccee05bced9f9e	-0.2260138676167544
178	0xbfe6cf7b18c0f436	-0.7128272517653673
179	0x3ff254590ff2bac7	1.1455927489256952
180	0x3fc518dbf9d6b987	0.16482114504965414
181	0xbfdf16624ab5f434	-0.485741208038067
182	0xbffefd2c63df64c7	-1.936809911849467
183	0xbfdf4852e366f609	-0.488789293358281
184	0xbff19f2f0612d1d9	-1.1013632046934758
185	0xbfe52e1d0ded9ca8	-0.6618790885958292
186	0x3ff7f3c7af220fa2	1.4970166054854208
187	0xbf9f4eda48afcef6	-0.030574236570784806
188	0x3fba0f7d7a8234fb	0.10179886094029549
189	0xbfc5e657114b490c	-0.17109192223012604
190	0x3fc699caf6d34b95	0.17656838466663474
191	0x3fd1dbe68979195d	0.27904666352369195
192	0xbfffe5173a0ea6cd	-1.993430353914323
193	0xbfc7350a16254af2	-0.18130613404590395
194	0x3ffb6657716c0907	1.712485735945451
195	0x3ff8fa4b53d8221b	1.5611069941679776
196	0x3fda3a27e509129d	0.40979955069296087
197	0xbfe24ef4c30f8ed4	-0.5721381959706044
198	0x3fe41a29da17d248	0.6281937846784524
199	0xbff4abad8c310214	-1.291913554785542
200	0x3fb6fd27a5299324	0.08980033666882697
201	0xbffd5c35f2fdf0f4	-1.835012387454353
202	0xbff61bffcc3faf8e	-1.3818357447116543
203	0xbff5d45096885cbb	-1.3643346672231889
204	0x3fe3d25a5ae6286b	0.6194278502819207
205	0x3ff39b906db7f736	1.2254795347102578
206	0x3fc0c2ae23445d50	0.1309411689951312
207	0xbfe7dbb4c6f442c1	-0.745569599706947
208	0xbffb15ac6f57d507	-1.6927913998927708
209	0xbfee0ca6a9b7300a	-0.9390443148381575
210	0xc003a9c337d27ae1	-2.4578918801411054
211	0xbfe2c82756789113	-0.5869328202138909
212	0x3fad504730fac27e	0.0572530982293573
213	0xbfc9c487efa00611	-0.20131015015071843
214	0x3fffb0317eab412c	1.9805159519201636
215	0xbf84b8cb81269df9	-0.010118093375083058
216	0xbfa33f317699a252	-0.037591500976138406
217	0x3fe2d98516d56c47	0.5890527196855907
218	0xbff28f98c3ec5bd5	-1.160057797742174
219	0xbffc5820c30911ad	-1.7715156191417052
220	0x3fe2709f0747afaf	0.5762477056682566
221	0xbfe696e1f45a271d	-0.70591829037696
222	0x3ff9323fc227f2cb	1.5747678360195774
223	0xbff7519ea2cceb31	-1.4574266776459803
224	0x3fe37682137bb5b6	0.6082163219959316
225	0x3f63697c3c0e09d8	0.0023696352440662864
226	0x3fdae0ac8d1b5bbd	0.4199630144116176
227	0xbff2dee793bbe30b	-1.1794200678688778
228	0x3fee8276569a8d48	0.9534255687216637
229	0xbfe5f73d516d5170	-0.6864306059238015
230	0x3fd0a0a0403fe987	0.2598038318098123
231	0xbfe2278a90e816d4	-0.5673268156249045
232	0xbffa41f9fa83bc87	-1.6411075387693772
233	0xbffe767622fb2bbf	-1.9039212576342235
234	0x3fe289a689cb817c	0.5793030444438467
235	0xbfee67741fdde49a	-0.9501286146543351
236	0xbfe1b1e80a028e0c	-0.5529670901782437
237	0xbfbb0ced20c66d4a	-0.10566598940061059
238	0xbffb659d8e025268	-1.7123084590176862
239	0xc0002049fee1c127	-2.0157661354679877
240	0x3fc4bead525edfa3	0.16206900140764188
241	0xbfe804b4bc0189e3	-0.7505744621269596
242	0x3fc9ca127f5369e7	0.201479255839174
243	0xbfdc15a93d73749e	-0.43882208825182
244	0x3ffe3b7059f93f84	1.8895114435763114
245	0xc00739bbfadbffc0	-2.9031905744922994
246	0xbff43a6df6d79510	-1.2642650263090367
247	0xbf92639c9341eccc	-0.017958113181958876
248	0x3fe1128a745377d9	0.5335132858269801
249	0x3fe9fdc71a9caca6	0.8122287292257127
250	0xbfe2ed50f130a6b2	-0.591469260286621
251	0xbfea262562ef0021	-0.8171564991280357
252	0x3fd376140e84891e	0.30408193032975983
253	0x3ff0193de2cfffe4	1.0061625347007004
254	0x3fcf6d6be64fc726	0.2455267786568182
255	0xbfecb0835d547d52	-0.8965470145084657
