first_luckyweights3.npy (npy, 1408 bytes, 1 tensors)

array f8 [10, 16]
0	0xbfc6d7d152345f77	-0.17846123231788244
1	0x3ff15771d3f798df	1.0838487892120197
2	0xc007f10dbe6b43d1	-2.9927019955143597
3	0x3ff8c133275c544f	1.547167924645027
4	0x4002dc8388a97a4c	2.3576727558823105
5	0xc01a201ac8884222	-6.531352170292424
6	0x4001ca5dae0a2858	2.2238114926195003
7	0x40071e1f4edce07d	2.889708152881268
8	0xbfeadeb27f0eed98	-0.8396847230537103
9	0xbffce48c48ec6a66	-1.8057978485654984
10	0xbfff3a97465cda58	-1.9518044231932858
11	0x40117242d2d6f03c	4.361583036774444
12	0xc015e5a0a8e34c57	-5.474245680688077
13	0xbfe6770855557964	-0.7020303408315098
14	0xc0016a8618077c17	-2.1770135762485654
15	0xbfdfb1691146d660	-0.4952032726972444
16	0xbfb08a76d77595ea	-0.06461279640424036
17	0x400e916e2fcf07bf	3.821010945802271
18	0x3ff1f1b196b2d20d	1.1215072523747296
19	0xbfdda22535b4e4bd	-0.46302156681810996
20	0xc011802e23f8983e	-4.375176012084976
21	0xbffce7ad59eb0a9e	-1.8065618050028784
22	0x40074103b59f414b	2.9067453564859185
23	0xc01b54b756020795	-6.832730621217611
24	0x3fc19c49eb144be2	0.1375820539329587
25	0xbffb1e0303fdbdfd	-1.6948270946412543
26	0xbff4d577be9f21b4	-1.3021161504894794
27	0x400559cb03d048a6	2.6688442514360586
28	0x3fdc2764e347ebad	0.43990442462353024
29	0x401691c2b71789b6	5.642344342052118
30	0x400e25fc0d1aba72	3.7685471557409125
31	0x3fd2f321d87f1537	0.29608961240986126
32	0x40012555eea0c362	2.1432303088007965
33	0xc0129b3d2a2f9d73	-4.651600512653533
34	0xbfd1e055ccbee81b	-0.27931733126354324
35	0x3fd651e96771c930	0.3487494955253565
36	0x3ff6805a5177b95f	1.4063361341792058
37	0x400b46ee1c40d6b3	3.4096338469779197
38	0x4004ce996f8b8d19	2.60087859291674
39	0x3fe0fe312684d0de	0.5310292961426304
40	0xbfa4e9a39e319304	-0.040845025120495065
41	0xc00750d887e9fdf6	-2.9144754999431326
42	0xc00282d7cd9230a1	-2.3138881740797648
43	0xc00b5be31b172ec9	-3.4198667637300315
44	0xc005294901022f9e	-2.645158775214397
45	0xbff0b233070e9c12	-1.0435056949297672
46	0x40005e3e5168db0b	2.0460172996639634
47	0x3fcefe85eff77366	0.24214243142241826
48	0xc0176371e63d9fa9	-5.84711417914506
49	0x3fdf0267048e5593	0.48452163166924683
50	0xc01178e4ba05ca98	-4.368060022929647
51	0xbfe244c1acd52524	-0.5708931327473334
52	0x3ff69cd1902c8521	1.4132857925217837
53	0x40068ed8e279f621	2.8197496121854475
54	0x3fd866951172dd5f	0.38126112655614536
55	0x3fc1502205869018	0.1352579619389196
56	0xbfea0384a71afc6e	-0.8129294647004721
57	0xbfe6836368aaae48	-0.7035386127731238
58	0xbff33f301fef8b22	-1.2029267547120033
59	0xbfeb6d0b001bd1bd	-0.8570609094736522
60	0x3ff2bd370bb58a2b	1.1711950738323462
61	0xbff0db7ccf6fb81f	-1.0535858252510548
62	0xc00e324993e339c3	-3.7745544007986793
63	0x3fc900b2be54af40	0.19533380788322496
64	0xbfdcbf8247d1401b	-0.44918877614418457
65	0xc007871943d1fccd	-2.940966157766161
66	0x4012ab1f54bc77b7	4.667111705783035
67	0x3fe39dcf7622a5dc	0.6130139643984722
68	0xbfde1b172ea342f9	-0.47040347628085005
69	0xc0075267920ce8b2	-2.915236607569647
70	0xc0143faafa5355b1	-5.0621756661761745
71	0xbfe277dab8fff42c	-0.5771306622770047
72	0xbff37e26766cc131	-1.2182983995408672
73	0x4009042ac8550c6c	3.1270347262339353
74	0xc0060d933904f1c1	-2.756628461326017
75	0x3ffa081b9e6b7b4f	1.6269794643664743
76	0x3ff1f4288f2698fe	1.1221089927508383
77	0xbff1dab5c5375752	-1.1158960059887773
78	0x3ffbbee018a4d98a	1.734100433602722
79	0x3fe6ee092c8dd585	0.716557108897789
80	0x3fe3bc29b80eac3e	0.6167191119069526
81	0xbfe07477f74a4480	-0.5142173604855458
82	0xc00ffbc4c1734f2e	-3.9979338754000286
83	0x3fe0e36fb7838466	0.5277632316830363
84	0xbfd9e5dd250af307	-0.4046547757860001
85	0xbfe67edd70157cd4	-0.7029864491595625
86	0xc00748020237262b	-2.9101600812034767
87	0xc007b5ddac411f47	-2.963801713693019
88	0x400aafe83e625847	3.335892188431021
89	0x400304757c287402	2.377177209839375
90	0xbfd874e890179620	-0.3821355254316092
91	0xbff28baba0c33e71	-1.159099224070726
92	0x400dc3355b853017	3.72031661510665
93	0xc00811b59a233a32	-3.008647159767201
94	0xc00860ba99fc885b	-3.0472309141342016
95	0x3fe557dacd61fe15	0.6669744502432332
96	0x3fff8645b15cd115	1.970281308004876
97	0xbff72aa2f213acfb	-1.4479093032958292
98	0xc010c10c5f9caa1a	-4.188523763596573
99	0x3fea01ef68ad6a4c	0.8127362293701679
100	0xbffb8c7dfa9ff944	-1.721799830440049
101	0xc009de135dad6b02	-3.233435375075147
102	0xbffd2a25ef3bc61f	-1.8227900834139132
103	0xbfd21384cfcdec8b	-0.2824413327541115
104	0xc009d82fa0f91008	-3.230559594727314
105	0xbfe5043eb8c8d7b6	-0.6567681893418384
106	0xbff419cf9c79113a	-1.2563015091155436
107	0xc0083b7f2acb42b9	-3.0290511458664153
108	0x400883c96ff7d9b0	3.064349055053036
109	0x400184237fa2a50f	2.1895208331594698
110	0x3fd7fd7e1d793bc1	0.37484696272161605
111	0x3ff017160628169a	1.005636238145064
112	0xc0160519580751ef	-5.504979491659909
113	0x3feee3dee868f854	0.9653162516840532
114	0x3ff718fc5b0c4952	1.4436000401079423
115	0x3ffa6977df388c32	1.6507490844312653
116	0x3fb165c991d68a2b	0.06795940218447842
117	0x4000af9e530e9f94	2.0857511986577695
118	0x3ff6a9cbd83449c9	1.4164541669348287
119	0x3ff47b1f8055925d	1.2800593388611994
120	0xbfdde9ea68abb3e2	-0.4674020788359582
121	0xbfc8befd1c9681a3	-0.19332851310629193
122	0xc002ab153388e0b6	-2.333536532034567
123	0x3fee1fc7c17a5b4c	0.9413794306627579
124	0x3feab9b8b2d50073	0.8351710789502377
125	0xc013d0ac26f72b2d	-4.953781708560922
126	0x3ffa4d9ce2c87947	1.6439484461512437
127	0x3fd5df08f3842938	0.3417379739845674
128	0x400e6f79a1a58b27	3.8044312122959982
129	0x3fe7d0d6c164298d	0.744243028371146
130	0x3fdfbccaa020036d	0.49589791905605446
131	0x3fe7844bb873e967	0.7348993876069415
132	0xc000dbbfb9dfb8eb	-2.1072992822074545
133	0x3fc72ec40e205f75	0.1811146801926459
134	0x4004c39a846f444a	2.5955095621543807
135	0x400aaa289e9a67bf	3.3330852881308313
136	0xc00720e17b799469	-2.891055073402232
137	0x400a6234b03f8d34	3.2979520577806856
138	0xc00b4c11f244c45e	-3.412143604968647
139	0xc0021a7bd324f7f9	-2.262931489530271
140	0x3fe21c7dd0be115d	0.5659779622078919
141	0xc015724bcc8f7812	-5.361617275482802
142	0xc0101709618ac6a8	-4.022496723265853
143	0x3ff16585873c79d2	1.087285545603312
144	0xbfd295c5350dff12	-0.29039125615234795
145	0xbff3d782bff2b3ed	-1.240114927098371
146	0x3fe35f64c0d41bff	0.6053947225744877
147	0x3fdf932f26dba971	0.4933584098313509
148	0xbff0bb70d60017fd	-1.045761905611925
149	0xbfed4b31115b4179	-0.9154286707871925
150	0xc005c285c864be4f	-2.719981732916302
151	0xbff397637d6cf6b9	-1.224460115379243
152	0xbf81098dd7440083	-0.00831900418461396
153	0xbfe158c5689b3888	-0.5420863192646417
154	0xbfec02fa9cb062d3	-0.8753636417705714
155	0xbfb417241838451f	-0.07847810355476213
156	0xbffd3ee03c8ad971	-1.8278505673348173
157	0xbfed24fe118b5bfb	-0.9107656805671235
158	0x3fdf822669382b85	0.49231872821172146
159	0x3fec139c369ecee9	0.8773938242724998
