first_luckyweights2.npy (npy, 2176 bytes, 1 tensors)

array f8 [16, 16]
000000 74 2b 94 31 69 db 02 40 e0 30 74 89 91 8e 06 c0
       2.3571342347472015 -2.8196135271629004
000010 ac a7 aa 70 75 80 ed bf d6 38 48 5f 94 01 dc 3f
       -0.9219309998054448 0.4375964098443438
000020 02 0f 90 b4 b1 bb ee bf 46 1f 45 a2 b5 c7 0f 40
       -0.9604118849387933 3.9725144078583154
000030 e2 d7 0d 70 c2 49 e6 bf f7 cb 91 62 cf b4 f7 bf
       -0.6965038479381713 -1.481643090283567
000040 7d a0 9a 7d f7 bc fe bf 55 6c 21 c7 8d 6a d5 3f
       -1.9211344629675573 0.33462852903693846
000050 b4 50 4c aa 3d 36 dc 3f 6f 00 7c 12 71 63 ec 3f
       0.44081060057329613 0.8871388779662207
000060 11 f2 f0 3e 99 ae 04 40 20 9e bf 5e 3c d2 f0 3f
       2.5852532307892564 1.0513271046746766
000070 d3 bf 99 4a dd da 02 40 28 a0 79 4e 57 66 f9 bf
       2.3568673923655097 -1.5874856057580562
000080 1d 7a eb ca 6e aa da bf 44 e9 42 20 8e eb b0 bf
       -0.4166523915900216 -0.06609428680068158
000090 5c 04 db dd 60 d4 d7 bf 84 e7 03 c7 fe aa e6 3f
       -0.37233754792766205 0.7083734404579762
0000a0 82 1e 35 65 03 51 f7 bf cc f6 70 2a 91 43 0f c0
       -1.457278628675255 -3.9079917255138295
0000b0 0f 16 44 c0 3e 87 f4 3f 91 0f 1f 28 fd 5f d0 bf
       1.2830188284291386 -0.25585869711016423
0000c0 e5 41 98 ac 77 7a 02 40 f4 83 5f 03 2e d8 f5 3f
       2.309798572918441 1.3652782565843582
0000d0 40 26 7f b5 bd bc 06 c0 6d 37 9b 99 35 ab f9 bf
       -2.8421587161472246 -1.6042991638418826
0000e0 19 e2 43 f2 4c fc f8 3f 0e e3 f6 50 34 e9 00 40
       1.5615968192561296 2.1138693166107094
0000f0 40 80 f2 ca 87 0d 06 c0 6a 21 ee 6b 85 ef d3 3f
       -2.7566066603904176 0.3114942125325998
000100 c0 9c 6c ae a1 ed f1 3f 97 cb 83 67 4c 84 d5 3f
       1.1205155194709704 0.3361998568427053
000110 f9 f2 31 61 b9 9e 0d 40 e0 ba 20 21 94 4a 00 c0
       3.7025020211570987 -2.0364153469193838
000120 c0 7c 1c 72 05 7b fa bf 44 20 a5 22 2e 79 f2 bf
       -1.655034490344221 -1.154585013706325
000130 ca 91 b9 99 ba 7e de bf f2 cc b9 cd 7e c3 fe 3f
       -0.4764849187106647 1.9227283512271325
000140 44 5a 48 7a aa fd e7 3f 6f ae 22 6b 06 80 f0 3f
       0.7497150791485372 1.031256121156641
000150 dc e5 94 c5 fd 95 03 c0 4e f3 28 d8 b2 5f 07 c0
       -2.448237937551978 -2.9217278373238633
000160 c2 d0 ca 8e 26 39 09 c0 a9 e3 15 4e fa b4 01 40
       -3.1529055743831984 2.213368043940552
000170 63 f8 db e9 e5 df b0 3f 42 7e 4e e5 79 5b d9 3f
       0.06591641387419282 0.39620826142524745
000180 fc 19 2d 64 db 12 fd bf 5c f9 79 3d 61 9b 80 bf
       -1.817103759110636 -0.008108863533604342
000190 28 ab 88 15 d7 f9 f0 bf 3a 2d 47 a1 e8 f7 f6 bf
       -1.0609961358229132 -1.4355245876239011
0001a0 e0 ba cb 4f 16 e0 f4 bf e0 6e 73 66 9f 7a ed bf
       -1.304708778097556 -0.9212185860628459
0001b0 11 cd 41 a1 92 4f dc 3f e7 7c 82 de 1b cf d3 bf
       0.44235673663861613 -0.3095159218737095
0001c0 5a 34 cd bf 32 c2 0e c0 2c 1a 5c 12 62 87 e8 bf
       -3.8448233589647716 -0.7665262564267485
0001d0 1c 1e cd cd 92 9f f2 bf 4f 8e bc eb 39 44 bb bf
       -1.1639583624945606 -0.10650980000769404
0001e0 ee 94 de 99 d9 4f d2 bf eb 71 97 6e 45 16 eb bf
       -0.28612365747751667 -0.8464686546317898
0001f0 bb 3c a4 4c 70 ad dc 3f 92 92 57 41 14 7b ee 3f
       0.4480858562901166 0.9525243068897729
000200 d4 71 18 61 1f 02 ed 3f e2 f1 f8 5e ff 8c 05 c0
       0.906509103431342 -2.693846456501192
000210 ea 42 75 e3 f0 d0 f8 3f f4 c9 71 85 47 d4 f8 3f
       1.551010979183213 1.5518260204959207
000220 65 13 f8 0a 5b bb d5 bf 2a 2c 96 eb 31 2f f3 3f
       -0.33956028052516835 1.1990222170450218
000230 48 41 29 ab cf 45 a7 3f d2 81 93 75 12 34 f9 bf
       0.04545449222917114 -1.5752129166431712
000240 81 1f fc d7 31 a8 f1 bf 81 d4 b7 8f 24 d8 c9 bf
       -1.1035631596477915 -0.2019086553333729
000250 eb a4 b1 91 92 2e f4 3f da eb 4f 1d 45 a5 06 40
       1.261370247952352 2.830698231698517
000260 d0 bc 0a a6 76 68 f4 3f c2 63 40 45 2d 1b d7 bf
       1.2755037771237774 -0.3610337425503155
000270 e9 99 00 d4 ef be aa 3f d8 7a 73 da 24 50 f2 bf
       0.052237982396309786 -1.1445663960691288
000280 b3 e5 a2 b2 ee 2c 0d c0 11 d1 87 72 ea ef b4 3f
       -3.64693965491889 0.08178582473903286
000290 51 75 69 74 14 e3 f2 3f b0 9c cf 25 3d 33 a1 3f
       1.1804394290296225 0.03359404646453734
0002a0 b5 41 94 46 bb b5 f1 bf 21 d0 50 69 89 4c f2 bf
       -1.1068680531499073 -1.143685733212813
0002b0 e3 87 3a 5d 09 34 08 40 88 49 71 2b 96 22 05 c0
       3.0254084857451615 -2.64188798846698
0002c0 67 da a6 9e 12 5a 09 40 49 38 41 cb bf 2a b7 bf
       3.1689808268231903 -0.09049605095171488
0002d0 6c c1 49 a7 1c d8 08 40 24 d6 75 37 1c 00 e3 bf
       3.1055234021552476 -0.5937634547432862
0002e0 fc 49 8f 24 9f 3c ff 3f 22 91 dc 65 f8 1a 01 c0
       1.9523002079118887 -2.13816909388892
0002f0 cd a3 dc e9 72 de ea bf 6c f4 fa 83 e7 64 f3 bf
       -0.8396544044127211 -1.2121348529319915
000300 28 7e c1 91 57 5a ff bf ee 92 65 ef 47 96 b6 3f
       -1.9595561688983114 0.08823060602805885
000310 29 4f a7 6a 1f cf f4 3f 3f d2 f4 44 54 c2 f0 3f
       1.3005670705942498 1.0474436467749368
000320 9d 05 b2 e0 94 e3 04 c0 ee 7b 4d 54 65 67 fd bf
       -2.61112380545883 -1.8377431195328842
000330 09 03 13 37 8c 9e f2 3f 4b cc 7d 19 bd 64 f4 bf
       1.1637079383219222 -1.2745944019086604
000340 7e 9c 93 ce 8c e3 00 40 4c da 3c f1 fe 35 f4 3f
       2.111108411674251 1.2631825850818528
000350 74 ad b9 3f f7 f7 b1 3f c0 58 de 56 6f 54 0b 40
       0.07018990808290032 3.4162279879193136
000360 96 2c f6 75 4d e6 e1 bf e2 58 6e 61 99 f8 ff 3f
       -0.5593631080568169 1.9981931501293322
000370 e7 4f b3 73 91 d5 02 c0 ba 24 28 57 cf 0f f3 bf
       -2.354281333837196 -1.1913598446429163
000380 9c 8d 61 b7 6a cf f3 3f 4c b0 9c b6 9f b3 e3 3f
       1.238138882000249 0.6156767431871315
000390 8d ed 6f b5 07 d5 f1 3f b7 1b ca be b1 55 fe bf
       1.1145093047515247 -1.895921464225223
0003a0 a1 e1 f2 33 29 08 02 c0 ad af 88 06 cf e1 f3 3f
       -2.2539848383423338 1.2426290755492844
0003b0 20 10 17 1e b4 71 e3 3f a8 62 52 d7 4b 49 01 40
       0.6076298320481364 2.1607891866700193
0003c0 33 4d 20 80 ef 05 00 40 6a a8 e0 5a 55 e8 0f c0
       2.0028982171876577 -3.9884440517244473
0003d0 a9 8b 2f 0b c7 e4 e6 3f c0 ff 8b 1d 55 22 fb bf
       0.7154269426795185 -1.695881953637567
0003e0 5e 7e 1c 05 26 de c8 3f 2b e1 98 aa a2 31 ea 3f
       0.19427943467688896 0.8185590106941495
0003f0 78 f4 ed 9c f5 e4 00 40 22 00 b8 03 00 b6 00 40
       2.111796594631013 2.0888672152068617
000400 33 2d 77 2b 4d 0b e7 3f 7b a5 71 c6 a9 7d f2 3f
       0.7201295708595467 1.1556794883457246
000410 6e be 5a 2c c5 6c f6 bf cf f2 d0 53 d9 30 f0 3f
       -1.4015552265736022 1.0119260095663554
000420 99 40 14 3c 9e 85 f5 bf 68 56 50 83 db 17 e6 3f
       -1.3451216074791204 0.6904122891161935
000430 7f 96 dc ee 15 6c e5 3f 3d c3 ae 45 99 29 f0 3f
       0.6694440522448558 1.010155937383572
000440 e9 9f 4e f3 02 5e 00 c0 7d dc 44 2a 38 67 0d 40
       -2.045904064976629 3.6754000952019497
000450 8f b0 dd 2c c4 26 e6 bf 51 21 c1 0e 3c 41 c5 bf
       -0.6922322155273991 -0.16605330200605775
000460 90 ea c7 0f f9 db f1 bf 46 98 17 36 da ee 02 c0
       -1.116204320568304 -2.366627142520005
000470 1a 7f c7 72 98 38 ec bf 4c 30 39 99 d3 c1 d1 bf
       -0.8819086305411219 -0.2774552341768455
000480 ce 9e 03 ea da b4 f9 bf d1 de 28 e1 e1 0c 02 c0
       -1.6066540852715891 -2.2562902060125016
000490 b2 8f a5 09 02 60 fa 3f ec 4d 00 65 92 62 e6 bf
       1.6484394432854796 -0.6995326969794724
0004a0 98 56 1f 2e 65 54 e7 bf 5f b8 3c cf 74 db fb bf
       -0.7290521527126712 -1.74107819511439
0004b0 4a 84 72 64 25 e9 09 40 83 17 ce 16 39 c0 f4 bf
       3.23884085154035 -1.2969294443914527
0004c0 4f 85 7b 8c 1c 6f f4 bf cf 97 82 2d d9 71 fe 3f
       -1.2771268355939644 1.9027950074901019
0004d0 62 5e 25 4a df e3 c2 3f 40 c0 03 5c 99 ed f5 bf
       0.14757910843285332 -1.3705075830767015
0004e0 33 73 0d fd e3 2b cf 3f 3a 6e b3 e2 dc 73 f0 3f
       0.24352693420487412 1.0282868247512753
0004f0 eb c2 29 65 46 14 c5 bf c3 83 bc 25 e8 4a f9 bf
       -0.1646812433205221 -1.5807877992703971
000500 fd d4 b4 77 ef 81 f1 3f 57 68 a9 c2 c3 e3 d7 3f
       1.0942225147276183 0.37327665338455546
000510 6c 57 97 62 4a 56 ed 3f 69 bd 89 5c 7a 8f e8 3f
       0.9167835164650859 0.7675144011863441
000520 84 01 c9 68 9a f6 fe 3f 0f 43 2a e7 4f c9 df 3f
       1.9352058499499387 0.49666211676326183
000530 a5 b4 7c 76 dc a1 bc bf 7e 6a 9b 5b 98 28 02 40
       -0.11184480564834816 2.2698218495182223
000540 e6 a5 cb f0 aa db e5 3f a2 c3 aa 20 ed 4a d0 3f
       0.6830649092709649 0.25457313718930596
000550 85 04 e3 16 7b d8 b6 bf cc e4 b9 18 4f e0 d5 bf
       -0.08924073513755289 -0.3418157330957683
000560 6c 1b 9e de b3 40 dd 3f 7b fa d7 6b d0 7c 01 40
       0.4570741342544611 2.1859444070135488
000570 2f 12 56 a8 cf 24 e0 bf 6c 6a cf 97 cd 94 ef 3f
       -0.5044935500923823 0.9869144406359971
000580 67 13 3f e7 27 4e e4 3f 19 29 cc 92 b7 0d 99 bf
       0.6345405117541362 -0.024466389021690824
000590 79 ed 88 e2 16 60 e1 3f b8 5b fa 12 07 d5 f9 3f
       0.5429796623715638 1.6145086995436326
0005a0 45 a5 88 de c5 88 c9 bf 41 66 2d 2b 27 f8 e1 bf
       -0.19948647848040416 -0.5615421145732357
0005b0 30 a1 08 31 31 d7 f1 3f c9 ae ae d2 f9 c0 d7 bf
       1.1150371470813063 -0.3711533124394291
0005c0 df e5 0c c7 e3 d0 f6 bf 46 40 a3 52 84 3d e5 bf
       -1.4259984755902833 -0.6637593854920929
0005d0 71 b5 4a 52 43 30 04 c0 f0 ca 82 8c 5d 23 e6 3f
       -2.5235659054803183 0.6918170685151761
0005e0 ab bf 8e cd b8 27 0b c0 20 86 5f d6 8d 7e f6 3f
       -3.394395452421994 1.4058969854307932
0005f0 7a ab da e0 74 50 de bf bb e4 50 32 ee c5 f6 bf
       -0.4736606784669487 -1.4233228650539747
000600 a6 e1 9e 26 8a ba e0 3f 74 e3 1a 57 71 07 da 3f
       0.5227709535893623 0.4067042685160722
000610 ec ea ab 65 8a c8 fe 3f 5b 67 0c 29 f1 45 fe bf
       1.9239601108117155 -1.8920756915526542
000620 f1 49 da ce 68 36 e3 bf 20 99 19 30 e3 a4 e0 bf
       -0.6003917732326142 -0.5201278628781303
000630 83 4b bb d6 5a 3e 04 c0 99 dd 25 7d 7e 59 db bf
       -2.530446698752202 -0.42733728620029293
000640 75 d3 80 9e 50 e4 d4 bf e7 9a 47 11 2f 07 e6 3f
       -0.3264352367289612 0.6883769357198987
000650 d5 0a b3 b3 8c a2 10 40 46 17 0d e3 cb ad e0 3f
       4.158739860346675 0.521215384921313
000660 fa 80 aa 44 c8 db 0b c0 28 b6 9e 30 16 13 06 40
       -3.482315575078357 2.7593196676669045
000670 1f 76 0d aa 33 4b 09 40 24 95 fa eb e7 d2 dc 3f
       3.1617196355207535 0.4503726772766916
000680 a4 2e 80 d1 16 a1 d7 bf 94 52 1e 00 f8 32 01 40
       -0.3692071004777324 2.1498870858434405
000690 39 11 be a9 e2 d6 0b c0 0d 46 a1 af 80 11 e2 bf
       -3.4799245129708223 -0.5646365576050713
0006a0 8d 48 57 6d 2f 6a f2 bf dd 94 ce bf 8d 1b f8 3f
       -1.1509241362696543 1.5067269794902167
0006b0 22 62 0e 35 15 a9 f1 bf 08 dc 77 ae ec 14 c9 bf
       -1.1037799904353354 -0.19595106619792113
0006c0 e9 58 fa 6b 01 51 fd 3f de 5b 14 d0 60 42 ea bf
       1.832276746548411 -0.8206028045705087
0006d0 16 3f f8 9b 2e 79 06 c0 57 c7 20 5a fd bb f9 3f
       -2.809170931352024 1.60839591223017
0006e0 2a 34 f0 7c 47 66 dc bf 7f 1f b4 01 6c 25 d6 3f
       -0.4437426300144717 0.3460340515743993
0006f0 12 10 f0 d5 75 8a c1 bf 78 cd f4 a0 2b d5 dc 3f
       -0.13703797289065328 0.45051089018235
000700 9f 28 16 f3 d1 7a ed 3f d9 c0 16 25 c2 cb 02 40
       0.9212426898750613 2.349491395718456
000710 4b c8 ef ad a3 18 f6 3f 3c 5a 0b 96 09 8b e3 bf
       1.381015471878089 -0.6107223444512964
000720 7e 34 84 6c ae 61 f0 3f aa 47 cc c9 5c 5d 00 40
       1.0238479842112436 2.0455871358362474
000730 75 65 b3 11 80 44 0a c0 d5 23 f0 63 bb 30 f8 3f
       -3.28344739750599 1.511897459395404
000740 a1 4b 64 1d 6c 98 f5 3f 9f 56 da 38 e1 a2 e3 3f
       1.349712481319081 0.6136327848823447
000750 f3 15 25 86 a4 63 ca 3f a9 24 62 4c 43 06 f8 bf
       0.2061658530239324 -1.5015290244794335
000760 93 fb 99 4e fb d7 fe bf e1 af 2c 72 73 4f fc 3f
       -1.9277298994418046 1.7693972072547626
000770 32 0e 63 4c 06 51 ff bf 65 f7 c0 66 65 15 c5 3f
       -1.9572813972344076 0.16471545712732474
000780 eb 8f f4 f8 35 40 bc 3f ad 98 99 d1 0e 24 d9 bf
       0.11035477951060073 -0.3928257986903059
000790 4a 43 73 49 72 fd e2 bf b0 72 3a 32 f8 49 d7 bf
       -0.5934382853102786 -0.3638897409926285
0007a0 8c ed 08 30 c5 a0 ce bf c6 ec f4 a9 47 47 d6 bf
       -0.23928131909802308 -0.3481005820974129
0007b0 dd 1d 30 03 fa e7 e7 bf 17 45 34 78 33 0c e0 bf
       -0.747067457415081 -0.5014893863427997
0007c0 41 4f d4 67 05 da 98 3f 7c 67 46 37 93 e8 c3 bf
       0.024269184553374904 -0.15553512762999933
0007d0 f1 bd f9 46 9b 23 ce 3f 84 da 26 96 02 80 d0 bf
       0.23546162572482346 -0.2578131166768929
0007e0 de 49 c3 b6 dc 50 00 c0 59 bd 89 1d 9e f4 f4 bf
       -2.039483478388532 -1.3097211030797864
0007f0 ae 37 67 9c d4 1a e3 bf 4b ae 58 2e 36 0b f2 bf
       -0.5970252089261885 -1.1277372179419156
