hopefullyweights3.npy (npy, 768 bytes, 1 tensors)

array f8 [10, 8]
000000 cb 8b 0d 88 5f cc de 3f e5 be 23 94 a4 10 1f c0
       0.4812239483491651 -7.766252817804092
000010 35 1e f3 5e 5b da f4 bf 31 c8 02 25 c1 e3 19 40
       -1.3033097943279135 6.472416475577163
000020 49 1e 8e 18 f5 5b 14 c0 c8 a4 30 9e 7c 14 f9 bf
       -5.089802154230321 -1.5675016574189602
000030 59 aa e6 ca f6 f3 10 40 f3 a6 ad 3c 65 30 11 40
       4.2382461264883995 4.297261188601385
000040 82 87 68 77 53 31 95 3f f7 6c 0e 78 bd 7d 12 40
       0.02069597641287358 4.622793079262229
000050 42 64 e7 4c 31 58 d9 bf 94 00 0b 50 25 2d 22 c0
       -0.3960078478826895 -9.088175298064279
000060 3f a5 ba bb ca a6 f9 3f 7d 04 a7 64 5c a3 eb 3f
       1.6032206853072493 0.8636915174357821
000070 5b be 0d 8a bd de 1e c0 4a d5 70 ce 65 89 15 c0
       -7.717519909943429 -5.384177423130788
000080 5e 98 d1 a9 17 cb 10 c0 96 1e e0 43 16 95 0d c0
       -4.1983324560333966 -3.697796373631557
000090 d4 a0 fe cc ad e6 ce bf 59 53 69 a1 67 20 d2 3f
       -0.24141476163391096 0.2832278324397542
0000a0 4a 9b a2 e4 64 82 12 c0 e6 ac 24 39 72 08 13 40
       -4.627338001656264 4.758248226989258
0000b0 78 ec b9 a2 89 b4 13 c0 43 b3 3b 72 5b b8 1e 40
       -4.926306288335688 7.680036339658559
0000c0 3f bf 43 c3 90 03 21 c0 0d 5d 0b fd fe 65 cd bf
       -8.50696382715216 -0.22967517238314664
0000d0 28 a3 02 e4 85 a5 e6 3f 97 e2 ee 49 6e 3a 11 40
       0.7077054456068241 4.30706134338893
0000e0 d2 32 3f 58 02 21 01 c0 97 f3 4c e5 1a 14 12 c0
       -2.141117753437677 -4.519633848973988
0000f0 9a b6 3d b3 01 54 14 c0 ed 72 32 14 97 d6 14 40
       -5.082037735597305 5.209560695246847
000100 46 53 81 59 61 99 13 c0 36 91 9e 25 96 c1 e5 bf
       -4.899785421865834 -0.6798811659578294
000110 83 77 f0 c0 79 32 00 40 1a c7 d1 a0 cd 08 0e c0
       2.024646289194551 -3.754298454667958
000120 fd cb 23 31 b8 7a e1 bf 4f 05 4b 7d cb 85 09 c0
       -0.5462304076921779 -3.1903295315284264
000130 6c e8 6d 5c 3e 94 23 40 1d 1c 8d 3c 22 ec 07 c0
       9.78953827706956 -2.9902996759951876
000140 67 db dc 0d 6c 6e f5 bf e0 0d 8a ed 6d 21 f4 3f
       -1.3394585172188387 1.258161476028242
000150 bb e9 4f 10 1d 47 f2 bf 9c 54 94 92 ce 68 02 40
       -1.142361701697708 2.3011752559201124
000160 46 2a 8b 86 0d 96 13 c0 36 dd 6a f2 0b e2 09 c0
       -4.89653597092053 -3.23537434948562
000170 2a 7c 98 29 29 89 18 40 60 65 41 cc 90 84 0c 40
       6.133946084911296 3.5647293050248408
000180 23 1e 9b 9b 4b 34 10 40 a8 cf 34 f7 71 e8 08 c0
       4.051069671003947 -3.113498622225922
000190 fd fd e2 53 0e 02 e3 3f 27 d4 32 8f e0 e2 18 c0
       0.5940009725963474 -6.221559751012172
0001a0 fa f4 31 95 ef f8 03 c0 a1 8d 9b 41 95 28 ff bf
       -2.4965507179136894 -1.9474079668806115
0001b0 20 38 3e 12 52 73 02 40 a4 f6 31 01 37 c8 06 40
       2.3063088822591595 2.8477611630795128
0001c0 fd 9f 6f fd 35 87 13 c0 fd 11 e2 f0 c4 fb fb bf
       -4.882041892946288 -1.7489671144004426
0001d0 18 0b b9 59 54 9a f4 bf b7 85 10 6c d7 f1 1d 40
       -1.2876780991361496 7.486173332699244
0001e0 61 40 f3 53 8c 9d ad bf ba 63 a0 da be da f3 bf
       -0.057842622039630205 -1.2409046688173775
0001f0 8d 5f 68 af 49 33 13 c0 b8 36 fd 83 6e 17 1c c0
       -4.800085774178922 -7.022882520990315
000200 07 81 a2 92 40 30 23 40 87 64 7c 6b 33 f8 c0 3f
       9.594242651307026 0.1325744891007938
000210 a3 d4 cf 1b 57 54 e7 bf f7 16 93 38 40 74 04 40
       -0.7290454428863494 2.5567631168258873
000220 7b be b1 cb a6 3b 10 c0 c6 0d 47 35 1a f2 11 c0
       -4.058253462527882 -4.486428101026325
000230 dc b4 50 f2 75 50 20 c0 a9 71 70 b9 30 01 f0 3f
       -8.157149860717645 1.000290607807168
000240 13 9c bb cf 22 c2 d2 3f 6e 0b 38 5f 8d e6 e3 3f
       0.2930991200104824 0.6218935832733743
000250 df 91 6c ff 97 13 fc bf f7 ed f9 b3 11 a6 02 c0
       -1.754783628225702 -2.331088453354592
000260 b9 0c 58 d0 b7 20 03 c0 1d a7 1c f5 db a7 ff bf
       -2.3909755970831523 -1.978481252163369
000270 74 50 e4 56 70 60 fd bf bc ff de 40 0b c2 05 c0
       -1.836044635220813 -2.719748026662243
