models/what/weights3.npy (npy, 768 bytes, 1 tensors)

array f8 [10, 8]
000000 64 57 a2 80 36 b6 c8 bf cf a1 6a fd 04 7a f3 3f
       -0.19306069642032775 1.217289914997412
000010 cd 4d f0 43 0d 75 c2 3f 74 28 95 98 4c 87 e5 bf
       0.14419713799780567 -0.6727660160188536
000020 5e 6e 44 e3 5c cd d1 3f 66 d0 39 0c 80 c3 a1 3f
       0.27815935319970275 0.034694673054134026
000030 c5 a8 d6 ba 22 43 c7 3f c8 45 fe 92 bb 8e d7 3f
       0.18173631785368208 0.36808671335992615
000040 cf fd 1b a6 5a 64 f0 bf 4c 5c b2 20 16 fc ed 3f
       -1.0245005119939952 0.9370222700698689
000050 5a 19 6a 6e 44 98 b2 3f 22 b8 56 3d 9b d4 d2 bf
       0.07263591476121203 -0.29422646513092066
000060 64 b0 61 33 e6 f8 ba bf 46 0d b2 b9 5f 49 f5 bf
       -0.10536040071900882 -1.3304135564547592
000070 13 78 bf 79 5d 0b ca 3f ec d6 54 5f 0c 43 e2 3f
       0.20347183651659914 0.5706846105519765
000080 00 80 f4 79 a0 a0 00 c0 1d 2e 55 ef 18 9c fc 3f
       -2.0784310844173888 1.7881097172675091
000090 6c d2 0e de 54 fb e6 bf 9a d7 bb 7d 22 05 98 3f
       -0.7181801163738561 0.0234570874444767
0000a0 58 0b cb 54 5d 8f f3 bf c5 7e 99 88 44 b9 e9 bf
       -1.2225011169654945 -0.8038656871758226
0000b0 4c 3c 0d e0 22 91 dd bf c6 6f 6d 88 0a 4e d4 bf
       -0.46198341255234676 -0.31726325343128925
0000c0 ad 0a f8 8b c8 e2 fd bf c3 1d 62 d1 4c a2 ea 3f
       -1.8678670375381146 0.8323120202557494
0000d0 ed 38 ac 69 bd 87 b3 3f aa e8 99 57 72 94 e5 3f
       0.07628997640515296 0.6743709288559974
0000e0 1b ea ca 95 70 26 f3 bf bf 38 e1 16 e8 2e 08 40
       -1.1968847132944862 3.0229036128503988
0000f0 a3 66 84 c4 d9 35 ea 3f 54 b4 28 e7 34 93 f1 3f
       0.8190735662676228 1.0984391240738391
000100 59 e5 27 aa 43 2a e7 bf 9f bf 42 9d 28 1d d8 bf
       -0.7239092181545558 -0.376779702734888
000110 06 6f 70 9f c1 14 e9 3f df 61 83 9d a1 00 e8 bf
       0.7837837328001747 -0.7500770641736912
000120 1f 8f cb d0 3a 4e d0 3f cc 29 67 13 23 8f de 3f
       0.254774764920727 0.47748639006445326
000130 9a b9 81 2d 49 11 ce 3f f5 22 ec b5 b1 6e f1 bf
       0.23490252229698855 -1.089524946817787
000140 2b 39 b8 53 88 58 e4 bf 91 0f 74 86 4e 95 c4 bf
       -0.635807193293464 -0.16080648007493584
000150 cc 9b b4 61 ab ad da 3f d2 4a a8 41 4a a5 fb 3f
       0.4168499426036163 1.7278540196172583
000160 47 38 5d 3c d8 ce f5 bf 5f c5 00 7e 33 28 b9 bf
       -1.3629991872762888 -0.09826967073674585
000170 b8 e3 44 ef 2e 0e ef bf c4 4e b0 32 fa c6 07 c0
       -0.9704813645577053 -2.9721569023184617
000180 51 2c 5d 36 1f 16 e3 3f dc 44 cd 65 bb a8 f0 bf
       0.596450430087666 -1.041194341338545
000190 13 3a 46 06 df 36 00 c0 9a 53 b8 4c 48 86 ba bf
       -2.026792572992471 -0.10361148713157178
0001a0 21 5e 0f 40 cc ba f3 bf 06 aa 15 de 91 4c f5 3f
       -1.2331049444527553 1.33119379760558
0001b0 85 f2 28 91 b1 c7 d0 3f 94 e3 d6 71 5e 52 d1 bf
       0.26218833137298986 -0.270652400180148
0001c0 c5 fc 94 0b 11 de aa bf ff 37 f8 53 ea c3 dc 3f
       -0.05247548357373825 0.44945772361904796
0001d0 d5 4e ae 97 d4 0a 00 c0 96 e9 33 9a ff 44 e4 bf
       -2.005288300520855 -0.6334226619504075
0001e0 58 72 d0 6d fd f8 ed bf af 3a 0c 30 24 37 d4 3f
       -0.9366442818459957 0.3158655614105709
0001f0 02 cb a2 87 ae ad e6 3f 83 e5 6b aa a1 c5 84 bf
       0.7087013863695975 -0.01014257718405776
000200 92 9b d6 d6 25 42 a0 bf fa c6 27 d6 a7 ed a1 3f
       -0.031754667735462 0.035016293422712466
000210 c8 79 b3 07 37 1a e8 3f 70 37 f4 80 38 6e d6 bf
       0.7532000685130749 -0.3504773387256739
000220 d6 fc be 19 58 46 e5 bf 20 75 9c 05 fa dd d4 3f
       -0.6648369315006686 0.3260483794018274
000230 1e dd 97 05 92 e3 f2 bf fc c3 aa c8 9f d4 d6 bf
       -1.180559179161555 -0.3567275485648336
000240 e1 7b b0 58 7a bf aa 3f 08 59 41 1b f8 81 e6 bf
       0.052242110563603956 -0.7033653766946211
000250 36 af 06 58 82 aa dc bf 88 95 b8 38 a0 5c f0 bf
       -0.44790705295848754 -1.022613736692934
000260 20 d1 f4 bd ee 63 6b 3f 3d 21 3c 98 d4 3b eb 3f
       0.00334355000782173 0.8510535214746039
000270 74 a6 9e 7c c4 01 f0 3f aa 09 7c c4 d7 04 e8 3f
       1.000431525035677 0.7505911672199563
