models/what/weights1.npy (npy, 50304 bytes, 1 tensors)

array f8 [8, 784]
0	0x3ff2d43560eb1336	1.1768087182874303
1	0x3fa8c5be0f75183a	0.048383654963388215
2	0x3fd3721fbe61c574	0.30384057609543125
3	0x3fec18effa25967d	0.8780441175155854
4	0x3f932190a27d7eaf	0.018682727735152834
5	0x3feb2367262bcb1e	0.8480716462639497
6	0xbf93cebbe0eba40e	-0.019343314745956568
7	0xbfe21808a496aa30	-0.5654338087673008
8	0xbfd88a058adad5ff	-0.38342417297403125
9	0xbff1f091e8925352	-1.121232899172544
10	0xbfe70b07bd09e9f5	-0.7200964634096737
11	0xbff7f7eeadb505d2	-1.4980303559717538
12	0xbfeeb18ffcbcd0d8	-0.9591751037865164
13	0xbfcb613a8a7110d8	-0.21390468368384208
14	0xbfeb5a2d3da25c5e	-0.8547579005998036
15	0x3fc581dffe759f3c	0.168025969741615
16	0xbfbcb202da5d7e91	-0.11209123450452753
17	0x3ff4c3378839b582	1.2976603814416596
18	0xbfe0249a2b60c1b9	-0.5044680449701026
19	0xbfd9a9adb463515f	-0.40098135581981426
20	0xc000a019d141a550	-2.078174242797708
21	0xbfed5baf946b7487	-0.917442121393507
22	0x3fabd17edfcd3167	0.05433269960357983
23	0xbfd99ce271a4f94c	-0.40020047281349913
24	0x3ff6e24488dabef6	1.4302411409261686
25	0xbfaacc6aa2d2803d	-0.05234082448555497
26	0xbff3f1b1e86a706d	-1.2465075567952468
27	0xbff19702a0db6892	-1.0993677409628941
28	0x4001635210c79749	2.1734963713560416
29	0xbfb914767d58a459	-0.09796848831378337
30	0x3ffb14328373af95	1.6924309859123003
31	0xbfce75df37cb4f8a	-0.23797216629338563
32	0x3ff0dbd35f938545	1.053668378205047
33	0x3ff15fcbbb8690f6	1.085887653848713
34	0xbf933cd3daa16051	-0.01878672620691219
35	0x3fbadcc53f3c146c	0.10493119043174354
36	0xbfe6a3bca3fa1ee5	-0.707487411754269
37	0xbff7da42298cd285	-1.4907857535410198
38	0x3fe882577fe2b95f	0.7659108636633326
39	0x3fd97979f0781f11	0.39803932650873813
40	0x3fdecac354071e1c	0.4811256714424148
41	0xbff46df3b7e80afc	-1.27684375608868
42	0xbffb209b8e1788d2	-1.6954608488527367
43	0x3fe4a76244e798c3	0.645432600573962
44	0xbfcc1b5ee8ce3d90	-0.21958528869116067
45	0x3ff130f3588873cc	1.0744508226700757
46	0xbfe91c83519626b2	-0.7847305863844751
47	0xbfd9380bb818261d	-0.39404576280557696
48	0xbfe851f585122d5c	-0.760004768280321
49	0xbfade33b6c38525f	-0.05837426849408155
50	0xbff334e189c89a89	-1.2004104025051296
51	0x3ffcd331f86edcc0	1.8015613274017568
52	0x3fe474eede9cf606	0.6392740581429173
53	0xbff1775f08a042b9	-1.0916433655694802
54	0xbff0f17957f9d587	-1.0589536129531056
55	0xbfed16124a5c5152	-0.9089442684512881
56	0x3fc8f081b662e0d9	0.19483968167856494
57	0xbfd12d4fc1394707	-0.2683905970526301
58	0x3fe4b0067e03bd3e	0.6464874707434445
59	0x3ff81eb19c1ea8fe	1.507493600695454
60	0xc00268ce49cd711d	-2.3011747136898877
61	0x3fcfd4b12d659f86	0.24867834774635983
62	0x3fda876709de7c38	0.4145143123986972
63	0xbfd0383864090b12	-0.2534314133555863
64	0xbfb45ebad0c64458	-0.07957046124489986
65	0xbfece91d11faddee	-0.9034562445803525
66	0xbfca9c3626da282b	-0.20789219758108976
67	0x3fe8b0f137854432	0.7715993961702508
68	0xbfeed723a5a4f4b8	-0.9637621150246991
69	0xc001d40c6ce8744c	-2.2285393246116083
70	0x3f9820c4d8d4285f	0.023562503561187827
71	0xbff002537e3c5ab2	-1.0005679064831097
72	0x3ff546459022d60b	1.329656184226567
73	0xbfe9bd86a15b9da0	-0.8043854857941604
74	0xbfdb8343e78040b8	-0.42988679511564554
75	0xc0010587c1490611	-2.127700338402754
76	0x3fdf561ac43cbeb5	0.4896304050807701
77	0x3fb87791f4e7547b	0.0955744955930004
78	0x3fd2c925c7e95b97	0.29352707407581974
79	0xbfbec6aa33e81da5	-0.12021888510945773
80	0x3fed6503f134323a	0.9185809813512329
81	0xbfb47a51090d49ca	-0.07999140234941318
82	0x3fb4b9e88d2edfca	0.08096173712590296
83	0x3ff366421938c8fb	1.212465380213472
84	0xbffaa39c3304424c	-1.6649438851201408
85	0x3fe78f715a7a69b3	0.7362601058151114
86	0x3fc570fbf7063cd5	0.16751050531136139
87	0x3fe122ee6296cd19	0.5355140615050998
88	0xbfc243b38bfe8a92	-0.14269108138713144
89	0x3fd07a642e979b2f	0.2574701743127887
90	0xbffb6f076890b200	-1.7146066746309998
91	0xbfd8886b0c821c67	-0.38332630368717563
92	0x3fe3c195021bc8fa	0.6173806229765255
93	0x3fd5832d10073777	0.3361313492322248
94	0xbf9dcda4b32bb731	-0.029104779658999994
95	0x3fed2a4ea8d838f8	0.9114144609209509
96	0xbfe51116f468977e	-0.6583361409764021
97	0xbfeb7191f7c121c1	-0.8576135481790105
98	0xbff13f2aa316c96b	-1.0779215212501991
99	0xbfb3be0fc48b4833	-0.07711885975302905
100	0xbfd8733f91329acc	-0.38203419856510545
101	0xbfe3765aa7b1eea3	-0.6081975245756052
102	0xbfe749504c020172	-0.7276994213607806
103	0x3fc4de9b3630a85d	0.16304340501784767
104	0x3ff05a8d7f3ebb11	1.0221075983533334
105	0xbfeafb1a1b396164	-0.8431520969125299
106	0x3f8887d63f5bfebe	0.011977838333677378
107	0x3fd84b2b4e75f435	0.3795879617899261
108	0xbff59c9fbe4fd1a8	-1.3507382806829842
109	0x3ff30082c8de2605	1.1876247259518788
110	0xbfc0b204ca507e4e	-0.13043269995340484
111	0xbfdda1136c6f63a8	-0.46295629109732284
112	0x3fe27607566ba7e9	0.57690779570589
113	0x400675db5fee33ae	2.8075473303383296
114	0x3fdd2731292c7e94	0.4555170919502214
115	0xbfec906173196c9b	-0.8926245925935236
116	0xbfe09c1f2f302838	-0.5190578385966154
117	0xbff88ba37a7748ab	-1.5340914520097992
118	0x3fc6feecefa0b8da	0.1796547098214834
119	0x3fb0ad595ede7e06	0.06514509740963356
120	0xbfe34dd867914d8d	-0.6032526037983402
121	0xbff51c41e7cf6751	-1.3193987898907447
122	0xc005d3b4de443a77	-2.728372322518506
123	0x3fe42f5222949404	0.6307764697454563
124	0xbff9e89e271faa40	-1.6192914512891008
125	0xbfd4aff51a58cd93	-0.32323958943308034
126	0xbfe3c31455b4d0fc	-0.6175634073211138
127	0xbfde1f19a40c5a0b	-0.4706482030900651
128	0x3ffe032d0e485714	1.8757753904259902
129	0xbfe7b5a86819212b	-0.7409250291030153
130	0xbf99af5749a9b166	-0.0250829352102512
131	0xbff09b7ff95e9006	-1.0379638424865347
132	0x3ffeb5c9ba289606	1.9193818351571976
133	0xbfbad1f80194c54f	-0.10476636923410364
134	0x3ff14f79ef6b0a62	1.0819033958693116
135	0xbfe1fac65e5ea330	-0.5618621676595463
136	0x3feea5c26d3bbe71	0.9577343114342068
137	0x3fdcba4d6ee00a22	0.4488710005536253
138	0x3ff94a055f2b68ac	1.5805715291558426
139	0xbfd72b524376f85b	-0.36201912487365967
140	0xbfd19d33b0b4ab94	-0.27521984344883177
141	0x3fe4ced671586261	0.6502487386488377
142	0xc000ddc8be1c65be	-2.10829304241335
143	0x3fe000dfe4968160	0.500106760464444
144	0xbff3909caee07355	-1.2228056746600562
145	0x3ff9e9a0db216def	1.6195381698406626
146	0xbfe20026e91ea60c	-0.5625185540313296
147	0xbff93e931a001546	-1.5777770057332687
148	0xbfef7d83bd560b6c	-0.9840716073962148
149	0xbf98cf8a5e6a42a7	-0.02422920418991006
150	0x3ffca6f3004f00cc	1.7907590877585333
151	0xbfd1d072bfd14298	-0.27834767086191325
152	0x3fe57b5d242df251	0.6713090616827434
153	0xbfc7b57b3e702bb7	-0.18522587345827699
154	0xbfde82e7b9a8be1c	-0.4767398179128308
155	0x3fed13ca47a91bdf	0.9086657905216916
156	0x3fe9d55a84e20761	0.8072941394204741
157	0x3f84a1f0a65109c0	0.010074501109674894
158	0x3ff09808720cc95e	1.0371174292636947
159	0xbfc2fdb8c2e9fecc	-0.14836797253882705
160	0x3ff272099667c5f6	1.1528411746224925
161	0x3fe41a0c091edcfa	0.628179567159264
162	0xbff14fe31e3eb1d0	-1.0820037061158594
163	0xbff0119b59a84e4d	-1.0042985441440522
164	0xbff2079c2603b404	-1.1268578991832792
165	0xbfd2bc1d9b50e4fc	-0.2927316681630854
166	0xbfed986c09292c3f	-0.9248562029764641
167	0xbfe33dfb7ad34b68	-0.6013162039692874
168	0x3fd5a37275decf6d	0.3381010199620878
169	0xbfc989c60596fbf3	-0.1995170142454011
170	0xbfe562603680af86	-0.6682587685113368
171	0x3fd05be71a49b77a	0.2556092983930892
172	0xc000f2fe656381a2	-2.1186492844573914
173	0x40016db5d486ffcc	2.1785694698046196
174	0x3fdc8d2bbaf7082c	0.44611638315484714
175	0xbff860747bbf6ff0	-1.5235485872171886
176	0x3fec465a279fca74	0.8835879110250304
177	0x3fe21b3f76f1be2f	0.5658261607295055
178	0xbfdabf725c1a75d4	-0.41793498033970633
179	0xbfe1eb72e2a90ebd	-0.5599913050613946
180	0x3fd5dd13136ac1eb	0.34161831756776334
181	0x3fec55e04098820e	0.885482908404869
182	0x3fd73bf58f17a37a	0.3630346200357547
183	0xbf9e2d448ae87384	-0.029469557741424804
184	0xbfebe7f350d5420e	-0.8720642641802117
185	0xbfef27e4b5dcf769	-0.9736197998060848
186	0x3ff7a661982132f8	1.4781204168859272
187	0xbfd40b79dceb8799	-0.3132004411146397
188	0xbfb0c330a1925f99	-0.0654783625089962
189	0x3fab8393aaf41dfa	0.053738226526601054
190	0x3ff60e0da7a1fe46	1.3784309909969052
191	0x3f9cc2d1fe161f95	0.028086930401996908
192	0xbfe43a5434e558a4	-0.6321202309725504
193	0x3ffd260e57b13d28	1.821791021869851
194	0xbff2429f175fb18c	-1.1412650025405098
195	0x3f8ea548a5c170b9	0.014963691290340685
196	0x3fd4ffbd40f8ebcc	0.3281090864654146
197	0x3ff87d389873fb35	1.5305715518185938
198	0xbfbb20a05bfaab80	-0.1059665894087356
199	0x3fe1473456e18338	0.5399419495480293
200	0xbfe42231f1c202c6	-0.6291742059548475
201	0x3fe836d832fda0be	0.7566948886788152
202	0xbfefa605eb43c6fd	-0.9890164942755458
203	0x3ffa0603b37a2801	1.6264683733775203
204	0x3fd7c28065214534	0.3712464320752418
205	0xbfe3c02d6c5dd253	-0.6172091595204371
206	0x3ffccbdba3dc8728	1.7997700119817157
207	0xbf8427f957202d34	-0.009841869326939624
208	0xbfb87f335b70216e	-0.09569092733739179
209	0x3fe4e5fd5cb5421e	0.6530749140457066
210	0xbfe51842d18233d7	-0.6592115489926255
211	0xbfbb3b677caa1f00	-0.10637518685882341
212	0xbfeada89b823a37c	-0.8391769978016863
213	0xbfe2e132744d3a23	-0.5899898787991485
214	0x3fde37f72de26c3f	0.4721658657160254
215	0x3fd415011148343d	0.3137819927949897
216	0xbff88597fe554446	-1.5326156554113068
217	0xbfd6b1a725c5123a	-0.35459307373483606
218	0xbfe5b47c2cf7bc55	-0.678281867816518
219	0x3fa2475c4854d79b	0.03570068724586336
220	0xbfdd34b7b00312f3	-0.45634262264893194
221	0x3fae1ee9db1a256c	0.05882960128389922
222	0xbfcdef88eeb73d59	-0.23387252479595125
223	0xbfec13aa9b79eba9	-0.8774006878514814
224	0xbfea37eeec772289	-0.8193277948822281
225	0xbfe21b3f9883be12	-0.565826223259082
226	0xbff0cc8128bb2204	-1.04992786322157
227	0xbfcd5fb0c20e30e1	-0.22948274112093883
228	0x3ff86aee490df24e	1.5261061528864448
229	0xbfea803c560c55b9	-0.8281537705067229
230	0x3fc1a9f005b74972	0.13799858359432055
231	0xbfc668c9db4d8cb0	-0.17507289131308346
232	0x3ff5829c6bdbb2e5	1.3443874562464597
233	0x3ff8d1313fe25c3d	1.5510723586537687
234	0x3ff5e62c178f10b6	1.3686943931834725
235	0x3fc396a3967f9c61	0.15303463791426267
236	0xbfe7df3c14d381f5	-0.7460003287088158
237	0x3ff3e5828c676611	1.2435327038314237
238	0xbfd476aee8c372bf	-0.3197438500481375
239	0x3fe84ca0d88f8f71	0.7593540410712035
240	0x3fe2f148076e804f	0.5919532914304088
241	0x3fe14b40583b7e4d	0.5404359553612693
242	0xbff05711aea7442d	-1.021257097472936
243	0xbfbae8e3ef759dc5	-0.10511612507035924
244	0xbfd2e013615e9b8a	-0.294926495635473
245	0x3ff1704861ee8478	1.089912779374826
246	0x3fe109537fc8eb95	0.532388448314452
247	0x3fdc8d9742f90464	0.4461420206099034
248	0xbfe56fc55da9265b	-0.6698939160643919
249	0xbfdc761d5d09d14d	-0.44470914922500954
250	0x3fea3389e7873352	0.8187913438829162
251	0xbff36dc9260096fa	-1.214303158232211
252	0x3ff4ea0977439a02	1.3071379336121258
253	0x3ffe93c777b24f4f	1.9110788989682594
254	0xbff2ed0b619bd533	-1.1828721821633053
255	0x3ffd19aa93e9bcf3	1.8187661912777997
