models/what/weights2.npy (npy, 640 bytes, 1 tensors)

array f8 [8, 8]
00000000: dbdc a18c c374 b53f dc27 4f0f dbbd 0140
00000010: cfa9 9b14 6fcd f03f 38ae c6f1 3c19 cabf
00000020: 81c0 b01f b58a e4bf d399 c5b8 8a57 e0bf
00000030: 4794 8f16 83d9 0040 1854 37a3 696e dabf
00000040: 6390 be2c 2928 d53f 0164 9166 df9e ee3f
00000050: 31b3 00cf 3602 f7bf 3832 95d0 3731 d13f
00000060: c9fe 6343 fabc e43f a003 825e 90eb e43f
00000070: 29bb ea18 bb84 cb3f ccb9 4b72 2e37 b9bf
00000080: 7559 a4f0 9293 ea3f 079b 8d05 22c1 e93f
00000090: b550 66a8 2aca debf c505 22ed dea4 f9bf
000000a0: 4a1c 47b6 b03e e8bf 3072 0f65 91c3 f13f
000000b0: d055 36cd 2da6 d83f ce4b 3d1b 81af d7bf
000000c0: 311f aab4 e289 f23f 830d 1dfc a857 f13f
000000d0: 3d70 6e0c d7fe ea3f 6161 a975 2dc5 dbbf
000000e0: 7ec1 f0ea d5e8 f6bf 800a a143 37b4 e23f
000000f0: 6ca4 62ed 5832 f13f 2205 fed4 d8b1 f5bf
00000100: a60f 2998 d06f bdbf df70 e861 7eec 0040
00000110: 8974 62f1 d78d dc3f 6ba4 c691 1bac e03f
00000120: 3bc9 1ed5 4c2a e33f 60a3 faac ec7b ce3f
00000130: 5a2c 2554 f319 e93f 46af bd9c 1fa0 c8bf
00000140: 7423 fa6a b513 fbbf 5fdc a553 8beb ed3f
00000150: 1297 382e 8897 f3bf 038d d261 db2f e83f
00000160: d4b0 3c13 b2ad fa3f 309b 2501 4a73 48bf
00000170: a115 bc43 b768 eabf ec84 3fa5 9ee2 eabf
00000180: 112a cb52 5397 dc3f 11ce 8350 6d02 f53f
00000190: b415 91ac e46a 643f 53d0 8c23 1ae5 c3bf
000001a0: 9bae 026f 7ae5 f73f c745 626e c762 893f
000001b0: 7837 0766 e03d f33f f45f 1d79 7ad1 f4bf
000001c0: 54a0 a494 35f3 f03f 9c8a 409c be19 e8bf
000001d0: d428 babb 959e f2bf a79a c913 56e1 ddbf
000001e0: 661d 5cce b9a9 e2bf 63bf 78aa f561 f03f
000001f0: f475 a312 48f2 d9bf f94d 7a3e 37fa f3bf
0.0838129251804846 2.217702979663029 1.0501547627451264 -0.2038952045962661 -0.6419320696786742 -0.5106862648797751 2.1062070620123765 -0.4129890531451692
0.3305762230832043 0.9568936351089407 -1.4380405508083636 0.2686290299359686 0.648068553564337 0.6537553640229028 0.21498812405249026 -0.09849825182366273
0.830514402393233 0.8048257931194208 -0.48108927197723556 -1.602751661587136 -0.7576526222336579 1.1102460811299686 0.3851427558923577 -0.3700869337091576
1.1586634690483602 1.083901390856085 0.8436084025193008 -0.43390976419825306 -1.4318446328507828 0.5844990082626538 1.0747918389190785 -1.3559196777353653
-0.1149874087796535 2.115475430398973 0.4461574418326753 0.5210092398821308 0.5989135897164383 0.2381568760513586 0.7844177859746069 -0.19238658097617128
-1.6923116854470353 0.935002959608834 -1.2244951062688796 0.7558419142336849 1.6674061538170024 -0.0007461654043197982 -0.8252826998656709 -0.8401635386946089
0.44673617444337405 1.3130925316917266 0.002492376927451823 -0.15542914138643713 1.4935249649378537 0.01239543729414806 1.2026065812565019 -1.3011421900791875
1.0593772703523614 -0.7531426479148027 -1.1637170155614074 -0.46687843258261313 -0.583218482061892 1.0239159258889792 -0.4054126913086684 -1.2485878410851667
