models/test/weights2.npy (npy, 640 bytes, 1 tensors)

array f8 [8, 8]
000000 84 99 53 29 93 9c c1 3f d9 ad 34 d1 2c 75 dd 3f
       0.13759078519724366 0.460276798536794
000010 d8 7e b6 3b 51 25 e2 3f 17 8e c5 0d 7e 1e ec bf
       0.5670553365962077 -0.8787222165087226
000020 8d c0 8d 60 99 4a fd 3f 08 31 dc b7 24 62 bc 3f
       1.830712678111044 0.11087254990360773
000030 dd 3c 09 30 3c bd 93 3f 66 fa 9b 57 38 42 f0 3f
       0.0192765621489429 1.016167013381755
000040 a1 2b 84 31 65 e2 f7 bf c1 26 12 cb a8 d8 fc bf
       -1.4927722868185145 -1.8028953487832242
000050 0e 23 68 a3 77 37 c8 bf 4f db a2 8b 51 20 d0 3f
       -0.18919272879454535 0.2519725669512142
000060 1a b0 3b 65 55 fd e8 bf da d1 f1 23 69 0a d9 bf
       -0.780924508782394 -0.39126041898933084
000070 f1 b1 b3 64 fa 69 a6 bf 95 4f 01 2d a8 39 cd bf
       -0.04377729872962622 -0.2283220500709119
000080 4c d6 a0 eb ec a6 05 40 be d7 64 e2 61 15 e9 3f
       2.7065065773447596 0.783860151458377
000090 c8 dd 28 05 e1 d0 c4 3f 04 77 4b 5c 49 59 f0 3f
       0.1626244807427908 1.021798477674964
0000a0 87 1c ab c9 af 72 f4 3f 5c c5 83 f3 c9 64 b8 bf
       1.2779996755287202 -0.09528791613754123
0000b0 8e 38 b5 ce 5c 70 8c 3f 2a a6 ab 53 5a a7 f5 bf
       0.013886189516281424 -1.3533576267603942
0000c0 2e 24 27 d4 c4 95 f4 bf 27 71 cb 92 9c b6 81 3f
       -1.2865646636221402 0.00864908526403292
0000d0 d6 3f e3 e3 77 07 ec 3f ab bf 90 ec 48 18 01 c0
       0.8759116602832318 -2.136857841651325
0000e0 49 15 8a b9 54 ad f6 bf c8 d8 bf 69 38 94 f6 3f
       -1.4173171279556576 1.4111866122089385
0000f0 15 ae be 0c 87 5c db bf 21 74 f0 e9 ce da f0 bf
       -0.42752243275273943 -1.05341998465088
000100 d2 ab df 9e ba 44 ea bf c4 5c 54 89 b6 22 c4 3f
       -0.8208897688867813 0.15730935769599885
000110 4f 6b 7d fa 37 a0 f1 bf 84 6b be f1 d4 3b f3 bf
       -1.1016158852350662 -1.2021073763960155
000120 89 9e bd 39 0e 68 e6 bf 2a cc 7f 2c a9 3d ea bf
       -0.7002020957706502 -0.8200269574284722
000130 83 ac e0 bf 59 2a d7 bf 9a 40 39 d4 14 e7 be 3f
       -0.3619598745160106 0.12071352177850017
000140 35 e7 ec d2 64 44 da 3f 24 0a c6 1b 47 38 f0 bf
       0.4104244289224995 -1.0137396893411585
000150 47 d2 1c 0c 91 c9 9d bf 09 7e 93 ce 37 dd f0 bf
       -0.02908922802380889 -1.0540082997684996
000160 a9 aa b9 a5 df 90 99 bf 37 df f8 42 fd 50 ec 3f
       -0.024966711511675985 0.8848863895463869
000170 33 02 51 e5 a7 fa e7 bf 47 8e 91 2a 24 df 94 3f
       -0.7493476370655742 0.020382466409854662
000180 06 02 32 02 fa 39 87 bf bf cf 21 82 8d 69 cb 3f
       -0.011341050331112445 0.21415871481042179
000190 75 8a ec 07 4c 0d ee bf 75 bf 78 a7 e6 3f df 3f
       -0.9391231684461007 0.48827520708709155
0001a0 e6 1b 34 f7 80 1b d9 3f ac 10 b6 83 a4 f0 96 bf
       0.3923036970231223 -0.022402353800786187
0001b0 35 e8 5c ff b0 a3 d8 bf d0 4e e6 cd ce be f5 bf
       -0.3849909299639223 -1.3590839426951113
0001c0 18 69 74 2d 3a 3e f7 3f ce 2b f0 91 c9 5e cc bf
       1.452692201192411 -0.22164268136870507
0001d0 15 5f b6 53 67 14 eb bf 30 ac f3 a1 ae 51 fd bf
       -0.846240676403769 -1.8324419332736959
0001e0 3c 3c 60 dd 6f 77 e2 3f 49 f1 7f 33 2e cf e0 3f
       0.5770797084568424 0.5252905851225843
0001f0 70 eb ae b9 d4 1b b1 bf 10 13 f3 09 6c dc d9 bf
       -0.06683091672213748 -0.4040784928477459
