models/test/weights1.npy (npy, 50304 bytes, 1 tensors)

array f8 [8, 784]
00000000: 902e fe2b fc40 f63f 6bbb 556c 0ee5 f3bf
00000010: 7c9d 47ee b59f c93f 3455 fa90 5d65 bd3f
00000020: 9c3f 9260 326e f43f c77b b6d0 88b7 c23f
00000030: f94c 7dfa 1e35 d93f 89e1 1149 563d ea3f
00000040: 822e 7574 a1fc ebbf 7ada fb71 1c74 d5bf
00000050: eabe ef0a 54d0 f03f 743f 15a8 d6fe c93f
00000060: 53f7 d3fc 962e cebf 563c 7a8c 7bd9 e3bf
00000070: 873b 5df7 45dd ffbf 0053 2165 281a fc3f
00000080: d5c8 ee56 1943 e53f 20f8 1bd7 12f8 d3bf
00000090: c3e2 4062 c9ff a3bf 9075 fa0e e1ff ea3f
000000a0: 524a 597c e858 b7bf 9184 bc11 18ca ee3f
000000b0: d854 e07c 0822 d1bf b4a1 4a71 36d7 06c0
000000c0: 1da8 833b 6d1a f2bf 91c7 c49d 74c0 f5bf
000000d0: 71dd d6af 0376 dabf c92b e200 f10c f8bf
000000e0: 6f88 2224 30e0 fb3f dd29 7190 d986 f5bf
000000f0: f6c1 b7a7 0e1d c93f 09ea 3823 819c e5bf
00000100: 3d66 0d66 5b64 d7bf 4dbb 65de 4379 d73f
00000110: 1367 fa9a 05ea d43f 6e67 c9c7 7530 dabf
00000120: bb38 bccf 3922 efbf 69bf 630c b920 debf
00000130: d7f6 9959 fd3b fa3f ef83 e91a fdbb e6bf
00000140: dc55 eb0d 2f81 d33f 7f2f 715c be5e f2bf
00000150: 779d 6d9a a94c e7bf 00f5 bd7d 8b95 c4bf
00000160: 9c0b 674f 7f20 cebf df0a 5843 a18b d73f
00000170: 628f 3f68 d5c3 e1bf 738e a2a2 a183 f6bf
00000180: d957 6f12 0c5d d5bf 11d2 ff64 c52b f63f
00000190: fa5b b5be 43db d13f f9ba 1188 ffe8 d2bf
000001a0: 1c8b 47fb d8bf e93f c4ca c4cc 29e9 ebbf
000001b0: df70 d4c6 8b19 df3f 3d8d 21f5 8a76 da3f
000001c0: 5cfe 402a 416a ecbf ceeb 0dba 6ab0 fbbf
000001d0: f744 b3f9 5110 f83f fb83 8beb fd35 f13f
000001e0: 1aa2 8058 9a2a fdbf 2f3e 2206 d002 f4bf
000001f0: 7211 a6ed 5991 fb3f 09fb 78ef 191a e1bf
00000200: 107d e64e 5bc4 e53f 8f4b 470f e150 ea3f
00000210: 1d97 254e 0794 ca3f 2705 c3fa 3cc5 e6bf
00000220: bbe7 f43e a4d2 ef3f f066 76f4 badb f73f
00000230: aaa5 d728 6d61 f03f e487 3f5c 5ca8 de3f
00000240: 444d dd23 a770 fcbf 8d9a c6db 8876 e3bf
00000250: 4556 9000 1411 f6bf 3b7d cb76 7109 f1bf
00000260: fd72 a421 e281 d8bf c315 15ae 6e04 d9bf
00000270: dfac 8123 ce33 fc3f dce5 e1c1 0bdd e43f
00000280: 134d b235 1df6 dbbf 9638 48cd 5dcb ffbf
00000290: 0778 d1ad 5c84 f1bf 333b 31ac 05e0 be3f
000002a0: 8df1 b352 1463 de3f de23 2999 f0ca ddbf
000002b0: 50b0 ace3 6bf0 f1bf 8086 ab69 2f26 f9bf
000002c0: 3964 e8b3 a317 bc3f bb6a 3dc1 1653 d03f
000002d0: 1fa0 ec8d 3562 e53f 2ddf 5feb 0978 ddbf
000002e0: c4a8 b66c 6022 e23f e76e b4b4 d8e6 c8bf
000002f0: 9bff 75f4 03d8 e53f 67b3 b363 f32e cebf
00000300: 3250 5b41 4be3 f43f b5b2 bfd9 c22c d33f
00000310: d331 a022 200d d73f 1ac1 8e45 fdf6 e43f
00000320: 47a9 b186 4007 f0bf db19 55f8 f502 f3bf
00000330: c36e ca7e b61a f03f e955 50ed b28e d03f
00000340: 9298 53b0 14e9 f2bf 44e5 3215 f26c cb3f
00000350: 0ec6 fa28 0093 be3f ec38 378a fbbb c7bf
00000360: fb31 4954 114b ecbf 0711 54d4 b92a fdbf
00000370: 1ebe 86e8 c1ca 00c0 2a5e b218 1281 c5bf
00000380: 26e7 fb0b f8c0 ec3f e91e 99a3 1560 f13f
00000390: 00d0 15e0 2cbf f0bf 7fe8 42fa e095 f33f
000003a0: a05e fae2 db94 f13f a8ca 2212 0b34 d5bf
000003b0: 8c36 9024 9548 eb3f abae 690e 712c ed3f
000003c0: 381b 926b 1177 e33f ce6b 6708 08d3 d13f
000003d0: 64bd c0d7 872d b33f 31bd 52a1 4c71 e83f
000003e0: 3895 1e94 3ab2 f73f 9af5 2923 ecb7 e93f
000003f0: 3cdb 638a 9236 efbf ae40 2ffc a2b2 f03f
00000400: 85ff a797 ae47 0440 36d4 2480 8985 9ebf
00000410: 1f76 0292 3d53 e3bf fb11 7c15 5578 ed3f
00000420: b5a7 69d7 d924 e7bf db86 da26 3b14 f9bf
00000430: b2ab 98fb bbcb f0bf 7954 79f5 d39f f8bf
00000440: 9bdb 2dcc b9d6 d4bf 66d9 850c 4659 e53f
00000450: 8e19 b0f1 72e0 e7bf e3f6 5b65 51b8 01c0
00000460: 61a5 c14c 4f9d e4bf 3768 bcc6 588c e53f
00000470: 2832 0b73 0e18 d2bf 7dac 2e3f 42ea eebf
00000480: 6b0c f2c1 16eb df3f 2657 a53c ec84 b43f
00000490: 8c8d a47b a517 e93f 6c3b 67ef 465a e9bf
000004a0: 3acb eadc 6cca eabf 2616 4189 1121 f0bf
000004b0: 6541 cdb3 078f b1bf 425b 71d0 fcec dabf
000004c0: c340 f0e7 3a9b e1bf 88e6 1938 07d1 b7bf
000004d0: 5051 f98b 231f d5bf 565d 47b7 4e35 ec3f
000004e0: 79cf f1ed 89eb d1bf 5eb9 177f 2ff2 e23f
000004f0: 5b5c e239 0dc9 dbbf 3b61 0c72 ee0b d03f
00000500: 7723 9bca a024 dabf 2475 efba e8b4 0940
00000510: 3665 34c9 b211 db3f 2217 4ce3 4afb f63f
00000520: 08e0 ee47 62e0 e0bf 0a8a 4786 806a f63f
00000530: 1097 ca8c abf5 e03f 89ab 9738 cbc7 eb3f
00000540: 7c2b 2c7d ea5f f5bf 8b39 8c30 7990 f43f
00000550: 44f6 fa66 26fb e3bf 15b5 6b5a 4f5f f53f
00000560: 7bb9 f8af cf89 fcbf 8a5f dc46 f041 e23f
00000570: c3c6 924f a8a3 0340 f75b b2fd a356 943f
00000580: 0b61 d322 bb63 e93f 19b0 1da8 496a f53f
00000590: eb58 7f8e 59f3 f43f a4e9 262a 057d ed3f
000005a0: 1f1b d637 17d9 dd3f 65f0 af2d d78a ec3f
000005b0: 0002 58fb c3d2 e53f 472a 3b72 cb17 fdbf
000005c0: 6277 4a95 637f d6bf 50ac a489 af0d eb3f
000005d0: 504c 5d69 51cf da3f d676 4738 f9e2 f83f
000005e0: a8db fc68 f986 e13f abe2 2c96 82e7 b6bf
000005f0: 43a9 0e0a a6da f03f c8e9 57c3 7b35 f4bf
00000600: 6676 111d ed0e d5bf 1f3f 96f7 f5f7 dc3f
00000610: a4a8 74b0 8d80 f4bf 1cc1 e05f 93d5 ea3f
00000620: 13c7 0197 c187 d9bf 2c9e 6868 ce7b db3f
00000630: ade8 6b24 690e 9a3f cbce b7de 9215 ff3f
00000640: 3ac5 8cd8 8e37 aabf 0632 e21c 4c9b d2bf
00000650: ece7 af38 8ea7 e03f b744 1786 e3ca e83f
00000660: aab2 81a5 01ec e5bf cb50 f679 88d5 df3f
00000670: 10b9 0de2 a3fe ff3f b2b0 2f97 e23a e53f
00000680: 9080 0863 dba2 91bf 2c2a 568a e885 0240
00000690: 72e5 9d17 013f f0bf 03f6 ebca 0883 cf3f
000006a0: 8083 cc98 db2c debf 4069 61ce 4497 b83f
000006b0: 14d1 f9ca cb31 e53f 7d7d b863 cdb9 f9bf
000006c0: 8de1 b570 80ef f13f 7c96 6e30 95f6 d3bf
000006d0: 74fb b322 f5d5 e93f 12f2 60fc a204 fdbf
000006e0: 3d8b cc59 15a3 c1bf ce6b e2ab d4ad f13f
000006f0: cbaa 343b c2a0 07c0 84af c843 d116 9cbf
00000700: b1eb dd2e e60c 01c0 1777 657b dab5 d13f
00000710: ba6a c681 24f2 e83f 7774 62d0 433d fcbf
00000720: 9583 9c7e a77f e9bf def4 cb80 bc91 e1bf
00000730: 282f 58fc 605d c0bf ee72 5a3b 4a50 f9bf
00000740: 0b39 db5a 5bdb f2bf 8326 191b 96db e0bf
00000750: bcf9 492f 7408 e2bf 2698 1f1a a73c fabf
00000760: afcc 1f19 3def f5bf eda0 d996 3fb2 0340
00000770: 2962 5616 f4df 06c0 507f 3efa 6a71 db3f
00000780: 7ff6 fdd7 5b5f f2bf 91ee 286f 213a f73f
00000790: 941c 20cb 91bb d0bf 284a 85f6 823c eabf
000007a0: b226 48c0 ab2c ee3f d29b 62e8 1eeb d9bf
000007b0: 1cad 8dfb e090 f23f bd34 ad2c 0dcc eebf
000007c0: f5a8 82d7 6e63 a3bf 7afe 19f6 bf81 e2bf
000007d0: 6eef 814f 9aa5 f9bf 4423 9c60 57c3 ddbf
000007e0: 5acc 92f7 519f c63f a653 183b 1c33 aa3f
000007f0: 33ef 3aad 44c4 aebf 38ac c084 cb7c c2bf
1.3908654898140504 -1.2434219581443482 0.2001864827609373 0.11482796468256568 1.2769035122218844 0.14622602644973723 0.3938672491251079 0.8199874331613027
-0.8745887064519169 -0.3352118600009032 1.050861399384241 0.20308955390145977 -0.23579680771939113 -0.6202981704426616 -1.9915218031562476 1.7563861799619076
0.6644407937913238 -0.31201621062052887 -0.039060872310476856 0.8437352459474585 -0.09120038066729677 0.9621696802534122 -0.267702218961245 -2.8550843096638463
-1.131451828458473 -1.3594862139547994 -0.4134530274563622 -1.5031595263014756 1.7422334109801587 -1.3454223291652092 0.19619925679536693 -0.6753545463500937
-0.36550030675934747 0.36677643507475893 0.3267835629900315 -0.4092077685396508 -0.9729279572800559 -0.4707472439758847 1.6396459102683616 -0.7104478383663472
0.3047597537928064 -1.148130761243891 -0.7281082168746441 -0.1608137477850633 -0.23536673905445304 0.3678973348288945 -0.5551554714297533 -1.4071365693024773
-0.3338041477230696 1.3856862969670412 0.2790078508746202 -0.2954710797120437 0.804668894558151 -0.8722123145474474 0.4859342042634704 0.4134852784975072
-0.8879705262442701 -1.7305705325841134 1.5039844278256262 1.0756816102004894 -1.8229011017921324 -1.2506866683578541 1.7229861529495705 -0.5344361951063955
0.6802193203947429 0.8223729418190134 0.2076424724174836 -0.7115769288722377 0.9944630841848644 1.4911450909916617 1.023785743275179 0.479025926672078
-1.7775031472163656 -0.6082195560928355 -1.3791694662117078 -1.0648054733681664 -0.3829274490870345 -0.39089552879553596 1.7626477610563638 0.6519831454053775
-0.4368966125850459 -1.9871500033218914 -1.094814948060504 0.12060580686487014 0.474797325863414 -0.4655114646635051 -1.1211966413057048 -1.5718225600943754
0.10973570959357994 0.2550713431461806 0.6682384273490277 -0.46045158372679645 0.5666963694868845 -0.19454487632253079 0.6826190733554428 -0.23580782287845212
1.3054916909213827 0.2996070028737379 0.36017611867353344 0.655150066237215 -1.0017705213054613 -1.188222856567896 1.0065216973079465 0.2587096517102894
-1.1819044959789022 0.21426225695703682 0.11943055153349055 -0.18542427300275877 -0.8841635366639474 -1.8229311269834072 -2.0990026632423584 -0.168001424845657
0.898555777937166 1.0859581366111632 -1.0466736558273624 1.224091508468092 1.098842512734258 -0.33130146761974766 0.8526101793410858 0.911675003194849
0.6082846737852838 0.2785053331442072 0.0749134923687414 0.7638304854243981 1.4810128961483553 0.8037014662547108 -0.9754116728716791 1.0436124659500297
2.5350009773391684 -0.029806278654366213 -0.6039111949682513 0.9209390086767252 -0.7232484061507792 -1.5674392240256825 -1.0497398212416837 -1.5390204991174683
-0.32560582103126884 0.6671476597391972 -0.746148559614811 -2.2149990004244144 -0.6442028521679896 0.6733821755945034 -0.28271828875293403 -0.9660960420636823
0.4987236875533145 0.08015324097263185 0.7841365256212369 -0.7922701526493774 -0.8372101130283689 -1.0080733644002833 -0.06858871593181488 -0.42071457248441757
-0.5501989870117757 -0.09303326720864835 -0.33002556485486867 0.8815072612441479 -0.28000114666723835 0.592063663699985 -0.43414621975666073 0.25072823655638715
-0.408485601289207 3.2133345226599364 0.42295522354978077 1.4363507155225723 -0.5273906140273548 1.4010014767924326 0.5299890279609105 0.8681388955422885
-1.3359169854690824 1.2852718254467586 -0.6244079600653056 1.3357690364894712 -1.7836453317537166 0.5705491432190553 2.4549108711879355 0.019861757621210754
0.7934241943540042 1.3384491507558833 1.3094115797335302 0.9215112517625141 0.4663751645352238 0.8919483082131704 0.6819782170351232 -1.8183092558052907
-0.35152520732105164 0.8454206169457255 0.41890368737694406 1.555413455810983 0.5477263498822724 -0.0894700638426779 1.0533810036527747 -1.2630574827768317
-0.3290360244626299 0.45263432672889964 -1.281385125427314 0.838571250211348 -0.39891090151569236 0.42943153568419024 0.025445597503655538 1.9427670192643969
-0.05120512383872229 -0.2907285959306879 0.5204535586519774 0.7747666949236621 -0.6850593788672843 0.49740802679413026 1.9996680097788762 0.6634381249291634
-0.01722281257582431 2.3153849418206587 -1.0153819010286864 0.24618635090148197 -0.471487902848871 0.09605817831598973 0.6623286213275912 -1.6078618903482884
1.1209720995667312 -0.3119252179115859 0.807367866305738 -1.813631997923157 -0.13778941044537332 1.10493914739958 -2.953495466751837 -0.02743079162807717
-2.131298414370996 0.27672445345329905 0.7795584234875925 -1.7649572505972893 -0.7968327973249979 -0.5490400806008002 -0.1278496963644724 -1.582102043007747
-1.1785539197040318 -0.526804974485643 -0.5635319636929164 -1.6398077984281456 -1.3709078771033025 2.462035349384783 -2.8593522782432683 0.4287974780836423
-1.1482809483708534 1.451692041605302 -0.2614483340880238 -0.8198866667610831 0.9429529910568901 -0.4049756307016966 1.1603708101564 -0.9624086258496828
-0.03786798840276787 -0.5783386046095551 -1.6029303651584672 -0.46504768786012485 0.17673706615969104 0.05117119046568712 -0.06009115805269829 -0.1444334409910384
