models/test/weights3.npy (npy, 768 bytes, 1 tensors)

array f8 [10, 8]
00000000: 6688 98e2 261b e13f ce83 f1f3 c299 fa3f
00000010: abef 2f4c ae1b e73f f422 6c0e 9a3e 0d40
00000020: 5c7d b9bb 43be f73f 60ad 08dc a032 e6bf
00000030: 25e3 9f45 61ba e2bf 65c0 4076 a411 d23f
00000040: b721 2716 4c4c fcbf 45ea 33a0 54ab e6bf
00000050: 5e00 5ce2 2375 d73f f8d6 298a 0098 ea3f
00000060: 83ee 5f31 b8e3 f43f e728 ef1b 14ee f6bf
00000070: 1b33 d12d b1df e0bf 86c2 4ac9 c466 01c0
00000080: 2c77 b6dd 6ca5 f23f 02b2 ff0c b835 f23f
00000090: fb6e 9141 3ecd eabf 7516 8e8d 0b52 c5bf
000000a0: 2d06 f2df 98af f4bf 85c5 cb49 af44 dcbf
000000b0: 0bc0 3b18 999e f5bf dc94 10d6 446a e63f
000000c0: 4ff6 87f6 ff8d f0bf bb9f c2d2 c727 05c0
000000d0: 0049 5a9e b873 f53f 7593 e6b3 bbda e33f
000000e0: 5fb3 d146 4eee f4bf dca0 be2e 8622 ed3f
000000f0: c87d 8ae5 a2f4 f03f f666 acfc 6af0 bfbf
00000100: 795c 8031 7236 f6bf 6d06 147e 6c69 e3bf
00000110: 9d3c d768 95ef c93f 909f a790 1b43 e53f
00000120: 4338 61b7 fa6e c13f 81cc a8ed 61b5 f1bf
00000130: 58d6 412c 5ba2 fd3f 3a6a 23df 64ce c33f
00000140: 9d4f 49e4 3557 e4bf fca8 5bab e746 e43f
00000150: 9b79 6912 0faf ca3f 568d 66a7 0848 d73f
00000160: 7e84 f0eb e112 d03f 7ea4 ce4c f798 dcbf
00000170: 0586 93b4 d3b6 da3f 4821 c4aa e803 0540
00000180: 16a1 57d7 2003 f13f b082 8850 7948 d9bf
00000190: f649 ee39 b954 edbf 4fdd 9a90 4a90 f33f
000001a0: 3106 f029 96d3 e63f 5ad8 c5ce 5df1 e2bf
000001b0: e901 c0e5 0070 ffbf bc9c fd47 1d6b e5bf
000001c0: 7a4c 5994 f6bd f7bf f313 557f aff0 d2bf
000001d0: 252e a047 1a22 f7bf 1f21 7a57 3838 e83f
000001e0: fa19 24c7 5723 f3bf c7c8 d8aa 39f8 e0bf
000001f0: f833 9935 2593 fabf 70c7 03e2 f84e ed3f
00000200: c6d3 e910 00b1 f83f dbf1 eda4 7078 ea3f
00000210: 18d0 cc31 f0d6 e93f 84cd e88f 9cee eebf
00000220: 85cf a18a 037e f0bf 1cb7 0574 99fd f53f
00000230: a954 eed1 8a62 993f ed62 3ec4 d060 f33f
00000240: 9490 3fb4 0fd9 eebf d772 62d0 85fa c03f
00000250: 9b40 60ea 67ee ef3f affa cda5 2529 db3f
00000260: 2d54 f2fa 6eb5 f6bf b8df 16ff f8e5 ec3f
00000270: 585a c131 0b83 febf b3fc d588 4c6f dd3f
0.5345644403171377 1.6625394372024291 0.7221290100128405 3.655567276644769 1.4839513142577152 -0.6936802194153806 -0.5852514610151941 0.2823268084348512
-1.7686272492738746 -0.7084143761597451 0.3665246687451197 0.8310549448494546 1.3055955818844331 -1.433124646299399 -0.5273061652056613 -2.1751800275745294
1.1653870258955505 1.1381149776235593 -0.8375541000964114 -0.16656631862513263 -1.2928704021327448 -0.44169218260420734 -1.3512202211968567 0.7004722767784659
-1.0346679334756066 -2.6444241014141574 1.3407522378589078 0.6204508317647269 -1.308180119168547 0.9104643738728799 1.0597256628460503 -0.12476223629746727
-1.3882924970291965 -0.6066191160645765 0.20262401217630535 0.6644418549812929 0.136199321308995 -1.1067828448838386 1.8521377304836246 0.15473614592959156
-0.6356458147733864 0.6336553904377804 0.20846737288497938 0.3637715945025851 0.2511524967286006 -0.44683630467131497 0.4174088729324413 2.6269086209396484
1.0632637416657125 -0.39504845490049956 -0.9165922290288211 1.222727360594792 0.7133284396260874 -0.5919636763126264 -1.9648446058855547 -0.6693254858081654
-1.4838777346492678 -0.29594027933882144 -1.4458258436087672 0.7568628033195955 -1.1961286333986423 -0.5303009354450062 -1.66092415749449 0.9158901609755343
1.543212953632279 0.8272021504667991 0.8074875805527908 -0.9666273890237993 -1.0307650962176649 1.374413922512253 0.02478997141186726 1.211136595322553
-0.9639967461084944 0.13264534640338496 0.997852285161588 0.42438641731124965 -1.4192952921487276 0.903072832318677 -1.9069930976453602 0.4599181495941124
