models/latest_2.0/b1.npy (npy, 1152 bytes, 1 tensors)

array f8 [128]
00000000: 31c9 d5a3 4188 91bf 06e6 7ee9 78dc 94bf
00000010: 9e6a a2f0 35be b03f e343 0226 c3c5 79bf
00000020: 8d29 087f 5e8a 75bf e1e8 6b83 c559 8f3f
00000030: 2b99 90ac 6ee9 973f 3f84 533b 5824 a03f
00000040: c8c2 b5d4 6e9b 9f3f 87a0 299e 16f7 853f
00000050: 517e 2b7d 73a8 9e3f 95ae 041b 1acf 9bbf
00000060: f550 0868 eaac 9d3f 5cc6 07c3 d837 a63f
00000070: 9a9d 90ae 4322 943f fd4b 295c 867e 86bf
00000080: 71db 6087 5067 a3bf 37af d6e9 00bc 9b3f
00000090: 7268 d1be 5df3 813f bae9 a012 9c56 a0bf
000000a0: f49c 4c7f 0085 97bf b0ce c636 9763 9f3f
000000b0: 83ef fb5e a76f 813f 76a7 bce9 ede5 93bf
000000c0: 1c05 cde9 c5c7 973f a93d 8a34 ca6e a3bf
000000d0: ddc3 20af ed33 8dbf 7f9a 7809 2a8b 6a3f
000000e0: 0054 ad09 9258 a63f e116 4d61 9e3f b03f
000000f0: a9e9 0ba9 de3b 62bf bd28 9519 d16a aa3f
00000100: 098b 3803 b345 72bf 39a0 c18f 6ab9 8e3f
00000110: 9866 61f5 a729 83bf 4b4d ad28 7640 863f
00000120: 7e4a 2c43 7836 743f 89c2 1e94 c656 90bf
00000130: 3912 58c3 0c73 9b3f 8eff 7d73 1506 5bbf
00000140: f6c9 e51d f223 97bf 3ff9 a12c ec17 b23f
00000150: fb1b 3a13 5e17 733f db79 c00a 9d4b 74bf
00000160: 9197 2b44 b792 95bf 17db 7df5 c8af 743f
00000170: 6b46 3daa 43b1 7c3f f6e2 4f97 fb68 8a3f
00000180: 5075 f46a 1b7b 9bbf 83f3 d2ff 8698 833f
00000190: d82d 79e9 95d2 84bf 83c7 e96e 6479 913f
000001a0: 476c 0717 3e20 9dbf 2802 30ff e866 a3bf
000001b0: 978b 8310 b48d 7fbf 2a62 8185 5409 883f
000001c0: b8ce baca 3b42 94bf e82d 3b6a bb0b a3bf
000001d0: 3881 8de1 553a 83bf 35cd 96bd 8d3b 8abf
000001e0: caf5 548f 8b8e a6bf 0627 3f9a 55e7 73bf
000001f0: 6149 9139 9c3f 993f c8d0 376c 14be 8e3f
00000200: b033 4723 710d 94bf c2c3 2a6a 398b a23f
00000210: 94c6 115a f217 633f 3580 e30e 3254 853f
00000220: 6d57 7621 e441 a13f c651 82c3 274a a13f
00000230: 893a c554 0082 983f 7066 ee8c d598 a03f
00000240: 3ecc d32f 5e5d 77bf 9f52 528f b015 813f
00000250: 8557 3d13 7289 723f caa0 4018 4faf 96bf
00000260: 810e 95c9 6b93 b3bf ce21 f08d c4bc 89bf
00000270: 2a7e 8fcc 41eb 90bf 775b bf6d 55e1 60bf
00000280: 2126 26e0 c827 7fbf a216 5936 cc26 963f
00000290: 5a56 1ee5 252a 90bf 63f1 1145 6525 92bf
000002a0: 92cd 6df1 63d0 a13f a5f4 6c15 d730 913f
000002b0: 0b0b 7207 2544 763f af95 17be 71c6 9bbf
000002c0: 49e8 2129 3046 a5bf 2573 d263 a654 823f
000002d0: 94e7 96a5 51cf a2bf 7e3a 0682 c8d2 97bf
000002e0: 127d fd05 65ea 933f 7376 062e 5823 ac3f
000002f0: f0f7 e3d4 d9f4 9cbf 544d 9d0f a580 803f
00000300: cfb6 e95e d358 9cbf a8da e999 f040 503f
00000310: 584d e058 84f8 653f 5724 f756 e3f8 82bf
00000320: 5d2e 24f3 30c8 94bf a99b 918a 98f6 693f
00000330: 86a2 7122 a9f5 923f 7483 9269 af41 a13f
00000340: 7ea3 63db fde2 9bbf c00d 4367 1592 a03f
00000350: 5cab 8813 4681 65bf 49e9 6d4a 18d2 67bf
00000360: c192 67bc b8c5 a93f bd36 0274 273a 883f
00000370: 8618 1ec2 ca3a a0bf c3a5 869f 54bb 743f
00000380: cffb 3413 b123 82bf b6a8 f4e5 4c4f a73f
00000390: 019d b146 5484 9bbf b668 fbe6 498b 9fbf
000003a0: c228 0a9f 90d9 66bf 853c d9f8 ce88 9a3f
000003b0: 12d7 7868 c50b b43f dfd8 0a37 415c 82bf
000003c0: c9fa d644 ce54 56bf ba19 6a1f 26b7 a13f
000003d0: 11b9 c042 d85f 7cbf 49e0 fd6e a05e b3bf
000003e0: 2c82 5be8 0e9f 933f f7ee bf7a ceb0 61bf
000003f0: 9dfb f11c 913e 923f d263 2bd5 e157 a13f
-0.017121339440060616 -0.02037228512901914 0.0654023849951195 -0.006292116450041771 -0.005258912206509325 0.015307944367567607 0.023351411135217475 0.03152728771397805
0.030866367085254948 0.01072518987821548 0.029939465060009166 -0.027157218836846814 0.02897993335689449 0.04339482670537784 0.019661958245846024 -0.01098351448778167
-0.037897602582623764 0.02708436419713608 0.00876496542530367 -0.03191077926063053 -0.022968299646120863 0.0306533457930544 0.008513743959603698 -0.019431798354311046
0.023223011393615697 -0.037954634584021214 -0.014259201914770198 0.0032401867899978782 0.043644488984377006 0.06347074389949682 -0.0022258137545325307 0.051596197483904295
-0.004461001651665305 0.015002090942474055 -0.009356796432416645 0.010865138164865803 0.004934758925417724 -0.01595602301648794 0.026806067870000148 -0.001649399708156782
-0.0225980597255759 0.07067752923646696 0.00466095684135492 -0.004954923100767473 -0.021067489181312352 0.005050454135804092 0.0070049899257625765 0.012895551257302778
-0.026836803820619537 0.009568266565446631 -0.01016728514436853 0.01706463744125798 -0.028443308024958005 -0.037894517088720214 -0.007703498246175131 0.0117365458719841
-0.0197839109884643 -0.037198883741066 -0.009388609834502945 -0.012808902118968216 -0.0440562832322758 -0.0048592895363499585 0.024656716359751644 0.015010985901405496
-0.0195825269491256 0.03621844693169109 0.0023307546076061867 0.01041449649750357 0.03370583446955675 0.03376888524613579 0.02393341557881937 0.03241603226997547
-0.005704276959693165 0.008342151044680888 0.004525609594414952 -0.022153125624897275 -0.07646821662370408 -0.012567077237705695 -0.016522434339888793 -0.002060572483951469
-0.0076063009931970635 0.021632376496447343 -0.015785781964572677 -0.017720777836517054 0.03479301759844157 0.0167878729655412 0.0054360815476026765 -0.02712419245462677
-0.04155111791710959 0.008950519486739925 -0.03673796793323372 -0.023265011726432132 0.019448832026111758 0.05495715677100756 -0.028277782076649716 0.008057870425239123
-0.02768259302904746 0.0009920453664144322 0.0026819786935533933 -0.009263778773759208 -0.020294918861550538 0.0031693438837012322 0.01851524613121793 0.03370426334118451
-0.027233091845946238 0.03236452947160329 -0.002625119083196221 -0.0029077982357509674 0.050336621283155754 0.01182967016964242 -0.03169854755019323 0.0050614648429613855
-0.008857139013910413 0.04552688891483696 -0.026871983351523635 -0.03080478164961483 -0.00278928991639757 0.02591250795222468 0.07830461311899864 -0.008965024463901404
-0.0013629927010325052 0.03460044034459338 -0.006927342194144496 -0.07566263875730884 0.01916144650647504 -0.0021595032503663974 0.017816798583676897 0.03387361266295098
