models/latest_2.0/b2.npy (npy, 640 bytes, 1 tensors)

array f8 [64]
0	0xbf80b63203303db3	-0.00816001007299758
1	0xbf907801708efce0	-0.016082785124805876
2	0x3f7248fec5af600b	0.0044641449012132834
3	0x3fa3890a7c9f97a1	0.03815491458207921
4	0xbf61d4103a9ff215	-0.00217631501891292
5	0x3f53aad3ee46d5c5	0.001200396503106092
6	0xbf55ba4c85400556	-0.0013261554022395337
7	0xbf7caa9e91fd86f5	-0.006998652854095279
8	0xbf887b6c033f4520	-0.011954158639044865
9	0xbf7ad18e500c6d40	-0.0065475043382108855
10	0x3f7d9033e64edfd9	0.007217600567791715
11	0xbf9bd7590f98b63a	-0.02718867452329319
12	0xbf827a9f17d1cd6b	-0.00902294436875791
13	0xbf8d08c5a40955ed	-0.01417688757752963
14	0x3f8ba85b7162fe48	0.013504709623133895
15	0x3f987f01885c4cde	0.023921989391124103
16	0xbf9d7e382d24913a	-0.028801801448154786
17	0x3f982b53992d7171	0.023602777694905656
18	0xbfb0244930e27fda	-0.06305367892718952
19	0x3f8a859166ded547	0.012950073196274515
20	0x3fb32b7bd4085ee2	0.07488225866870438
21	0x3f60112d843cb4e9	0.0019613160128729612
22	0x3f94eb2ea159dacd	0.02042839870270079
23	0xbfae57e207808881	-0.05926424352243576
24	0xbfb67af9b1ebe86d	-0.087813955247755
25	0x3f54f0a8e6a26d20	0.0012780808852202521
26	0x3f55a930d6f38b79	0.0013220765065901903
27	0x3f9dea5e2c1a696e	0.029214354936450908
28	0xbf43eb1d802f723d	-0.000607861904764535
29	0x3f895b89301f21f5	0.01238162210565095
30	0x3f9e1e49e108e72a	0.02941241680148391
31	0x3f92855a42e834de	0.01808682473533884
32	0x3f8061003530cb49	0.007997514365433072
33	0xbf77d263df56d213	-0.005815878035197136
34	0xbf839ba48679a3e3	-0.009574208597046002
35	0xbf59c80fd7fda59a	-0.0015735773776789142
36	0xbf74033f6b640c4a	-0.004885909778980022
37	0xbf70666b2457511e	-0.00400392391516771
38	0x3f59678b2c8b0538	0.0015505656357819985
39	0xbf91630f2117b016	-0.016979442972953583
40	0xbf67834d626d2d98	-0.0028702269950479746
41	0x3f92a988b6bac89c	0.018224846032076955
42	0xbf70bda3146b4fe2	-0.0040871019652577185
43	0xbf91864854df45bf	-0.0171138097574095
44	0x3fb1f4f3e510a307	0.07014393179327892
45	0x3f86c90d5f911c0f	0.011125664214104018
46	0x3f4d79636d3dfb53	0.0008994803888383397
47	0x3fa252e94d9278ab	0.035788813323266076
48	0xbf8167474ffb4c0c	-0.008497769478173843
49	0xbf97ec96b98d43c1	-0.023363452029403712
50	0x3f53fef3cd1af822	0.0012204533453963403
51	0x3fa2476c2245b49c	0.03570115965235596
52	0x3f9273791d7dda8e	0.018018619942689322
53	0x3fb47238cb7eb99a	0.0798678871931088
54	0xbf90c5feaaa6998a	-0.016380290189454118
55	0xbf92d69f821816d3	-0.01839684707194673
56	0xbf88023eee37c7f9	-0.011723033566315865
57	0xbf8a4b6d6020e73f	-0.012839178558454399
58	0x3f97ff5d7e1e1cd7	0.023435078451737503
59	0xbfa3438c883e7ce5	-0.03762473261962799
60	0x3faf6ef09608321d	0.06139327842183582
61	0xbf9c99a393f6fc63	-0.027929836183599465
62	0x3f90a1adef296fba	0.016241758081704673
63	0x3f9240014c79d7c9	0.017822284977647294
