models/latest_2.0/weights2.npy (npy, 65664 bytes, 1 tensors)

array f8 [64, 128]
0	0xbfe3169e7a9a2ddb	-0.5965111155105051
1	0x3fd48932e13b8645	0.3208739470993332
2	0xbff778e3e463de4d	-1.4670142098892882
3	0xbfb2368e6de1c943	-0.0711449640528246
4	0x3fa5aa846f8ec3c6	0.042316568963890286
5	0xc003fb2b9cce7182	-2.4976417780400775
6	0xbfed11b6c3610cfc	-0.908412343597234
7	0x3ff53dd833f2af89	1.3275987652986905
8	0xbfd539140e2a9f50	-0.33160878547140715
9	0x3ff2de23c5d34226	1.1792333343074772
10	0xbfdb38859033dd84	-0.4253248127201561
11	0xc003135b53346c18	-2.3844515323994635
12	0xbfafe8df71117cbb	-0.06232355361202609
13	0x3fe60918841eb8bc	0.6886103229969858
14	0x3fd89892dbceb959	0.38431235757425025
15	0x3fdd4999907e98bc	0.4576171790198591
16	0xbfcf6d3cbeb2e2ba	-0.24552115737403374
17	0x3ff6f541fbcc1402	1.4348773799731593
18	0x40009c78b3f9454e	2.076402097744597
19	0x3fbb904ba7743db9	0.10767052496179631
20	0xbfd4cbf66b738d0b	-0.32494888776109637
21	0xbfce1c3867c97653	-0.23523621623728505
22	0x3fded4dd3b856184	0.4817421990642503
23	0xc002cae162fbec9a	-2.3490627034312412
24	0x3fecaa8fe0e80e10	0.8958205597595583
25	0xbfc922bcd755dfaf	-0.19637260927606578
26	0x3ff34e0fffafceea	1.206558226372119
27	0x3fe46bff8cd29027	0.6381833792152108
28	0x3fbad65f8c5713f5	0.10483357597611571
29	0x3fdc11f770a441f7	0.4385965919509824
30	0x3fe6eb4a24c1e346	0.7162218778531517
31	0x3fbcf432035fbcb7	0.11310112554905315
32	0xbff3008fbab941dc	-1.1876370710270896
33	0x3fcc0308b25855c1	0.21884258945708093
34	0x3fdb8e71681032a3	0.4305690304034135
35	0x3ff4779f308d3885	1.2792045494602757
36	0x3ff9c9aa5f838179	1.611734746075028
37	0xbfea868642081979	-0.8289214410477107
38	0x3ff070175d0159f7	1.027366030980941
39	0x3fce07d0e07a864b	0.23461352311010084
40	0xbff5de10fabf0207	-1.3667154116411682
41	0xbfe0ef990c655915	-0.5292477838618505
42	0xbfe1a56b65496e8f	-0.551442811799875
43	0xbffc242d7e85427c	-1.7588324491699998
44	0x3fe0660dd3407d16	0.5124577642453996
45	0xbf9c7280a909cd6e	-0.027780542676237578
46	0x3fe41e6fc0b63ff2	0.6287153972534709
47	0xbfe07ae30fd8dc6c	-0.515000849677461
48	0xbfeb25570ff299bf	-0.8483081161000924
49	0xbf9e03ab03a91640	-0.02931086740342992
50	0xbff6a669c7f752f2	-1.41562822448503
51	0x3fe7749e5b4211ca	0.7329856665024235
52	0xbfa223073c05a259	-0.0354234944123319
53	0x3fe15ae9efba8b8d	0.5423478777123464
54	0xbfe4563814d93f30	-0.6355247885894411
55	0xbff346ca084ba6b5	-1.2047825168651063
56	0xbfde72344c339958	-0.475720476546845
57	0xbfefb45a06c129c5	-0.9907655841755562
58	0x3fe578a8ba3ae513	0.6709788930230921
59	0xbfef367222d28c15	-0.9753962211729027
60	0x3fdb3b21399cac85	0.42548399568722345
61	0xbfefeb003981f203	-0.9974366305537504
62	0xbfdaa473ceb5f719	-0.4162873762760327
63	0xbfd1adac6e179972	-0.2762251925581928
64	0xbfd2e179a25e5da9	-0.2950119100218794
65	0xbfd5bef43a195760	-0.33977990792970125
66	0xbfc3bb08b4179ede	-0.1541453246456887
67	0xbfe096f1ea37b1e2	-0.5184259008943253
68	0x3ff8643f58e60ac7	1.524474475155033
69	0xbfd15116b00088b9	-0.2705742567797063
70	0x3ffd1ed598b2f227	1.8200279202275256
71	0xbfcb850cf8d1cae8	-0.21499788426770938
72	0x3fd1852284d74e5f	0.27375090573079847
73	0x3ff93d0e2412cb59	1.5774060639493739
74	0x40028b166ee2ec4c	2.317913881588117
75	0x3ffe03391f4909da	1.8757868978578842
76	0x3f91372a58c1d74c	0.01681200186472802
77	0x4003d09c671425d2	2.4768608143828965
78	0xbff2082c20aec6de	-1.126995208422549
79	0xbfb158dde85c4bd0	-0.06776225016464754
80	0xbfd9b2148d4cf174	-0.4014941577804827
81	0x3ff4b93dcb954dee	1.2952249481648965
82	0xbfd7f33edeba4c01	-0.37422153235201
83	0xbfcdc2f753369f4e	-0.23251239360001325
84	0xbfe22896dcf09d21	-0.567454749606359
85	0x3fa45a6f476fd619	0.039752461881942654
86	0xbfb49159483b70c5	-0.08034284604531468
87	0xbfc80f458feffbe6	-0.1879660561389464
88	0xbfe71c0ecdd1c7b7	-0.7221750278388218
89	0xbff19818e636e6e5	-1.0996331207992907
90	0x3ff5bbd7355c4a61	1.3583595356364173
91	0xbfd9cbc1e071d674	-0.4030613605349125
92	0x3fd6d2d1752060f6	0.3566173213780667
93	0xbff1a8ed562f39c9	-1.1037419668751787
94	0xbff1c5cb545df435	-1.1107896133028252
95	0xbfe6bdacd4da8e03	-0.7106537015246776
96	0xbf9ba5d43ef4555b	-0.026999775259431185
97	0x3feee323ea9fe6e4	0.9652270872604416
98	0xbff278d188505f61	-1.1544967007411844
99	0x3fe8c8bdcd2b2563	0.7745045668790848
100	0xbff11347f5a9ecaa	-1.0672072979203144
101	0x3fdee925be49b9ac	0.48298019011317694
102	0x3fb382d96a866c75	0.0762153515883471
103	0x3fdd5933b84c2811	0.4585694598941937
104	0x3fe5d18146c9844d	0.6818243391572963
105	0xbfc65131ee8370df	-0.17435287614978898
106	0xbfb3be17b2f7524e	-0.077119332497497
107	0xbfe7219c5ecfe033	-0.7228528835103191
108	0x3fca472ed1b15135	0.20529732931994152
109	0x3fd471383248e5b8	0.3194103709280074
110	0x3ff3e2bbe9ef8bdf	1.242854989825666
111	0x3fb2a25a4a4b1d9d	0.07278980554393973
112	0x3ff9f254356a176f	1.621662338876799
113	0x3fcea4bc4be2af68	0.23940232949587004
114	0xbfea9ca03779d04a	-0.8316193660271065
115	0x3fff009de3eab6d3	1.937650575924114
116	0x3fa35cf7edfa6715	0.03781866817480598
117	0x3fd0a4021c3c92ff	0.26001026875955796
118	0xbffa100fd4e6f973	-1.6289213482374094
119	0x3fedd620f93ae6d3	0.9323887698912706
120	0x3feb2541f03f452c	0.8482980434729703
121	0xbfb164b58973d154	-0.0679429493500881
122	0x3fcee51d234071fa	0.2413669988753922
123	0x3fb3c8fda7815218	0.07728562678796214
124	0x3fdbc8865afafcae	0.4341140640717168
125	0xbfdb81854ac5545c	-0.4297803144630217
126	0x3ff42ff3caa53309	1.261707107146494
127	0x3ff7f5a2c829cc1c	1.4974696940305483
128	0x4001f261135150d1	2.243349219245012
129	0x3fe731a066c31fd7	0.7248079306673344
130	0x3fdab3d03f0b6973	0.4172249427480416
131	0xbff373eca71ea3ef	-1.2158018615830277
132	0x3ff2a103c3c68790	1.1643102309685425
133	0xbfe061b13b2d1221	-0.5119253307134991
134	0xbfe7cfc7d0a10eb3	-0.7441138338840204
135	0x3fa935b766a43d83	0.04923794868420386
136	0x3ff861e17882903c	1.523896666280975
137	0x3feecf39c1af8183	0.9627960951730049
138	0xbffa7ee536ea32cb	-1.6559803147421686
139	0x3fe952bb2175787e	0.7913489964955855
140	0xbfb9f6b0a7d1cb23	-0.10142044160037904
141	0x3fd2ffcf4e7d6e9c	0.29686339058910405
142	0xbfdb2bdc45bacc16	-0.4245520287469743
143	0x3ff896ef26f1a348	1.5368491669889455
144	0x3fe929be052c7450	0.7863454915092323
145	0xbfaafa82ef584335	-0.05269250079812197
146	0xbff97f5ffecaa483	-1.5935974076076327
147	0xbffc7436ccb41682	-1.778372573492931
148	0xbfe6a8c8127495d7	-0.7081032143075231
149	0xbfed92df424117d9	-0.9241787237194742
150	0xbfdb360063ea5d8e	-0.4251709914910514
151	0x3fdcb00ea5aa68ab	0.44824567964827605
152	0xbffd9fa829cf9e36	-1.8514787324182982
153	0x3fc0d97932f04a0a	0.13163676249730855
154	0xbfe8ff16cfe9d93d	-0.7811388073739988
155	0x3fe06f762cc53a2b	0.5136061548635714
156	0xbfc82f79e0552c6a	-0.18894885495896868
157	0x3fc8c2f2e165fdfe	0.19344936376363359
158	0xbff19d18471f5014	-1.1008532312598662
159	0xbfe9e0e57e92d7dc	-0.8087031814709422
160	0x3fd279346d664a0d	0.2886477535586501
161	0x3ff79025e76ca559	1.4726923980727717
162	0x3faa0fceb6ef4082	0.050901851492768393
163	0xbfbaf0ac3d1951cc	-0.1052348755995986
164	0x3fd2c7f9eaf0f028	0.2934555811259565
165	0x3fc14596963eaf68	0.1349361642472744
166	0xbffac733f50206df	-1.6736335344907542
167	0xbfef5847240c683d	-0.9795261100837319
168	0xbfd77092718a39a2	-0.36624585235485985
169	0xbff26eb3607c1e60	-1.1520265358866695
170	0xbff3ee82bc0c3190	-1.2457301469431492
171	0x3ff054f2835e1f45	1.020739091067257
172	0xbfe70f0f7592f95d	-0.7205884262437326
173	0x3fcbf0e501ff7ecd	0.2182890186077117
174	0x3ff41c9351d9efe9	1.2569764325444288
175	0x40027e6c8044cd29	2.3117303868290446
176	0x3fec17b3b017b0ff	0.8778932990367422
177	0x3fcdc3d46728ecd9	0.23253874814131484
178	0x3ff9737f708b75e4	1.5906977077751145
179	0x3fd3f59c38bc6eb0	0.311865859419167
180	0xbfea05da0322c345	-0.8132143079038562
181	0xc0043a40f148d5e7	-2.5284441805222175
182	0x3ff9158f42effb05	1.5677635779135823
183	0x3ff2f78294f69dc4	1.185427266967836
184	0x3fdb151d78b30064	0.42316376482995666
185	0x3ff7674196ba17a1	1.4627090347071106
186	0x3ff8327dc12b5fa5	1.5123269601517475
187	0xbfab450957d5d308	-0.05326108166892679
188	0x3fe85d45eb062fbf	0.7613858785930389
189	0x3feff7c846be8b13	0.9989968663906857
190	0xbff1951e3a388bab	-1.098905780244176
191	0x3fdd4998b5138684	0.4576169746706926
192	0xbff1fccdef34908b	-1.1242198318441605
193	0xbfdac0e81eae577b	-0.4180240916842803
194	0x3fea06c12fa15a91	0.8133245401648584
195	0x3fccb865f622d5b0	0.2243773891292853
196	0x3fea33ca5dd72dad	0.818822081835085
197	0xbfcf49f1aa4e18d4	-0.24444409194638317
198	0xbfec0421d36c1b29	-0.8755044106809226
199	0xbff1a6e47c172f4e	-1.1032452437675206
200	0x3fd4c740c0a9277c	0.32466143431212635
201	0xbfeb70eddc18f407	-0.8575352953699856
202	0xbffd48838b3e1068	-1.830203575053952
203	0xbfd38e36c9c53792	-0.3055550547040805
204	0xbfee1058ae64d569	-0.9394954115038391
205	0xbfed8b017a5dde47	-0.923218478200348
206	0xbfdea7580bf6473e	-0.47896386306921446
207	0xbfb2b746356200b6	-0.0731090431527289
208	0xbfe7d122ea7ca6e1	-0.7442793445418056
209	0x3fd09fb5de1bbe33	0.25974795046110727
210	0xbff4d72b63b0cf16	-1.3025316137472536
211	0x3fc07b8243d6ff4e	0.12876919090740063
212	0x3f8e3fa83be6771a	0.014769853904734332
213	0xbfcb5ffa51535e63	-0.21386651011447375
214	0x3fcab8f4dd6f8c37	0.208769424555699
215	0x3fefff8adfb6da43	0.999944149915628
216	0x3ff0f24ab6e91a4c	1.0591532845443394
217	0x3fd1defefaea6851	0.2792355966900049
218	0x3ff2342a751423c4	1.1377358029733253
219	0xbfcde2d4c9818dc5	-0.23348483885921048
220	0xbfe811f82a369bb1	-0.7521935295561574
221	0x4003665d5831ed53	2.4249827280270124
222	0xbfec42c87aad915e	-0.8831522365622211
223	0xbff26b01191f5aaf	-1.151124094137838
224	0xbf551ebd48d24216	-0.0012890671235120713
225	0xbfe00ea9acf444e6	-0.5017898920069939
226	0x3fd9cc3af1487b84	0.4030902248650181
227	0xbfd5d32ccc39cc3a	-0.3410140985863027
228	0x3ff6e9174f117972	1.4319069946864968
229	0xbfd5854ce4de5cb3	-0.33626100874375736
230	0x3fc7acaa938530cb	0.18495685771120515
231	0x3fa874c628b013f1	0.047765915362141594
232	0xbfd275d41839c4a8	-0.28844168058192077
233	0x3fd06f618c9646bc	0.2567981598777853
234	0x3fe9b87420ca2c22	0.8037663116859941
235	0x3ff8be37c6d4e4c8	1.5464399115428922
236	0x3fe0b54d22bdb6c1	0.5221315077339669
237	0xbfe08e37b80d2f5a	-0.5173605532413419
238	0xbfee2b54a15226c2	-0.9427893782423882
239	0x3fd0b1951807c41d	0.2608387694045307
240	0xbffd0ee1ffdd47a1	-1.8161334986402624
241	0xbffef872a02abd8f	-1.9356561905404737
242	0xbfe974260b26d476	-0.7954282968336333
243	0x3fd4d41b4d0b5228	0.32544596217965926
244	0x3fe8486a60737dd6	0.7588397868930155
245	0x3ffaec2687613526	1.6826539314527706
246	0xbfda0f8fdbe20194	-0.407199825982411
247	0x3faaff106535e70a	0.052727234225086475
248	0xbff4b6fa022317d1	-1.294672020290353
249	0xbff7087334280db8	-1.4395629918443387
250	0xbfffdbf5511554fe	-1.9912007491414552
251	0x3ff1701e308c593f	1.0898725410857677
252	0xbff2f2ce05849aeb	-1.18427850871529
253	0x3fdb7cd0f5a21d89	0.4294931792032562
254	0x3fe062cae485539d	0.5120596373841299
255	0xbff55e0c737a8d57	-1.335461093033549
