models/latest_3.0_turbo/b1.npy (npy, 1152 bytes, 1 tensors)

array f8 [128]
00000000: db3f 84d9 8507 923f 2e99 cf5e a6e2 903f
00000010: 9bd4 fcc8 e727 64bf 5797 3c97 58d8 913f
00000020: 2c82 8f2c 636e 8dbf 0a43 a26f bec0 a1bf
00000030: 4be6 94e3 8da7 453f 949b 2899 172a 9c3f
00000040: 0fea 2bdd 6a72 873f 7c1e 607d 7983 9bbf
00000050: 7a6e 9cf1 47a2 763f 4e4d 26ed b944 a33f
00000060: 9f30 81fc 2eed 85bf f8a7 0d0b 38b9 863f
00000070: 5558 2329 aed0 a03f a68f a8fa b46d 973f
00000080: 9a72 9124 2d17 5a3f deaf 9a52 f56e 943f
00000090: cade c7e4 e793 92bf 1ded 19fc 7e0d 6f3f
000000a0: f71a 4cc0 3015 943f 774b eec8 8907 76bf
000000b0: 926c 7fe5 db5b a23f dc07 1c88 1d65 983f
000000c0: f4cc fba9 902b 97bf 2021 53e8 c2b5 95bf
000000d0: f92f 597c 5127 5d3f 2919 ad48 ba81 97bf
000000e0: c4d9 b6f8 ea86 8dbf b946 1c90 391e a3bf
000000f0: aed8 e604 5e7d 98bf c2ac 1a35 84ec 88bf
00000100: 7acc dd38 a874 a03f 33a6 ebf8 c6e3 8fbf
00000110: 1356 dfb4 6f6f ab3f 53f2 5ea8 1a4e 90bf
00000120: 1fa6 b95b 46b7 6d3f ff48 651d db1f 64bf
00000130: 9873 6a78 3ef0 853f 5ce8 d47a d24f a03f
00000140: c34c 6754 7d63 acbf 61bc 4265 957c 77bf
00000150: 44a3 8a45 86d4 9b3f 98e7 9100 fa1b 953f
00000160: 9e52 9e34 66a9 94bf 5033 12e5 0ad2 963f
00000170: de1e 0341 2ce3 aa3f 271d 101b 82e1 93bf
00000180: a9e2 1fbe 5311 6c3f bb9d ed58 5b99 4dbf
00000190: c9b2 e073 a606 5f3f 3c03 950b 26e5 a0bf
000001a0: f5ec 707e 65b3 a1bf 6ba5 a653 a0b5 a4bf
000001b0: 7fb6 c2f0 448f 763f ab59 6154 f6a9 99bf
000001c0: 4784 23f7 803f 533f 0506 90f1 3881 a4bf
000001d0: 7a4e 27d8 7fec 9b3f 24bb 3d50 7a65 85bf
000001e0: 257f b411 3ac7 99bf fa64 d096 7d30 af3f
000001f0: 30b0 9689 eef9 783f 32d4 8611 100b 92bf
00000200: 4059 892e 7741 913f f07a 87aa bf7f 703f
00000210: e828 5291 206b 98bf 6eef 0c3f a2b4 80bf
00000220: af13 d9e7 3858 8e3f 6782 e60d 5adc 70bf
00000230: 2ab4 d27c e3ed a1bf 94bd deb9 155f a9bf
00000240: ec1f a4c0 1fb1 a2bf 9cf0 e4f4 9b89 a23f
00000250: 8a27 0c7c dac6 a33f 14b4 735f 8ad9 9c3f
00000260: 4203 6610 2f84 643f 2caf e30b 950c 6c3f
00000270: f59d 34e4 5d56 b43f b8f1 40ee f86c a33f
00000280: 432b 0f03 0665 283f e46e 01f5 2268 813f
00000290: 369e 3126 3c76 563f d874 eb19 70dc a83f
000002a0: 3340 57b0 8926 a6bf e1a9 631e d171 6f3f
000002b0: 013e 4269 05e0 9c3f 736c dc7c 985d 9d3f
000002c0: 9d2c 76a2 8cf1 a0bf be79 5039 9e46 72bf
000002d0: 600c 4808 a752 383f a0b4 7501 b5c8 a93f
000002e0: 9189 c3e4 6b35 90bf c4bb 0522 9032 8abf
000002f0: 3fe3 206a 6d57 983f e437 960d 8948 953f
00000300: 4eab 9d2a 2e38 883f 0c87 ae04 5ece 8fbf
00000310: f56c e7cd f163 7bbf b77b 2483 99de 953f
00000320: a876 8d7e b569 98bf a066 5132 0faa 9c3f
00000330: 0032 2d58 ff11 923f 5764 eafc a7d2 86bf
00000340: 0670 73a3 ab1b 5f3f ce1b 9156 1f7f 90bf
00000350: d182 3aa2 522c 79bf cddf 8754 41ed 703f
00000360: 940f 629a 95ef 80bf f70d 4edf c741 473f
00000370: d795 c814 685f 8e3f e056 59a1 55be 8f3f
00000380: 16da 6fa8 86c4 a33f d72e 1932 a0de 87bf
00000390: f776 a7b6 674d a3bf 97d9 be26 76c6 a4bf
000003a0: 016c 69ae 5c04 893f 4c48 61b7 0191 633f
000003b0: 272e d30c a55e 9c3f 92aa 814f e5de 7a3f
000003c0: 716c 6e9d 1a34 a4bf 63cf bff4 add3 863f
000003d0: 7347 a526 e54c a2bf e02c 8806 ca11 90bf
000003e0: 8796 734a 1528 a03f 8649 1be9 4050 82bf
000003f0: 9006 b23b d8e6 a33f 4b97 3d37 ae4f 7bbf
0.017606822396430615 0.016489600693511956 -0.002460434632576792 0.017426857214693694 -0.014370703503972036 -0.03467364418714254 0.0006608431641900806 0.027504318926868956
0.011448702692622907 -0.026868723180113893 0.005525857000772677 0.03763371486561572 -0.01070629795153649 0.011095464551278397 0.03284210445569672 0.02287943630120961
0.0015924397323693663 0.019954522291911185 -0.01814234098307458 0.00379061509812363 0.019612085091490674 -0.005378282758914269 0.03585707832800113 0.023823224480118074
-0.02262712514398131 -0.0212011770534285 0.001779393745340306 -0.02295580929355726 -0.01441749164119422 -0.037339972344978496 -0.023915738152674386 -0.012169869299518136
0.03214002317590654 -0.015571169349146796 0.05358456690707327 -0.015922943617385176 0.0036274313150002203 -0.002456596335073446 0.010712135362433803 0.03185899495515862
-0.05544654517475458 -0.005734046532025778 0.027177904123763655 0.020614534649645216 -0.020177456819129184 0.02228562377108584 0.0525144414291938 -0.01941493311099154
0.0034262309645750233 -0.0009032913238628462 0.0018936753763327144 -0.03299826518423862 -0.03457181137533808 -0.040448198519991894 0.0055077260005141895 -0.025062416935122716
0.0011748084476084374 -0.04004838894617183 0.02726936108395115 -0.010447459768071328 -0.025174052553779042 0.060916828784863555 0.006097728526054211 -0.017620326108687752
0.01685129376922956 0.004028080650157348 -0.023846157903371884 -0.00815703158297484 0.014816708159864548 -0.004116393828014076 -0.03501807116240514 -0.0495535649673641
-0.03650759913040233 0.03620612492019967 0.03862650646449513 0.028173601222921077 0.0025044364185195242 0.0034239684165323827 0.07944285222458077 0.03794076832170695
0.00018611620319427578 0.00849940595815419 0.0013709628481367703 0.04855680767443865 -0.043262770439128316 0.0038384518003244804 0.028198322820172098 0.028677351590073074
-0.0330928753201871 -0.004461877882049268 0.00037113740862099696 0.05035939829654379 -0.015828786695132605 -0.012791753805428636 0.023771009066169354 0.02078451295306384
0.011825905490430746 -0.01553033305919229 -0.006687111423583793 0.02135696280413032 -0.023840747689397063 0.02799247498146562 0.01764677978217044 -0.011143982320662866
0.0018986869961770138 -0.0161099335275841 -0.006145785129462581 0.004132514186942116 -0.008269470952889248 0.000709745973481223 0.014830411085379787 0.015499752985458526
0.03860874944796337 -0.011655093697434378 -0.03769992928185489 -0.04057664130179999 0.012215351173997748 0.002388480522349778 0.027704790981074503 0.006560226196692514
-0.039460021703427446 0.011145934135107621 -0.035742913215144244 -0.015692860268285425 0.03155581029731729 -0.008942134012077895 0.038870579993283916 -0.006667786150364406
