models/latest_3.0_turbo/b2.npy (npy, 640 bytes, 1 tensors)

array f8 [64]
00000000: bed7 bf81 838c 983f 02c1 d434 fb31 86bf
00000010: b96b a4c7 bea3 793f 757c cebd f1bc 7b3f
00000020: 9c73 38a4 610b 7ebf e952 660c 7c84 af3f
00000030: 914b face 0830 a7bf aca8 874b 27e8 90bf
00000040: 232e 714d d79c a6bf fd0d ad56 1cf8 9a3f
00000050: 1686 b095 4a62 aebf 1de7 b5cb b6d0 7abf
00000060: 35b6 641d 0c62 b5bf 1736 6ee7 97d5 95bf
00000070: ff61 847c 1a1a 89bf 8134 6cb8 c85e a3bf
00000080: fa39 08a5 3f3a 83bf f166 e8bc 9e91 b53f
00000090: eb6f 8392 7a31 483f b5e4 0171 ee04 8c3f
000000a0: 03b5 0561 418e a5bf 53b7 c17b 0431 713f
000000b0: 373b ec43 4385 87bf d037 2e43 3932 93bf
000000c0: 2441 0a10 adcf a7bf 3e88 08c5 0d8a 8a3f
000000d0: ed7c 33e5 6c9e 7d3f f2e7 ba9d ef5e 573f
000000e0: bd43 e386 a32f 49bf 5c78 727e c6b1 95bf
000000f0: 7730 b8e3 95cc 763f 2eab 9cc4 c6fc a8bf
00000100: 00b7 3ca5 1420 79bf dfa9 4c47 31be 933f
00000110: 795e f15b e029 313f 9b55 4244 ea83 903f
00000120: d381 78d6 11cf 92bf a9aa b664 6dcc 4e3f
00000130: 31d5 bf52 83c6 87bf 2395 3507 23e4 913f
00000140: d9a5 7df6 21b0 4e3f 0d53 0a44 7d0c 8f3f
00000150: 1c5e 852a 754d 9b3f 69fe 757e f98d a0bf
00000160: d5e2 fcc2 fd55 7e3f d0ce ea96 c464 a03f
00000170: 1812 32c5 db23 a53f 8d67 c4cb 44cc 6b3f
00000180: 1e0b a451 092d a13f 476b 5880 8d5b 50bf
00000190: d4ce af32 c786 a9bf 7bb9 2cb8 eeee 8fbf
000001a0: f1d7 0478 d5ed b23f 214d f124 4a28 8ebf
000001b0: fd6b 4f7d 16fd 853f 443f ec0e 07d1 993f
000001c0: 7ee7 7bea e035 a0bf 21ea 579c bdac 763f
000001d0: 4ab4 540e c8a3 873f 2a54 a688 2272 a5bf
000001e0: 976f 0cdd 8380 60bf f429 4665 3aa4 9d3f
000001f0: 37b4 1564 30a6 803f c581 6cd8 2ef2 623f
0.02397351722171214 -0.010837519216324146 0.006259675248908297 0.006771988203495662 -0.007335072910362419 0.061557652009616444 -0.04528834845145647 -0.016510595307331385
-0.04416535206163654 0.026337092199595336 -0.05934365346207586 -0.006546701475025588 -0.08352733342754777 -0.021322606563947213 -0.012256819653473803 -0.037832520020040235
-0.009388444160347998 0.08425323593146651 0.0007383202073714101 0.013681280921661413 -0.042100947469274196 0.004197137368562159 -0.011484647283877087 -0.01874627563989134
-0.04650631733705016 0.012958629203300483 0.007231164333659762 0.0014264431000996472 -0.0007686184378831101 -0.02118597170612478 0.005566201692556053 -0.048803531170355505
-0.006134110113448221 0.01928021428754245 0.0002618954421840024 0.016128216186719873 -0.018368033137564254 0.0009398969790955408 -0.011609102213678031 0.017471835436841176
0.0009365239938975935 0.015160540236402587 0.02666266510035885 -0.0323331801291687 0.007406226402786505 0.032018798277389515 0.041289203473784564 0.0033933013602451324
0.03354672547904712 -0.0009983903740990606 -0.04985640043005693 -0.015592446322980838 0.07394155674123205 -0.014725283863447349 0.010736633013882719 0.025211439405267613
-0.03166106092790154 0.005535832087384424 0.011542857110351207 -0.041886405163645016 -0.0020144057711046315 0.028946793013838915 0.008129480413766028 0.0023127474736528175
