models/latest_3.0_turbo/weights2.npy (npy, 65664 bytes, 1 tensors)

array f8 [64, 128]
-0.777056316572513 0.3416999077004144 0.07785893096358763 -0.5964056161695189 -0.32369510098517995 1.4691917783390536 -1.4717683594688908 0.6495050618954793
-2.239548436757744 0.931982710011624 -0.11279500952878153 -1.2050007489545265 0.3741221891850989 0.22884604830501665 0.13733428368961154 -1.2491617225206748
0.30200719721879915 0.952295086893381 -0.7631917172573547 -1.2021845872498247 -0.7631423915434002 -0.3970238178941902 0.2777041734912753 0.24022446476299802
0.1293833167205848 0.34450062445651247 0.11397209234660223 1.7590019869335234 0.9390223551484914 0.2729794964087676 0.2767548554247386 0.42298523287445744
0.803082624236678 1.8083380047642519 0.7891708828196522 0.1558444464417376 1.2061753733474665 -1.2250699484300343 -0.012117768597125402 -0.8626889052898209
0.3714144004453277 -0.46036364287840226 0.3596682357189187 0.5111504964761129 -0.10613071616098285 0.1200928322739555 1.8611076489079488 -0.690892674860106
1.542324307137544 -1.1993920545580685 -0.33719992562739726 -0.6832044102886772 -1.1714550449785508 1.5576154680477925 0.1924298961451477 0.021839286459369667
0.11671398149483751 -0.3126667034337814 -0.17415033352786066 -0.24761691932422733 -1.2413636976077256 0.291090639276143 -0.47785712874441627 -0.5814066381978116
-1.1017659619934501 -0.6871784070716574 -1.0983301026872319 -0.010349334739511171 -1.4572237719762644 -0.05959443505879801 -0.6102303359400605 -1.400513733311474
-0.022910736078800474 -1.7011869865832712 1.3053054855407933 -2.3633655204716804 -0.4647826359983092 0.7338919448146101 0.9094572441619568 -0.16438559452778723
1.2425127940822427 0.01796061797909574 1.4851600385847643 0.19581871551634727 0.5266910927349555 0.1813965204783587 -0.508146266767572 2.3968755603392506
1.115997151550315 1.352873091325059 -0.9581804168285868 0.4729684705484535 1.272004096006403 -0.9726271630892662 0.31787570014116434 0.76885885957952
-0.5562840386750807 -0.845546857702662 1.1093330422825483 0.4796955673391344 1.6575747278783204 -0.25677298533398346 1.5375133357632358 -0.9260005869472349
-1.3744774151766184 -2.585631520625976 0.12856180199990147 -0.7409820096684335 0.98316649330857 -1.270661502112041 1.6901840784884876 0.08065824735340757
0.4735953687476814 1.1675310850364902 -0.9061824249390593 0.2646165208908585 0.7176934675970749 0.12342443317830477 -0.2351079616301149 -0.7994027231326406
0.07061500084315385 0.9594995478811725 -0.4750685791163021 -1.3749355563438679 1.6353776695032807 0.7549961900408344 1.3634375181114176 -0.24002313883506393
1.4760054221648378 1.5574003689389324 -0.3429906219313468 -1.0766061191154106 1.3196366858371464 0.3965521416849736 -0.36893506468716314 -0.6770216953817889
-1.3991522073574427 -0.24658043957537487 -0.45125907801336423 1.9763364612719592 -0.7789249268201679 -0.13676301979053576 0.851742291521458 -1.2329116187133653
-0.7004827639721666 1.1667101886526363 -0.11115059870649034 -1.4699707425481612 -1.0393456942145958 0.5525033818508888 -0.006405884999411301 -1.0954927665026386
-0.7467963595227252 -0.9339049530666554 0.12855192901715842 1.4807828675275232 0.9492306555517392 0.7337190930256855 1.3609764380147886 1.1021037789679182
-0.8399267944999093 0.05245139344912201 -1.4219939864340987 0.5327319708367728 -0.022430213387500772 1.1692183719408686 -0.3431463662611112 -0.3492949892168519
1.3697665154044683 -0.8095888003991 -2.393651912632358 1.6137621325026803 0.39911253651534845 -1.0018994444130245 -1.234450249042286 -1.558309186209912
0.8769497495574348 -0.31780492304244673 -0.5298204844981768 1.4155116336380404 0.6829851930829591 0.46274778430785035 0.29165690569311625 0.5437105794632597
-0.06562793897455316 -0.4001264242041569 0.2930788172922367 1.6253896989145133 -0.30769463456744467 -1.1492553391477938 1.030577476385212 -0.11606770345267527
0.5689040872787045 -0.059678149495205994 3.221571621787632 0.9271793599081546 -0.7502819614945877 -0.5675569056726651 1.2121758694183102 0.2958862282250419
1.3628522830167384 -0.4660162484894379 -1.045287617724064 0.850878855855186 -1.4123922833482299 0.265784734454091 0.41469726549927827 0.455402098432554
0.2634133335116708 -0.4215039394336236 1.1700258267134682 0.6216069546230858 0.8509442125927732 -1.1588125735309807 0.26000234018303614 0.5895017630558048
0.36893238869437406 -1.0733002197663508 -0.6152942995773274 -0.4047308251754426 1.2804686948859092 -0.611589318982411 -1.1496366081820342 1.2483789853426615
0.5164914670748753 0.6399245480246842 0.8190450248953406 0.5799938601660954 1.1545766449793518 -1.6757405430356163 -0.688724109691842 -1.2434432667865418
-0.5971858091917692 -0.41457506386847626 0.40977275622942577 0.44395884487147874 -0.7832244496286657 0.0434174850518564 -1.0301845642192589 -0.4037051705421298
-0.05720035129209158 0.20367825725186028 1.168843140251241 1.6034471175354836 0.72024731822425 -1.7957936809489314 -0.3278477116142297 -0.38432927894255053
0.7517254672576735 -1.4552932786179502 2.2437889587575737 -1.2082488646600007 0.36435004515213937 1.2552409111069969 0.5224669907633539 0.48398902029122415
00000000: 8788 5a35 a5dd e8bf dda5 274a 69de d53f
00000010: 67ac 301a 90ee b33f 7929 133b c115 e3bf
00000020: 3ed5 26a8 6bb7 d4bf 064b f83c cf81 f73f
00000030: a74d b3fa 5c8c f7bf 67ae edd6 bec8 e43f
00000040: a075 ed5e 98ea 01c0 fefe 7d67 cdd2 ed3f
00000050: 0100 143d 22e0 bcbf a6a4 86dd ae47 f3bf
00000060: d681 d031 9ef1 d73f 1cfa a4ca d34a cd3f
00000070: 0482 8878 2b94 c13f de42 9a00 91fc f3bf
00000080: ff86 cdfe 1554 d33f 5227 cb8b 3379 ee3f
00000090: 6f59 4609 116c e8bf 60e4 dfe7 253c f3bf
000000a0: 1dd8 bb97 a96b e8bf bbab 6596 d668 d9bf
000000b0: 2ce5 c6b9 e7c5 d13f 5697 eddd acbf ce3f
000000c0: 0541 fbec a18f c03f d381 df58 4c0c d63f
000000d0: 990c 4969 462d bd3f f2a7 7744 df24 fc3f
000000e0: df6b 329c 780c ee3f 1e78 63fe 7e78 d13f
000000f0: d1bd 43ff 59b6 d13f 54c0 78a7 3012 db3f
00000100: eea2 e254 dab2 e93f bf38 e9d4 f3ee fc3f
00000110: ae4e 954b e340 e93f 9580 5df8 b5f2 c33f
00000120: 8f49 5c8c 7e4c f33f 471c 3df2 e299 f3bf
00000130: eee7 995e 33d1 88bf 35f0 5ac3 259b ebbf
00000140: b845 cbe7 40c5 d73f c287 9b11 9976 ddbf
00000150: 58a8 74eb cd04 d73f c45e 3649 585b e03f
00000160: e431 03f3 612b bbbf 57c4 1963 67be be3f
00000170: 4a52 66d0 18c7 fd3f 653e 72f4 ca1b e6bf
00000180: aeb4 af40 5cad f83f e38b 16b9 b530 f3bf
00000190: a521 32ff ae94 d5bf dc87 d57e cfdc e5bf
000001a0: 61ac 2ea5 47be f2bf df24 7032 feeb f83f
000001b0: b3a8 5bf7 8aa1 c83f b0a1 71b4 095d 963f
000001c0: 539b 81ad f7e0 bd3f 4df5 7234 bb02 d4bf
000001d0: c779 8be1 8e4a c6bf a387 3745 e9b1 cfbf
000001e0: 46ab 3a2e a0dc f3bf 9437 f7a1 3aa1 d23f
000001f0: e188 0711 3695 debf ba94 1718 e29a e2bf
00000200: beb9 6958 d5a0 f1bf 0f7c 1c92 5dfd e5bf
00000210: 5010 f495 c292 f1bf 85b5 ee31 0832 85bf
00000220: 1578 b9df c950 f7bf bec7 336b 2983 aebf
00000230: 0a78 fcc4 0187 e3bf 11bf a216 8168 f6bf
00000240: 6631 be78 e975 97bf 5518 7cd8 0f38 fbbf
00000250: 65fe 3a01 88e2 f43f ed5b 972e 2ce8 02c0
00000260: 5921 57ab ffbe ddbf cdd9 b8f5 0a7c e73f
00000270: 0626 1914 461a ed3f 2016 3750 960a c5bf
00000280: f61d 7718 55e1 f33f da3b 58ab 4464 923f
00000290: 38c3 302c 37c3 f73f 3631 8b71 9610 c93f
000002a0: 3284 4c47 a7da e03f 0608 884d 0038 c73f
000002b0: 243d abf5 bb42 e0bf f9e8 0118 cd2c 0340
000002c0: 7667 45d4 1fdb f13f a312 2e41 5ea5 f53f
000002d0: 2449 3efa 69a9 eebf 22dd 428c 1d45 de3f
000002e0: d59b 8bf7 205a f43f d46d 1500 c31f efbf
000002f0: 6d29 1352 1358 d43f de48 24e5 7d9a e83f
00000300: 40ae 2c2f 14cd e1bf 2531 a248 b80e ebbf
00000310: 979c 0f01 d4bf f13f f17e 7009 55b3 de3f
00000320: a39d ee13 6d85 fa3f 275e a0f5 f76e d0bf
00000330: 7d45 6495 a799 f83f 577c a0fb cba1 edbf
00000340: 1563 b407 dcfd f5bf 35c3 2494 5faf 04c0
00000350: 1e5d 8d8f b674 c03f ad68 4ee7 1fb6 e7bf
00000360: e210 e993 1976 ef3f 1fb8 bd27 a154 f4bf
00000370: 4a3f d575 fe0a fb3f ba1a 89d6 04a6 b43f
00000380: 0abc 13f3 624f de3f d0b8 3413 35ae f23f
00000390: f057 ea48 72ff ecbf 4e48 cd21 7aef d03f
000003a0: 933b 7c4a 58f7 e63f 4135 0760 be98 bf3f
000003b0: 3383 1d87 0418 cebf 6004 0605 b594 e9bf
000003c0: af75 3a1f d313 b23f 40a5 5565 38b4 ee3f
000003d0: 6559 aa0a 8667 debf f1ab 096d bcff f5bf
000003e0: 2d01 72c6 812a fa3f 3c8f 1ac5 ed28 e83f
000003f0: ded8 e6db a3d0 f53f 1639 ca05 14b9 cebf
00000400: 9baa 8edc b79d f73f d1ef 35a6 1ceb f83f
00000410: d0e8 01f0 8ef3 d5bf ff62 8456 c739 f1bf
00000420: a15b 845b 3b1d f53f ad86 ec3b 1c61 d93f
00000430: e774 4bd1 a19c d7bf bc1c 0b67 29aa e5bf
00000440: 729f cb6c ed62 f6bf fb9e e7a5 f28f cfbf
00000450: f3ca 85c1 6de1 dcbf 10e3 30fb 129f ff3f
00000460: 066b d7f7 f3ec e8bf 05ba a65c 7381 c1bf
00000470: 658d d60c 7941 eb3f 9bb7 9388 01ba f3bf
00000480: 3182 55d4 5a6a e6bf dec4 824d d8aa f23f
00000490: d70c 609a 5d74 bcbf 9623 950a 0085 f7bf
000004a0: df3d 5ef3 28a1 f0bf b353 7f92 1bae e13f
000004b0: fcc6 30a9 0e3d 7abf 6522 526c 2387 f1bf
000004c0: b880 9d7a c1e5 e7bf 64cc dfa3 8ce2 edbf
000004d0: 49b3 7bbd 6374 c03f 0020 4860 49b1 f73f
000004e0: 5192 bef7 1860 ee3f 0fe0 9f76 a07a e73f
000004f0: c366 be3a 8fc6 f53f 8c71 7792 37a2 f13f
00000500: bd28 2d28 aee0 eabf 25ba fcb6 e8da aa3f
00000510: 6d7d 2dc4 7cc0 f6bf d0e1 08eb 230c e13f
00000520: 4c37 c423 f2f7 96bf f2e4 d552 1eb5 f23f
00000530: 214b 352d 1cf6 d5bf 8ff4 d55e d95a d6bf
00000540: d216 2d4b 90ea f53f 1381 9dc5 26e8 e9bf
00000550: 511c 56f9 3226 03c0 a8f4 e93d f8d1 f93f
00000560: 2373 f04e 0f8b d93f f426 3ab6 c707 f0bf
00000570: 8fcf 82e7 4ec0 f3bf 453f fd9c d5ee f8bf
00000580: d2b4 d2eb f80f ec3f 2168 be75 ea56 d4bf
00000590: 1975 b516 4af4 e0bf a153 d986 efa5 f63f
000005a0: 9a31 7ec3 03db e53f f683 f9e1 a89d dd3f
000005b0: f9af e6b9 81aa d23f ca15 a9ba 1366 e13f
000005c0: b47e 991b fecc b0bf c839 8edc ab9b d9bf
000005d0: bce9 daa7 cdc1 d23f 6d7d 01a1 9801 fa3f
000005e0: 53cc 27d6 44b1 d3bf 654a 0691 5963 f2bf
000005f0: 6319 d1ce 3e7d f03f 1979 73ee 9cb6 bdbf
00000600: 4b87 2d58 7634 e23f 4f44 bc68 228e aebf
00000610: 8065 aa57 c7c5 0940 989d 8a0c 74ab ed3f
00000620: 4cbc ec50 4f02 e8bf 2d75 8f19 6d29 e2bf
00000630: a16e 4286 1265 f33f e10d 64ca ccef d23f
00000640: 8d5f 0d32 3ece f53f f4ab aad0 35d3 ddbf
00000650: 209e 5082 7fb9 f0bf 8330 584b 663a eb3f
00000660: 94a7 a1a6 2899 f6bf 4a68 90f9 9d02 d13f
00000670: 85d7 4366 668a da3f c10b d3d7 4e25 dd3f
00000680: 73d4 3099 c3db d03f 3d2a c0a8 ebf9 dabf
00000690: f85a 5300 6db8 f23f 5c50 a244 34e4 e33f
000006a0: 4bce 795b ef3a eb3f 8225 980d 7f8a f2bf
000006b0: 0a0e feda e0a3 d03f ea49 28cd 32dd e23f
000006c0: e828 f897 969c d73f 39fa ead9 3c2c f1bf
000006d0: f431 c3ab 7db0 e3bf 93f1 731e 1ce7 d9bf
000006e0: 7663 01be cc7c f43f 8398 73c3 2392 e3bf
000006f0: bad1 265b e964 f2bf 60f7 303e 5cf9 f33f
00000700: 22fd f71c 1987 e03f 228e b50b 437a e43f
00000710: 5510 7ce9 9d35 ea3f e669 a948 4f8f e23f
00000720: 6696 2e5c 2579 f23f 42b5 ce50 d5cf fabf
00000730: 50fb e224 070a e6bf 3e79 54c4 24e5 f3bf
00000740: 70a5 036a 251c e3bf 8557 43d9 6588 dabf
00000750: bc04 b382 b739 da3f 4e8c df5b d269 dc3f
00000760: a1a5 92b8 2c10 e9bf 129d be0c d13a a63f
00000770: d3a6 42cf a27b f0bf 5917 2d36 4ed6 d9bf
00000780: a30d 3d4c 5d49 adbf 30c9 e60e 2112 ca3f
00000790: 4187 58dd 94b3 f23f cce2 2a2a b8a7 f93f
000007a0: 67c1 991a 440c e73f 3ba0 a027 92bb fcbf
000007b0: 4be6 dcf7 74fb d4bf 6806 fdd4 d998 d8bf
000007c0: 1525 2e91 220e e83f 1c0b dc9a e148 f7bf
000007d0: d9ea 27a0 47f3 0140 244d f2c2 fc54 f3bf
000007e0: 395f 0eda 8251 d73f 89e4 5c7e 7715 f43f
000007f0: 322e d2b1 0cb8 e03f 6287 7115 adf9 de3f
