models/latest_3.0_turbo/weights3.npy (npy, 5248 bytes, 1 tensors)

array f8 [10, 64]
000000 89 a6 b1 66 8c d9 ea 3f 66 39 21 14 f5 85 cf 3f
       0.8390562062970314 0.24627555354022518
000010 67 2b 3a 7d f7 98 e0 bf 01 08 ed 50 c0 a4 c0 bf
       -0.5186726995319589 -0.1300278086801541
000020 24 03 bc 8b eb fe b6 bf 98 a5 40 e1 fa f2 e2 3f
       -0.08982727204785285 0.5921606444800771
000030 18 38 2b d6 bb 93 e9 bf 2d 97 f5 e3 34 0c d3 3f
       -0.7992839034066064 0.29762003194479086
000040 ce 0d 21 e2 7b c5 df bf ae be a9 6a 0d 83 f1 bf
       -0.49642846186563083 -1.0944952169919975
000050 c6 d7 dc 0e 61 5b dc 3f fa 18 52 ad 66 95 ec 3f
       0.44307733966286056 0.8932374367875859
000060 60 04 05 c2 7f be f3 bf 74 04 34 be d0 5d d4 3f
       -1.2340085581675098 0.3182260377362305
000070 2b 10 36 49 f5 d9 8b bf 55 b5 91 a2 ee b3 ed 3f
       -0.013599315926292451 0.9282143759898341
000080 3e ba b3 9e 4e 16 ee 3f 59 4d d6 8e f6 29 f1 3f
       0.9402230357789632 1.0727449016165649
000090 f2 a9 d1 1a af 47 f0 bf 6f 44 fd 81 87 10 ca 3f
       -1.0175009772889294 0.203629435035086
0000a0 2a d9 97 50 e5 43 e3 3f 07 92 09 9e 6c 7d dc 3f
       0.6020380567631822 0.44515529092157674
0000b0 42 73 23 60 4b a2 da 3f a3 ff 02 7b 77 3a fd bf
       0.41615566624186695 -1.8267741017479942
0000c0 8d 4b 5b 99 9f ba fd bf a4 dd 2e d6 74 a5 d0 bf
       -1.858062361764243 -0.2600986568099535
0000d0 f7 1b af a8 92 1a f4 3f 08 af ac 8e ec 97 e0 3f
       1.2564875210971402 0.5185454165088865
0000e0 31 f2 87 86 ee 0b d3 3f bd 4d 02 7c 2a 88 e1 3f
       0.29760325563237006 0.5478718206454044
0000f0 b5 7a a6 92 35 03 de 3f d3 c1 e0 99 ab 28 f3 bf
       0.46894587823218653 -1.1974292765481678
000100 c4 e8 7a 12 c3 71 f4 3f d2 e1 60 82 86 b9 f5 3f
       1.2777739259604894 1.3577942936809575
000110 b6 86 9b a7 1f 0b ea bf d9 ae 8e 80 4b 30 fd bf
       -0.8138578675827464 -1.8242907544871996
000120 f4 26 1e 5d 84 0e 05 c0 b3 86 d2 e9 be 23 fd 3f
       -2.63208840130107 1.8212269910513157
000130 5d a5 55 d8 68 a8 f2 bf e0 77 e3 1d 5d 21 f2 3f
       -1.1661156130379233 1.1331454436799433
000140 be e7 24 87 e3 44 bb bf f8 7e 40 94 7c 19 dd 3f
       -0.10651990937631603 0.4546805808804346
000150 98 8e 3b e8 1a fb eb 3f b8 7b 22 f5 64 23 fa 3f
       0.8744024787706222 1.6336412025045615
000160 f0 f0 d9 05 96 dc dc bf ea d4 83 3e fa e9 db 3f
       -0.45096350261134344 0.43615585427262593
000170 71 87 6d 30 77 62 d8 3f 7a 0c 83 58 24 79 d3 3f
       0.3810098622253611 0.30426891940823675
000180 7b d0 e9 7b 9a 68 f3 3f a9 7b 07 c2 fa 3b f5 bf
       1.2130379524578803 -1.3271434382693121
000190 79 1c 68 23 c5 10 c3 3f 59 96 37 54 36 f8 f0 bf
       0.14894928196756377 -1.0605986871463726
0001a0 c7 6b 62 c5 76 9f 7f 3f df a1 50 26 25 ab bc 3f
       0.007720436047885699 0.1119864672224433
0001b0 a1 75 74 33 0d 4c e5 bf 38 49 62 52 af 06 b1 3f
       -0.6655336384753135 0.06650825272871408
0001c0 78 c4 45 e4 38 04 b3 bf 19 49 42 2a 25 1c e6 bf
       -0.0742831761651973 -0.6909356904382405
0001d0 52 c7 04 30 5f e1 f3 3f f9 56 10 6c 61 8f 91 3f
       1.2425224185685306 0.017148515911762783
0001e0 78 6b 7a e4 f0 78 e1 3f 57 5d 74 5e 46 5c 9e 3f
       0.546013303991784 0.029648875727699444
0001f0 59 cf 76 6c 0e 30 e6 3f 21 0d f3 6f d7 63 f2 3f
       0.6933662527503471 1.1493753788971122
000200 fd cd 4c 84 08 12 f9 bf cc 84 ec ba 1a 78 fe bf
       -1.5669026535005053 -1.9043223668780227
000210 0c af 76 85 6d 63 ac 3f d1 d0 77 db 42 db b4 3f
       0.055446074048942945 0.08147065981012537
000220 1a 51 f2 8a 6f 58 ec bf 59 52 dc 69 de 12 04 c0
       -0.8857953752326779 -2.5092132826196516
000230 d2 5a 27 4a 88 78 f0 bf d8 8c f7 69 04 4a f2 3f
       -1.0294268509512006 1.143070615705076
000240 b3 8c 9e 1e 8b b3 e7 3f 63 02 da be 5d cb e1 3f
       0.7406669233354449 0.5560749747820178
000250 07 c9 ec f4 f8 21 e8 3f 50 35 34 45 b8 65 fb 3f
       0.7541470321359903 1.7123339370039794
000260 e3 30 b1 c6 68 a8 e4 3f 81 0f 92 d4 eb 54 e1 3f
       0.6455577736574266 0.5416163589256798
000270 ae fb 27 cc 71 ed c7 3f 8b b4 99 f0 93 ef c4 3f
       0.18693373173297573 0.16356133697573613
000280 ac f9 72 55 69 25 f3 3f a8 7b 2e a4 12 df e9 bf
       1.1966336572510086 -0.8084805685683607
000290 e1 06 62 dd b2 d7 ee bf 8a a3 a4 26 c4 ef d7 bf
       -0.9638304065594775 -0.3740091683744643
0002a0 ee d7 f9 66 aa 46 ec 3f 0a 63 a8 f3 54 b5 f0 bf
       0.8836261759995503 -1.0442704694634721
0002b0 1e ad 9f 2e 7a d8 e2 bf ae 6d 0e 70 bc 69 e4 bf
       -0.5889254484767752 -0.6379072369194796
0002c0 10 f7 91 d0 43 86 d6 3f 1b 76 95 bf 24 45 a3 3f
       0.3519448792284132 0.03763689840955583
0002d0 8c 37 dc 72 2e cb db 3f 66 4a 60 b9 2a 81 cd 3f
       0.4342762109453069 0.2305043606907759
0002e0 28 2a 94 c0 3f 30 f6 3f 02 d8 6a e8 cb 90 a4 3f
       1.3867795488937507 0.04016720974088629
0002f0 88 b0 20 3d cf c0 c3 3f 6c 49 c0 53 72 6c ca 3f
       0.15432157978773753 0.2064345272961633
000300 aa e9 8f b9 d2 d9 f9 3f 49 3e f2 24 94 89 d0 bf
       1.6156794785043567 -0.2583971367648457
000310 52 3e c5 bc 1d c6 e2 3f fc eb 9e d7 ee 2b fb 3f
       0.5866841017650108 1.6982258246123356
000320 99 0c 08 05 2e 30 f7 3f 0a ae 1b c1 56 f4 d7 3f
       1.4492626377621376 0.3742882619687583
000330 34 24 11 2d ac d7 f0 3f 8b 46 47 8e 06 e5 a5 bf
       1.0526544342449258 -0.04276295172497865
000340 db 74 01 c9 7f 67 e1 3f 73 4b d0 e4 3c 0e ec bf
       0.543884174908864 -0.8767380208031298
000350 84 94 54 d9 eb 3a de bf 8e ee f0 1d ba 49 f1 3f
       -0.4723462698332883 1.0804997605872901
000360 6d 8b e6 fd d3 03 eb bf 27 0a a9 24 70 eb a4 3f
       -0.8442172965045366 0.040858749842773094
000370 3e 65 b6 65 97 8b da bf 72 b6 5e 4c bc cc ca bf
       -0.41476998265132525 -0.20937303284647474
000380 d2 d5 c5 ec ec 94 d6 3f 51 e7 2c 60 4f 14 d7 3f
       0.352839690421516 0.36061462776307446
000390 47 45 29 e6 e4 d7 f4 bf 48 ad 8c 4d 05 12 e1 3f
       -1.3027085295364758 0.5334497942580265
0003a0 51 00 e8 ba 6d 0c d5 bf 03 81 76 49 f9 37 e8 3f
       -0.32888358357013653 0.7568327364752182
0003b0 cb 0f 4a 40 56 03 f9 3f a0 f5 86 2e 23 e7 e4 3f
       1.5633146773625295 0.6532150181516734
0003c0 9e 49 b0 3d 1a 58 fb 3f 38 0d c0 02 e3 d7 d7 3f
       1.7090094003402565 0.372551682172531
0003d0 4b 36 0f 55 e6 8f e4 3f e2 89 3d e6 50 f9 b6 3f
       0.6425658856694069 0.0897417604551616
0003e0 81 b3 ea 12 d1 01 e3 3f 4d 79 d8 8d ac e2 ef bf
       0.593971764513853 -0.9964201708242314
0003f0 ae 74 c6 d7 ae bc fd bf a8 7a 4c 64 21 5d ee 3f
       -1.8585651806563805 0.9488684615096945
000400 42 35 a1 51 0f d4 c5 3f b7 ee af c3 03 40 e1 3f
       0.17053405271364325 0.539064295007356
000410 2e 50 59 bd bd 7c ef bf 6c 76 c7 03 e3 1a c9 3f
       -0.9839771936626727 0.19613301929978222
000420 34 b3 01 93 6d 33 a3 bf 3c 6f 1e 7f 3c 77 f2 3f
       -0.03750173968805939 1.1541104283887327
000430 89 32 15 24 33 9a e0 bf d8 2a 65 c3 dc 28 f1 bf
       -0.5188232140295251 -1.0724761612533964
000440 aa c4 f3 ee 37 63 d3 bf 76 eb 7e 73 fa 88 dc bf
       -0.30293081603219696 -0.4458604934586029
000450 74 43 96 33 63 44 f5 bf 50 f7 ea 38 cb 35 f1 3f
       -1.329196168433751 1.0756332610466934
000460 ec 4d 7c 3b db de d5 3f 84 f5 8d 98 23 56 f8 bf
       0.34172707375657185 -1.5210300406609756
000470 c4 83 9e 21 c3 7d f0 bf 90 2c 0a de 71 22 cd bf
       -1.0307036698579717 -0.22761367170128155
000480 8c 97 a9 12 6b c6 e0 bf 7c cb 7a e2 51 c9 c1 bf
       -0.5242209782124845 -0.1389562946183921
000490 cc 0b b0 56 2a 8e db 3f 1f 12 ac 53 8c 60 f4 3f
       0.4305520865020156 1.2735713261073511
0004a0 f4 a5 8c a8 4c 48 02 c0 cb 0f 84 1b e4 03 f9 bf
       -2.285302464287037 -1.5634499621237292
0004b0 0e ff 23 c8 d2 76 a4 3f 70 81 68 66 3b ac e2 3f
       0.03996905034182251 0.5835244178925176
0004c0 de fb 05 e3 55 98 f6 3f b2 42 a5 eb b6 28 e3 3f
       1.4121912830448689 0.5987200357868316
0004d0 55 c8 09 8e da a0 bc 3f 74 df 1b c4 a6 ba f1 3f
       0.11182943313340961 1.1080691967490255
0004e0 01 8f 3c b7 c8 12 e8 bf 06 0f af 0c 81 39 c0 bf
       -0.7522929743613248 -0.1267548858578424
0004f0 8a 7c bf 42 9d 55 bf bf ad ca d8 de e7 cd fa bf
       -0.12240012054052066 -1.6752699570612706
000500 97 0f b8 36 65 63 00 40 49 cb 1a eb af 60 e1 3f
       2.0485328936501435 0.5430526344192482
000510 07 41 89 7d 41 13 d4 3f 9a 1b 8a 0c 10 f9 fb 3f
       0.3136752820910406 1.7483063211272794
000520 1b a3 47 a5 4b 20 f1 3f e1 39 75 23 df 6e f0 3f
       1.0703846412890872 1.0270682702135832
000530 ae 18 e0 9c 51 e2 d4 3f a0 49 1a 81 e5 11 e3 3f
       0.32631340331898684 0.5959346314942202
000540 d6 c4 e4 e2 8e bb c5 3f 28 a8 4a c6 a2 f3 ba bf
       0.16978632048407033 -0.10528008786300858
000550 5e c4 7c 04 d5 5a c9 bf 95 85 9c 23 65 4c ee 3f
       -0.19808447569951942 0.9468255706344048
000560 fc 34 f2 ef 5c e9 b8 3f 3e cd e4 7d 73 34 aa bf
       0.09731083734569163 -0.05118142043866179
000570 d4 aa 7a 05 96 4e 00 40 16 d4 44 d0 24 04 de 3f
       2.038372080617913 0.46900291765933966
000580 24 b9 1b 7e 0e 2c b2 3f 3c 32 50 71 62 57 e4 bf
       0.07098475054565206 -0.6356670582914101
000590 7a bc 16 23 68 ef db bf eb 22 4d 6e 06 15 da 3f
       -0.4364872305549806 0.4075332715188284
0005a0 0e 2c e8 11 f9 c7 dc bf 00 8a 02 89 8a 0d e3 3f
       -0.4497053789970672 0.5954029727911916
0005b0 a1 0d 33 b9 93 2c e7 bf d5 e8 ad 0c 72 88 ec bf
       -0.7241915337730697 -0.8916559455531351
0005c0 6e fd e5 8d 8a 09 f3 3f 1d 4a 18 17 24 69 f1 bf
       1.1898294012933905 -1.0881691839355263
0005d0 eb e0 59 e7 2b 5d f3 3f 01 b9 cc 62 1d a0 df bf
       1.21024694797057 -0.494147631153183
0005e0 97 e7 43 9a a9 52 c7 3f 58 fd af e4 a8 64 77 3f
       0.18221015961154016 0.005711230983251291
0005f0 d6 eb a3 99 00 3d f8 3f a3 31 25 0a 31 db f8 3f
       1.5148931504797836 1.5535135647106493
000600 5c 8d 27 a7 c5 6c b4 3f c0 0b 3b 91 32 3b f2 bf
       0.07978473025246074 -1.1394525216171445
000610 21 75 e5 75 f1 4b d4 3f b9 c6 58 8d 8a e7 e7 3f
       0.31713520539581636 0.7470143089942304
000620 db 68 b3 b3 26 44 eb bf 65 bb fd 72 d3 3e d5 3f
       -0.85206923578087 0.3319595931015356
000630 12 24 e3 db f2 59 e6 3f f2 e5 d2 f3 82 61 e0 bf
       0.6984800619767404 -0.5119032633003242
000640 9d 71 d0 ed 58 0f e8 bf a5 87 4e ec 5f 00 e7 3f
       -0.7518734593209505 0.7187957396856645
000650 5b 1c e7 2d d6 37 da bf 03 33 28 aa 4e 2a ed 3f
       -0.40965799791996965 0.9114144633655034
000660 17 9e cb e1 55 18 d2 bf 42 68 83 5c 7f c3 fb bf
       -0.2827353196175592 -1.7352288831521183
000670 1d a3 95 cf af 34 f0 3f c2 5b 57 c2 f8 58 a8 3f
       1.0128629788179702 0.0475538003190006
000680 66 d3 51 7a 82 4b f2 bf eb 9d cf f6 84 39 d9 3f
       -1.143434980212271 0.3941357050193505
000690 cd 1c 16 da 25 95 f4 3f 03 f2 ea 67 c5 5b d4 bf
       1.2864130515097714 -0.3181012644597844
0006a0 d9 cf a9 12 29 46 f1 bf 70 a7 ff d4 e7 b0 ec 3f
       -1.0796290139232865 0.8965949211244446
0006b0 5a 03 09 e3 fd 5d e5 3f 26 a3 3f 51 a6 0f f1 3f
       0.6677236017495531 1.0663207219860822
0006c0 e8 3d 3b 4b f5 4d ec bf a0 18 a0 f9 56 dc d2 3f
       -0.8845163792956869 0.29469847085455037
0006d0 11 19 47 1c b7 46 f5 3f 37 c7 76 73 ea 16 d4 bf
       1.3297644714926415 -0.31389867091921836
0006e0 36 d0 30 2e e9 18 d9 3f a8 85 75 99 35 e7 dd 3f
       0.39214543829735093 0.4672369001983392
0006f0 45 cb db 1d 6d 9b f5 bf 7f 4f bc 5d 1c 6a e3 3f
       -1.350445858607331 0.606702979161568
000700 49 93 5d 26 02 d3 b3 3f 78 ae 2e ea 04 15 a0 3f
       0.07743848263414778 0.031410363756859405
000710 0e 3a 2a 82 a8 83 d7 bf 8e a6 1c a4 52 36 fe bf
       -0.3674107810155939 -1.8882624064084754
000720 cf 98 4d 83 78 cc d2 3f 9d b0 2e fa 08 87 b1 bf
       0.29372990439004537 -0.06846672161072083
000730 8a f4 7c c7 c1 5c de bf 1c 93 1f 06 38 ce f3 3f
       -0.47441143494854343 1.2378463973229321
000740 cf 40 a0 68 69 2e d0 3f 56 df 19 48 de a3 fa bf
       0.252832748578851 -1.6650069061706367
000750 64 b8 f3 49 f9 a5 e7 bf 08 b0 74 5c 7a 2e c8 3f
       -0.7390104717612869 0.18891839518016718
000760 25 48 8b 9c 75 64 e1 3f c2 26 30 2b e5 57 dc 3f
       0.5435131127835616 0.44286469667040873
000770 4f 3d fe 1e ae 1e f1 3f 97 4f 81 50 d3 04 93 3f
       1.069990273539435 0.01857309512008917
000780 27 91 ed 1f 9a 74 ed bf fd 05 7b 43 e3 b0 fe bf
       -0.9204836486428903 -1.9181854854545002
000790 27 16 36 a7 11 66 a8 3f 12 87 0d 0b be 5a e7 3f
       0.04765372434762254 0.7298269477725816
0007a0 3d 83 dc b5 ae ff f0 3f bf 20 89 91 e0 7c e1 bf
       1.06242247619248 -0.546493801354721
0007b0 76 7d f9 25 ad eb f1 3f 9a 7f 4d 61 42 0a f5 3f
       1.1200381739980378 1.3150047112357925
0007c0 a6 a8 17 50 81 c8 c3 bf 5e 5f b9 22 5c 6c 81 3f
       -0.1545564309192901 0.008507461366363319
0007d0 78 6e a9 37 ab 40 d9 3f ca eb 83 90 87 24 ec 3f
       0.39457207141615624 0.8794591734471109
0007e0 32 31 3b d2 81 4a eb 3f ff 47 b6 73 ab 46 ed 3f
       0.8528451067045693 0.9148766765595154
0007f0 3a 18 89 17 84 33 d1 bf 77 6d dd 31 90 92 df bf
       -0.268769286140358 -0.4933205115282457
