models/latest_3.0_turbo/weights1.npy (npy, 802944 bytes, 1 tensors)

array f8 [128, 784]
0.8521628510528866 -0.3954592461647523 -0.005514411593019277 0.7205655424560352 0.4530069972193488 -1.1146395108040028 -0.21747349525034074 -0.613717086749908
-2.8481819648727513 1.8840215971336887 0.5032714204633436 1.7834992158980787 -0.40041630510387516 0.4939143781918698 -2.4867443414547163 -1.4982647753368894
0.6297022444086026 0.8390454891933687 -0.13489308131086328 0.16159114440990888 -1.2859732884132453 -0.7634778270385915 -1.2093498347370992 -0.8120018782651461
0.8486885276052942 1.2462648263041176 -0.14843310793261244 -0.706084595272318 -0.17363851874729208 -2.127059949219807 1.117568019384444 -2.537656386259676
0.662290135513289 -0.8501578129936672 0.3215248012461423 -2.1172500655242454 -0.7976312339436656 -0.574726387443566 2.1167404795417153 -0.24731690471705553
0.08450230357283138 0.04637883129211866 0.6523411442573157 -0.4774885809629273 -0.3863501458208373 -0.289660572109228 -1.825410664617314 0.39841262396819577
0.5917132225074079 -0.5762037762601687 1.3722393405630604 -1.268357631516608 0.5670098924628024 -0.0028556532400795696 -1.4092633345479724 0.04095659958345278
-0.5240966910709716 -0.6587308063482881 0.49711557678473417 0.2870376385609794 -0.1908736017270911 -0.20612831923164746 -0.11580865940417047 -0.6520369471050603
-1.1714358131872025 -0.590253708032933 0.41563489157593264 -1.8956801691564784 0.4372282235383704 0.5218958529999442 -1.3958018209783494 0.05458452137482606
-0.13590012751558916 -0.3068046821002931 0.2948874481933923 1.1578334513236175 0.37141756573776347 0.45194033985477594 0.15008276345523477 0.5447143993481841
0.8239566651421112 0.5765295297539957 -1.5930561701115336 -1.8538816799109552 -0.6298657285538289 0.3436416359884931 -0.5814119616987529 1.0461195494143425
2.1607936424526346 0.855657150803594 -0.8778432051175725 -0.14392232797317678 -0.22904667834941025 0.23975350092466702 1.3903066834717435 0.6489740753358889
-1.75594782439351 -0.7934246587438745 -1.2870905255483662 -0.002375019720597008 -1.1003592222258753 1.2123038120919898 -0.12532477027688418 1.3927633507879282
-1.8228794921490619 -0.5456923396057118 -0.9724563009396355 0.5636325940405356 -0.13968360365993102 -0.2531873305221238 0.7502318120825988 0.4990759106324097
-0.4616832381533706 -0.578019310628917 -1.2853746236476589 -0.040407042629838734 -0.4316712700609934 0.6732640184552046 0.460530485157603 0.39963222120239905
0.2024771506602891 0.09946287764115036 1.5821452700440284 0.012688981161751793 0.7459113990678441 1.5664932201257311 0.7021209683196146 -1.035772581561843
-0.41989452475872674 1.9695799815337847 1.2883701976743687 0.10651937053668599 0.3140836871650231 0.943466886194985 0.5440900588182398 0.8553878731461809
0.8609424460532862 0.6287639923684418 2.059582530661718 -0.4151007205306435 1.527049964608243 0.31996846931331857 0.845550568872876 -0.9897702527496318
1.0773317210333815 -0.561853142241001 0.7538793883860317 0.7286551886310463 -0.5186615504267137 -0.26198080358603243 -0.8500517317362232 0.5936091852241064
0.43388065067379245 -0.25117699334053023 0.5192469154208775 -0.7692551407077518 0.180093998203315 -1.0017629443768254 -0.9067838435961709 0.36775908435767457
0.3640134042151327 1.490765291436394 1.08745190813772 0.7830693360948936 0.296596540697766 -0.07750934948957586 1.4236012619070249 -1.0037147183526312
-0.5046109682156606 -1.0065449888110214 1.860486527290106 -1.3059329189798 0.938652902447167 -0.7929329866859929 -1.8148649159894688 0.41240328702933027
0.35297734021628857 -2.379948874768681 -1.272347885133608 -0.35165628534238386 -1.1995549779752106 0.25986218377137377 -0.5699884013467436 -0.5840906353870418
1.7346692763934874 -0.5403106853611118 -1.7572219911593463 -0.35468468660273345 -0.8253063974534208 0.6521694495960069 0.5529648134954739 -0.9318021345832627
0.4978790754046602 0.3329664435142282 0.8109297592844952 0.7925862552693999 2.5103856556232595 0.2752751886984742 -1.6312376869951748 -1.1571928763707549
0.25504824963346695 1.1646563995392931 0.619231381681824 1.2718828020708166 -0.1227464036741316 0.22873895479253148 -0.2812801960600959 -2.0312780899056664
-1.2142903915599537 0.6267504958103561 -1.8586406816751722 0.06277029174843701 -0.9528100881944807 1.7242742764329075 0.12748199741866315 0.9633006867560997
-0.2956462700669333 -0.5483743844161121 -2.075060023949141 0.7383908285245948 -0.5321061303347412 0.15615292878914735 0.5482611466338672 0.12286550353291924
-0.21560658611801847 1.0130682879592527 -0.3553431735457821 -1.1349732119008487 -2.1585620486803188 -1.9455055144848192 0.5713462361973431 0.8959736203852907
-3.2965815595164316 0.13747384335267623 0.01692281417501518 0.47534796926451933 -0.7220167782575869 -1.2815004792271933 -1.9793478763071028 -0.5388886262351721
-0.38497915745487576 0.18383485823222717 0.891646635836544 -0.9946331849071365 -0.09791592684761523 0.845686528354362 -0.8080119800648139 0.16138846042038424
-2.4587359808436524 -0.5559650528698006 0.5935792100169769 -0.8923476106896403 0.6722830944904897 -1.0882038640606413 0.8344855238728205 0.44932090699208743
00000000: af6c 0407 eb44 eb3f 4f6b 4b4c 344f d9bf
00000010: 29e1 2d97 4796 76bf 3724 ef77 df0e e73f
00000020: 1aa4 7a0f 11fe dc3f dbb8 5b3d 90d5 f1bf
00000030: 4f6b ece6 2bd6 cbbf c0ca 1204 92a3 e3bf
00000040: e17b 41a0 13c9 06c0 9f59 8ad4 f324 fe3f
00000050: 4dd9 7caa cc1a e03f 0f95 4b79 3689 fc3f
00000060: 0c34 cdb5 6ba0 d9bf aced 560d 4b9c df3f
00000070: 0f7d a037 dae4 03c0 b321 2d7c e4f8 f7bf
00000080: e77c 3e52 8526 e43f 8e23 feec 75d9 ea3f
00000090: efe9 572e 2d44 c1bf ad29 48c4 04af c43f
000000a0: 3f3b 14ba 5893 f4bf b942 4b0d 696e e8bf
000000b0: cbe6 5936 7f59 f3bf 5e0f ee5c ebfb e9bf
000000c0: a4c3 d1d7 7428 eb3f d419 f262 b3f0 f33f
000000d0: 306b 1b28 dbff c2bf 96ed 9cb8 3e98 e6bf
000000e0: 6c39 ac77 c939 c6bf 723e b401 3804 01c0
000000f0: a5fc e400 8fe1 f13f 4ec4 9bca 1e4d 04c0
00000100: 87c6 0f15 7b31 e53f d7e4 6728 7e34 ebbf
00000110: 0d20 8dc2 dc93 d43f 3f0b 67cd 20f0 00c0
00000120: 23cc 01f0 3186 e9bf a6fc c697 2864 e2bf
00000130: 1902 eea1 15ef 0040 5efc c090 14a8 cfbf
00000140: 7f2f 4866 f1a1 b53f 16b1 4057 f7be a73f
00000150: d473 0d89 fadf e43f 09c0 dc43 2c8f debf
00000160: afbd 46f6 f5b9 d8bf 1096 097f cc89 d2bf
00000170: d9d0 24d0 e134 fdbf d071 90a9 977f d93f
00000180: 7bf6 6891 50ef e23f e1cf dbe6 4270 e2bf
00000190: 160c 203d b1f4 f53f 01ef 2f5f 314b f4bf
000001a0: dc5b 14ee f124 e23f 66a3 cb28 bd64 67bf
000001b0: ff5d d5b5 578c f6bf 1258 886f 43f8 a43f
000001c0: b3ee 826c 66c5 e0bf 8146 c4a0 5214 e5bf
000001d0: d8d8 27da bdd0 df3f 58ca 951d d35e d23f
000001e0: 0036 8bd2 8b6e c8bf 518f f0aa 6962 cabf
000001f0: 2d09 bce4 a2a5 bdbf 8332 7396 7cdd e4bf
00000200: 0309 b07a 33be f2bf 8503 8bbe 5be3 e2bf
00000210: eb49 9916 c399 da3f c33e a3ba b454 febf
00000220: 1312 3f16 8cfb db3f 68b0 91ee 5eb3 e03f
00000230: c2c9 4c4a 3455 f6bf f16a 589c 80f2 ab3f
00000240: d2d0 99e5 2c65 c1bf 0e59 f81a b0a2 d3bf
00000250: f874 7f9a 6fdf d23f 5b65 7a5e 7c86 f23f
00000260: 613b 802e 4ec5 d73f 41d7 da2c 97ec dc3f
00000270: 8de4 5d78 e935 c33f 238b 5be4 4c6e e13f
00000280: 3169 435e da5d ea3f ed17 6f0e ee72 e23f
00000290: ec1e 7577 287d f9bf ffef 1dd6 7fa9 fdbf
000002a0: 2c51 202c dc27 e4bf 3554 077d 39fe d53f
000002b0: a9fa 1f42 ed9a e2bf c00d 47da e7bc f03f
000002c0: 07e9 5d2d 4e49 0140 7c47 e91a 8b61 eb3f
000002d0: 8bdd 1fa2 4a17 ecbf aa8c e7fd 0b6c c2bf
000002e0: af52 62cc 6651 cdbf 7256 c922 3eb0 ce3f
000002f0: e6bd 8e38 b23e f63f 9b9f b047 65c4 e43f
00000300: 250a f4be 5c18 fcbf 08a3 241c bc63 e9bf
00000310: 068c 233c ec97 f4bf 88cc df00 c774 63bf
00000320: 7dfe 9445 129b f1bf 0505 9cae 9865 f33f
00000330: 25e5 db5e a40a c0bf 7539 2b39 c248 f63f
00000340: da44 b5af 832a fdbf a418 09c8 4f76 e1bf
00000350: 5365 2aad 5c1e efbf cca3 cb38 4709 e23f
00000360: cbdf c0fe 26e1 c1bf fda8 16a2 3834 d0bf
00000370: d808 2a25 e601 e83f bdce 9816 dcf0 df3f
00000380: 0fba 3eda 378c ddbf fb71 735a 227f e2bf
00000390: d0cc 3afb e490 f4bf af18 3f5d 3bb0 a4bf
000003a0: 5a39 e288 80a0 dbbf 2cd6 9afb 608b e53f
000003b0: da06 24db 5479 dd3f 407f 1f06 9393 d93f
000003c0: 6ef8 2272 c5ea c93f a081 a22e 6676 b93f
000003d0: 57c3 058f 7750 f93f 4fd0 df38 aefc 893f
000003e0: 48b8 1695 81de e73f 2b88 dd31 5b10 f93f
000003f0: 5898 9864 c677 e63f fd6c 3e45 8692 f0bf
00000400: a5ec e648 8ddf dabf c5b3 784c 6683 ff3f
00000410: 8370 8211 2a9d f43f 6d77 d87c da44 bb3f
00000420: f62c 2577 f219 d43f 1120 a277 e130 ee3f
00000430: 707f 168e 2f69 e13f dbd9 9163 565f eb3f
00000440: fe2f 312c d78c eb3f c8fe 03aa d51e e43f
00000450: 08d7 e467 067a 0040 da68 ce9c 0291 dabf
00000460: 149b 95f1 cb6e f83f a6eb dc07 5d7a d43f
00000470: d78a 0d11 c00e eb3f 57a0 43aa 32ac efbf
00000480: 2082 cc2f c03c f13f d58e e270 b3fa e1bf
00000490: 3ce3 c7aa c71f e83f cd64 a7af 2451 e73f
000004a0: ffcf 981b e098 e0bf 5b3c e521 4bc4 d0bf
000004b0: 47e3 76b0 9f33 ebbf 5b91 a4b0 d8fe e23f
000004c0: 80b6 4059 b3c4 db3f 96ee f9aa 4813 d0bf
000004d0: 6f02 09b5 ab9d e03f 5bd4 f3f4 bc9d e8bf
000004e0: 829b 3ef4 510d c73f 1217 c794 3807 f0bf
000004f0: eb2c 198d 5f04 edbf 28e1 0766 5d89 d73f
00000500: 4537 9ae0 fe4b d73f 15b3 cbb4 2cda f73f
00000510: f3c9 d6f8 3366 f13f 61e5 a06c e70e e93f
00000520: 34d5 990e 70fb d23f 7624 3119 a7d7 b3bf
00000530: c5f5 e61d 12c7 f63f 186a 1d2a 370f f0bf
00000540: 950d b6e6 c525 e0bf 1c56 0eeb ce1a f0bf
00000550: fec0 5585 8dc4 fd3f e39b 9cea 19e5 f4bf
00000560: 40cb c9cf 7109 ee3f d88c b7ff b45f e9bf
00000570: 2652 4dcb af09 fdbf ae72 a3c1 d064 da3f
00000580: 4850 1d45 2e97 d63f 9444 baa2 220a 03c0
00000590: ac89 bc74 895b f4bf d39d 3e5d 8981 d6bf
000005a0: 3e85 828f 6031 f3bf e9f8 30ff 94a1 d03f
000005b0: 5646 dc50 583d e2bf fb63 1cd8 deb0 e2bf
000005c0: b6c6 3792 34c1 fb3f 31c5 69a2 394a e1bf
000005d0: 5976 7dce 941d fcbf ae72 5666 27b3 d6bf
000005e0: a1be 47f6 e868 eabf ace2 2e77 92de e43f
000005f0: 58a8 b943 e3b1 e13f 6d19 ccb5 52d1 edbf
00000600: 6b72 8e32 40dd df3f 56c7 637c 524f d53f
00000610: a55c 6ff7 22f3 e93f 8c84 b4d9 dd5c e93f
00000620: cffe 1913 4515 0440 1e0d 37d3 1b9e d13f
00000630: f359 5ab0 8c19 fabf 34d3 72ad dc83 f2bf
00000640: 6cfa c4e4 b552 d03f f092 b1bf 6ea2 f23f
00000650: d85e 9f54 bed0 e33f f0d2 f3c7 a159 f43f
00000660: f964 7bed 4e6c bfbf ccdb 136d 5147 cd3f
00000670: 10cc c5a6 7e00 d2bf 3acf 29ba 0e40 00c0
00000680: 758d f9c2 bb6d f3bf 833b 480e 570e e43f
00000690: cef5 ec02 febc fdbf 644c 38be b611 b03f
000006a0: 7103 0395 6b7d eebf 7ed0 a99f a096 fb3f
000006b0: 0ff7 de80 5451 c03f 039e 3af6 5bd3 ee3f
000006c0: 97cc 4755 deeb d2bf af00 e16f 488c e1bf
000006d0: cec9 e011 b999 00c0 4abe 85cd e5a0 e73f
000006e0: 123e 796f 0307 e1bf fd78 29b5 d1fc c33f
000006f0: aab7 cef5 5a8b e13f 77ff 7a17 1d74 bf3f
00000700: a6ec 1622 ff98 cbbf 2d65 d617 8735 f03f
00000710: 671a 4f4b f1bd d6bf 1d34 afab d928 f2bf
00000720: f5bf eb2d bc44 01c0 3566 ee63 ca20 ffbf
00000730: 0421 e5e6 7748 e23f fb45 b4de d0ab ec3f
00000740: 0dc2 1527 665f 0ac0 75a9 a02e be98 c13f
00000750: a17c c0d5 3654 913f 0d83 8de3 196c de3f
00000760: a5f2 38ee c21a e7bf 0c6d 81a5 0681 f4bf
00000770: 4356 c2ad 68ab ffbf cfb9 3b5c 933e e1bf
00000780: c842 ba9e 7fa3 d8bf 7271 fc8f e687 c73f
00000790: 4034 9086 5e88 ec3f bb28 16f9 08d4 efbf
000007a0: cb6a 91a7 0411 b9bf 7264 be31 dd0f eb3f
000007b0: 51f2 a4f0 3bdb e9bf 248a ba87 60a8 c43f
000007c0: 98c6 19c5 7dab 03c0 386e f938 77ca e1bf
000007d0: 4578 d3d3 99fe e23f 816c 9293 1c8e ecbf
000007e0: cbb0 0fd6 5783 e53f 2e57 7874 4869 f1bf
000007f0: 379d 40fc 1ab4 ea3f 292a 3c7a acc1 dc3f
