models/latest_3.2_turbo/b2.npy (npy, 640 bytes, 1 tensors)

array f8 [64]
-0.08275769442591198 -0.06445392599556232 -0.12090013363487052 0.12641678003962253 0.0015592639899960998 0.04377893050286786 -0.03977879188516964 -0.17221577880001016
0.005772147791244327 -0.19753839920672792 0.08469300655095081 -0.053998238438943094 -0.01387039878251338 0.03331818745415248 0.27149383711201336 0.1784414170754028
0.047811606352624894 -0.09926091960967051 -0.14856893974002253 -0.15018154232433675 0.19645751669883174 -0.10095023528225007 -0.21934106610074466 0.3356445742627176
-0.16071018946744708 -0.06803871019611124 0.11461273835999189 -0.14335353516037333 -0.09072214856904565 0.19830902045564036 -0.017702859033539742 -0.0926896469643039
0.15379713800645062 0.06080738377914878 -0.16763918766193356 0.2140721295687692 -0.0068006702194637345 0.016246035402008363 -0.006071497510077117 -0.07998142088361655
-0.05884298111296368 5.95366947316267e-05 0.10895315336747315 0.011489510305096772 -0.02021377276072935 -0.13686198271623184 0.05052081717833624 -0.1069756753379102
0.1437827815379518 0.06997075306637376 0.2492296810714194 -0.11890207661834257 0.12787405526752146 -0.1313716851829123 -0.142509322648165 0.002824916818226347
-0.09569085102288445 0.09559628618596853 -0.025959599561728594 0.052413770816139627 0.24784513262142738 0.011298801822247292 0.03685528866375986 0.056097489872339736
00000000: 2939 0db7 9b2f b5bf 40ef 3f70 0d80 b0bf
00000010: 6136 0ba8 4ff3 bebf 70c8 f7cf 6c2e c03f
00000020: ac7a f1f5 068c 593f 5100 8725 316a a63f
00000030: 5040 71c4 e25d a4bf 2c8e e6a8 2a0b c6bf
00000040: 626f db1f 89a4 773f 0107 2632 f048 c9bf
00000050: 5114 56dd 70ae b53f ea13 4638 a8a5 abbf
00000060: b81b 3a69 1568 8cbf ae85 f4da 140f a13f
00000070: a68b ddaf 2760 d13f ba9d 4b19 2bd7 c63f
00000080: 4ab8 4e4b c37a a83f 4e92 7ee3 2969 b9bf
00000090: d940 b198 4e04 c3bf 8b78 5f16 2639 c3bf
000000a0: 7d2e a318 8525 c93f 958e 0fe7 dfd7 b9bf
000000b0: c846 c938 5e13 ccbf 1f72 6261 337b d53f
000000c0: 64c5 f2c7 2692 c4bf 7c81 2723 fc6a b1bf
000000d0: 3a0f f6aa 4257 bd3f 25d0 a39c 6859 c2bf
000000e0: cc7c 2015 9139 b7bf 30ec ada2 3062 c93f
000000f0: 8006 61c2 b220 92bf 5eb4 633a 82ba b7bf
00000100: 9e61 fae6 9faf c33f a69f 5f39 2522 af3f
00000110: 059c 446e 3375 c5bf ecd0 bd2d b766 cb3f
00000120: 8186 ef02 05db 7bbf 3013 f7fa cca2 903f
00000130: 337c e533 6dde 78bf 2595 fb92 a979 b4bf
00000140: 0c6a f5ce aa20 aebf cc1c 1841 e136 0f3f
00000150: 0966 8296 5ae4 bb3f a63f 0ff8 cf87 873f
00000160: 2593 be53 ebb2 94bf c87c ea85 b184 c1bf
00000170: 01a7 1853 dddd a93f f938 0b03 c262 bbbf
00000180: 297a 3764 7967 c23f 9eb8 1870 9ae9 b13f
00000190: 0077 b218 c2e6 cf3f 9c94 80d2 5d70 bebf
000001a0: 5fc1 b052 2d5e c03f f091 bd91 c9d0 c0bf
000001b0: cd11 13d8 be3d c2bf a679 24ab 4724 673f
000001c0: 4171 ab13 327f b8bf b3ac c98a ff78 b83f
000001d0: 0c1e 8a3c 2795 9abf 20dd 074f fad5 aa3f
000001e0: dc78 8aa9 63b9 cf3f fefa 7b82 d323 873f
000001f0: 9fb0 fd46 b2de a23f 2d5e c768 cfb8 ac3f
