models/latest_3.2_turbo/weights3.npy (npy, 5248 bytes, 1 tensors)

array f8 [10, 64]
00000000: 7c36 8d1b 832c ea3f 8f03 0c40 ae9d febf
00000010: 7a75 9dd2 dc16 e83f 296a 64fe 0ea5 ff3f
00000020: 4b83 c5d3 a210 f13f 23b8 deb4 97e2 c13f
00000030: 424b db3c 3793 e73f 2c8d 21f3 f270 f3bf
00000040: b8b0 b9ae ee60 e1bf 50af 5947 622f f0bf
00000050: 7ca1 e0db e369 e2bf d24e 4359 940f 01c0
00000060: 421e 7925 c7b5 d0bf 0380 0928 ad46 e33f
00000070: af09 8614 ae46 e93f f04d 2d25 1094 f0bf
00000080: cdb3 d4bc 2e66 f03f 068e 29cc 9445 f4bf
00000090: 12c7 0a25 99a2 a0bf d5c7 eec3 dff5 f33f
000000a0: c0e6 f8dc e2c0 f1bf 4475 f41d 4ca9 f13f
000000b0: 6fcb 8e3e 7c3f f23f 33c0 901d 9989 eb3f
000000c0: c9cc 642f 9ac0 f6bf fbec 8656 e6ab a2bf
000000d0: 991a 13e8 6385 f33f d5db 03eb 2f61 b7bf
000000e0: f79d 8aa7 f8c1 e7bf 6127 72e2 5e54 f3bf
000000f0: c612 db44 1118 e13f 4c87 fc68 8b06 cabf
00000100: 765f af64 923d c9bf 01f9 5642 fa7a e6bf
00000110: fa5b 4830 686b c23f ec71 8558 1a18 fbbf
00000120: 3208 e89c fc1f 00c0 5340 9c18 fc23 ecbf
00000130: 9578 5863 d14f c23f 29da 15b9 a7ae 983f
00000140: 837c fe76 e4b4 f13f 876a 470e 2b06 e6bf
00000150: a008 4ca8 d9c5 f2bf 0202 49bf 0ea2 dcbf
00000160: b2b7 4815 2f3c d63f 89e3 ac2f 576e c13f
00000170: b20c 16dd 7846 fc3f 28ce dcfe 0de2 f53f
00000180: fd39 5802 45e0 f93f 6f56 22d2 74d9 c9bf
00000190: 9546 2245 98fb e63f 32f7 a78f 4b4d 01c0
000001a0: 1d2a 049d bdc7 fabf 90aa 9df1 bcae d0bf
000001b0: 838f 9a1b 3e66 ecbf 8e9d 3ff7 ec8a d9bf
000001c0: f694 e68b 5b8e f3bf 0588 ed0b 40a0 b7bf
000001d0: 8ccf 249c aa8a e83f 0414 2fff 8914 f7bf
000001e0: 0157 f02a f481 ccbf ebc3 80ab 3937 f43f
000001f0: 6e0f 7b44 fd31 0040 3745 601b 0406 ea3f
00000200: 1259 4d9e 3045 e3bf 01c4 6398 6ab0 e2bf
00000210: dd47 9fa3 2334 bf3f 62ca c998 3db3 e1bf
00000220: c728 f303 232d 07c0 814f 1cf4 3040 de3f
00000230: dbc1 d4f6 bd4a 06c0 0039 408e d001 d43f
00000240: 551b f420 4296 d13f 6f47 0d47 afe5 eb3f
00000250: 4bb3 9b30 ed91 d23f afbf bc0b 6ccf f03f
00000260: 027f c985 dd58 f53f 72cd 6853 c20a f5bf
00000270: 8cdb 9abf ba96 b1bf 3658 1171 de68 ccbf
00000280: 59c9 9c18 b504 e23f 31f9 ae6c d0ae 813f
00000290: c174 32d3 ff3b f63f 0040 36ec f77b eb3f
000002a0: cede 430d 2bf9 d03f 9941 c606 44b0 f0bf
000002b0: 7992 53f8 e9af d0bf fef1 aa5f dec4 d93f
000002c0: 80d2 dcce 1744 c3bf 0b3b f6ab 0190 f43f
000002d0: 8ed1 f05e 8a45 0040 44ef 78e5 4200 d7bf
000002e0: 19d3 b753 ffef e3bf cd10 5847 7fa9 f3bf
000002f0: ef21 6f7e cad4 f23f bceb f9a2 83fe d0bf
00000300: 938e 53de ab65 f7bf c86b eda9 a113 f4bf
00000310: 33ad 5937 ee47 f63f 3168 744b 5e33 cebf
00000320: 946c e731 7c8b b2bf 57b8 4fcf a29a b5bf
00000330: 34d7 32a5 33ee ed3f 3eb2 dcef b4bc e5bf
00000340: 9a4b b00d 7c25 d4bf 2975 df15 640d f03f
00000350: fb45 c12e 2189 e13f 7ab0 5459 6697 c5bf
00000360: 1348 2e23 d46f c3bf 8773 cf50 2442 e23f
00000370: 3f84 e5e0 d4e0 f4bf 457c a336 b114 e8bf
00000380: 177e 0ddd 1244 f93f bf55 b8dd 563b e4bf
00000390: 8c3b 03d3 7f86 f0bf ce30 3aee 2a53 e4bf
000003a0: 9b3e 8fe1 127c e53f efc4 0765 bdc8 f5bf
000003b0: 9b83 74df e8d8 afbf 90dd 1707 ef06 d03f
000003c0: 54a9 3134 ecad fabf 2511 d143 0eae cdbf
000003d0: a3e9 2d3a 85e3 fbbf 1f75 0534 2d37 fbbf
000003e0: 5081 18cd a8ab ae3f 5d8a b0be 6a48 d1bf
000003f0: 2186 8036 09e0 b03f 30d1 6807 9857 d5bf
00000400: 95e1 9456 46f5 e0bf b5da 06c4 39b1 f33f
00000410: 4b17 f7a7 aa4a f13f 5d34 a5c8 0ec7 c23f
00000420: eba5 b645 78dd d63f 8b85 4fdb 9f58 b83f
00000430: 8196 9ac2 e75e eb3f 0bad 0743 07a8 f3bf
00000440: 3d96 61ba 0180 d73f 84d0 d757 45bd ce3f
00000450: dcbc 2af4 ce8d ef3f fd01 3923 03d0 ef3f
00000460: 04b7 b8ca 2a2d e13f 55c7 e2a6 80a5 fc3f
00000470: 4313 ef8c 9e27 e5bf 180e c044 e970 f8bf
00000480: 1393 2e2f 4c29 fa3f 08d5 dcd0 c15e fabf
00000490: 701a 03f6 2daa e43f 25e9 52ca 75da 0440
000004a0: 078d c2df c1bb 01c0 540a f666 de2b f73f
000004b0: 7129 cb37 6acf c8bf a3d9 a251 e098 c43f
000004c0: 9468 b9af 0051 473f fc7b 6879 0bde d03f
000004d0: 4fe1 a7aa 7126 ef3f 271b 9eaa a055 ef3f
000004e0: 2f94 07cf 4b65 eb3f 2ff2 3e83 7fa3 f4bf
000004f0: d765 2a5f 595f f93f e39f ef2d a686 d83f
00000500: 4a3a 42d4 cd0c df3f 18ec 3675 14c5 d23f
00000510: 8be9 a694 4a27 e33f 0219 e27f 3d3f ce3f
00000520: dddd b909 9a29 f7bf 95bb 309e 86b9 c83f
00000530: 0962 4010 a114 e2bf 6a88 ebac aa5b e5bf
00000540: c841 14d0 5941 a93f 8d19 e0d4 ca1f e5bf
00000550: 91be 4108 4a15 dabf 8599 1fa7 fe71 b13f
00000560: b267 8053 fb69 f9bf 12bf f39c c5c4 e4bf
00000570: 1ccd 23e6 6ed9 d8bf 5dc1 def0 cb4d cdbf
00000580: 0d03 5bfc 14cb fabf 3766 324c 89f8 ebbf
00000590: 4111 0bb7 88fa e4bf ae52 a8be bdc0 f33f
000005a0: cb0f 6afd 4557 efbf 2968 54f9 9953 0340
000005b0: 15d8 e3c1 facb f73f aed9 4709 2315 d93f
000005c0: a246 dc21 4647 e9bf e132 5869 309f d9bf
000005d0: d946 1a54 33d6 f23f b3c1 67c8 2fe0 efbf
000005e0: 68c4 739f d523 c4bf a412 955a 1c7b d4bf
000005f0: bea1 361f e6cc ffbf 2ebc 34ce 6796 ddbf
00000600: e77b 14da dfc4 e4bf 85ae fb50 e295 ffbf
00000610: d2ce ac7b 8ad9 b4bf f442 857e 954a f13f
00000620: 5452 0753 447d f03f c68a d002 f302 cabf
00000630: dd9b 3a3c a0c4 c1bf 7f1e 91a6 c640 0540
00000640: 054f 09f7 3bc2 e73f e08e 46dd a21d ff3f
00000650: 3858 8b4a 7f2f e6bf c87a 8d2c 55e3 eebf
00000660: 7724 6b71 b58e f1bf 6e69 99de 1d37 e33f
00000670: 80ec 50f8 3129 a6bf 1077 dd3e edf8 ad3f
00000680: 2453 af73 fba8 e13f 4d99 526e 2600 6a3f
00000690: d116 6a7a b0ea b93f 36ce 767c 27f5 ef3f
000006a0: 0414 7be6 575c cebf 57e2 b187 8356 f6bf
000006b0: 9574 e82e c696 f53f b8a2 9ee7 ca55 f5bf
000006c0: 026d d143 704f e63f b775 132f d5fd d6bf
000006d0: bd0b b0f0 bf88 f23f e5ad 6f21 ae99 ed3f
000006e0: cf47 0909 a9eb d33f 16f8 c165 48e3 fc3f
000006f0: 66ca 88d4 c088 bebf 2c1a 715f 88f9 b03f
00000700: f69b fa31 d4ca b83f 14e4 f42d 5b8b c83f
00000710: 10a0 dc1e 1c91 a4bf 962b 4412 0fe8 f5bf
00000720: 1491 24e5 0cce f13f e7b5 ec17 23d0 ecbf
00000730: 8ec9 d02e 93c4 df3f b4b8 5910 f968 e2bf
00000740: 0e2c 5d9e f61c f03f 19f5 1e72 53f2 e43f
00000750: a6e5 8b86 43f9 c93f b225 f8af 6b08 ef3f
00000760: d8e1 9c45 18a2 fa3f e6ad 5b56 f48b a2bf
00000770: 5d2d 4eda e4d9 f0bf 6c8e 6a25 bb91 f03f
00000780: 8d03 5ebf 7073 06c0 283f 15b3 a9f0 993f
00000790: 5c81 51fe 8b1c f6bf 1f0d 9590 d97c edbf
000007a0: d616 96c9 7143 cd3f 7ef7 96b0 44a2 e0bf
000007b0: a9f1 5283 846e d43f ebb1 bd0a 0254 f6bf
000007c0: 1824 1abb 31ef d83f 000e 2a59 0978 ee3f
000007d0: af07 0ca8 ec12 e93f e67c d5da d884 b03f
000007e0: ff18 a279 d13b f1bf 0c5a 4867 ca7a cdbf
000007f0: e326 e289 8f1c d4bf a753 6e7c 92e8 d9bf
0.8179336107366022 -1.913496256049459 0.7527908433509503 1.9777975022503915 1.0665615341497012 0.1397275574831279 0.7367206753354838 -1.2150754449183507
-0.5430825626949831 -1.0115683352587048 -0.575426034401104 -2.132607171408247 -0.2610948434780519 0.602377489278297 0.7898779297686839 -1.03614820978407
1.0249469162183573 -1.2669876074877506 -0.03249052598165582 1.2475278524038818 -1.109591353581365 1.1038323564637986 1.1404993480361687 0.8605466439676149
-1.4220220424002028 -0.036467741072067704 1.2200659814276718 -0.09132670867607769 -0.7424281379980461 -1.2080983014625064 0.5341879219855279 -0.2033247244481181
-0.19719152370702958 -0.7025119109819401 0.14390280110885084 -1.6933845002996533 -2.0156185396490622 -0.8793926697417284 0.1430608496747864 0.024103756591524004
1.10666319353166 -0.6882529524694555 -1.1733032774068661 -0.44739121132082016 0.3474233348705368 0.13617982700250433 1.7672051082779885 1.367689128452989
1.6172533122622774 -0.201948740582043 0.7182122564574508 -2.162741777718929 -1.6737648137519792 -0.2606651649026981 -0.8874807871948039 -0.39910434861527555
-1.2222552742835524 -0.09228897372443619 0.7669270562823711 -1.4425144165154515 -0.22271587463972511 1.263482732709458 2.0244088506751075 0.813234380215511
-0.6021960346068076 -0.5840352035867228 0.12188933129007702 -0.5531299575944326 -2.897039442880757 0.4726679214374983 -2.7864951404264793 0.3126107587021494
0.27479603975409833 0.8717876804096089 0.2901566481294153 1.0506401499260212 1.33419563541969 -1.315126729791555 -0.06870619943479833 -0.22195034523855534
0.5630746346198904 0.008634212795979397 1.389648270596169 0.8588828671945521 0.26520801825925566 -1.0430336250902654 -0.2607369351447129 0.40264090864710045
-0.15051553345405821 1.2851578442820848 2.033955327724647 -0.3593909493390479 -0.6230465540998892 -1.2288811480403183 1.1769509257156832 -0.2655343143048261
-1.462322109663465 -1.2547928464689324 1.3925611650582368 -0.23594263729393242 -0.07244087427482021 -0.08439080773652684 0.9353273607764323 -0.6792854962164439
-0.3147878774336107 1.0032692770394738 0.5479894555266464 -0.1686828552423128 -0.15185023992359045 0.570573957283714 -1.3048905167600109 -0.752525908199353
1.5791195521231935 -0.6322435694188967 -1.0328367464714772 -0.6351523068310827 0.6713957219562475 -1.3615087458131787 -0.062201764371145184 0.2504231995839854
-1.6674615897014364 -0.23187425910340057 -1.7430469772940362 -1.700970843513751 0.0599034071312895 -0.2700449812129245 0.06591851788154958 -0.333471305118354
-0.5299407664343102 1.2307679803176772 1.080729156602916 0.1466997604096915 0.3572674446864698 0.09510230163825477 0.8553351212364789 -1.2285225504263646
0.36718791199959694 0.24015108861170031 0.9860605973134642 0.9941421211188409 0.5367635688214425 1.790405895135753 -0.6610863449683183 -1.5275662122302318
1.6350824206394392 -1.6481340559669793 0.6457738690304051 2.606669979720339 -2.216678379177782 1.4482101461332109 -0.1938298008374875 0.16091541277064633
0.0007115605689691656 0.26355254036201337 0.9734428723450409 0.9792025883078609 0.8561152499720545 -1.289916527442198 1.5857785909087079 0.3832183312028958
0.4851564953650366 0.2932788033173792 0.5985463050231358 0.23630493873879038 -1.447656667702055 0.19316179966105254 -0.5650182073032407 -0.6674397828430874
0.04932671227482249 -0.6601308973047694 -0.40754938894586085 0.06814567165529269 -1.5883744489460523 -0.6490200105162975 -0.38827106928438737 -0.22893666516530234
-1.674580560458881 -0.8740889061184082 -0.6555827689231039 1.234555954700379 -0.9794034909723391 2.4158210257419523 1.4872996877506968 0.39191509157481164
-0.7899504338585823 -0.4003411320452824 1.1772950444468988 -0.9961165346303943 -0.15734358106377333 -0.3200140843003203 -1.98752414887177 -0.4623050225954469
-0.6490325221419625 -1.9740927852061827 -0.08144441146287854 1.0807089750489327 1.0305827372841536 -0.20321500432426925 -0.13881304684511422 2.6566288960491984
0.7424602341584153 1.9447353976801693 -0.6932980018561983 -0.9652505750817335 -1.097341006318201 0.600478110088529 -0.04328304439737796 0.0585397853126165
0.5518777141065567 0.0031738997082186083 0.1012373255599315 0.9986760550440923 -0.23719309572166491 -1.3961215305881944 1.3493100960106734 -1.333445458187425
0.6971970867702171 -0.35924272153155407 1.1583861734259095 0.9250097897578909 0.3112585628742836 1.805488965502723 -0.11927418888880367 0.06630756693002898
0.09684492321194668 0.19175281280493606 -0.040169600264846506 -1.3691549981619793 1.112805266465391 -0.9004073588636715 0.4963729817565302 -0.5753140754075248
1.0070711313335354 0.6545808056759227 0.20291942662860868 0.9697779118443377 1.6645739287615609 -0.03622401765991494 -1.0531967666200537 1.0355788671085078
-2.8063673925939328 0.025332118563994005 -1.3819694456397746 -0.9214904617187222 0.22862074225502366 -0.5198081444757319 0.31924546074494714 -1.3955097598619612
0.3895992591065478 0.9521528951158302 0.7835601122062509 0.0645270857107679 -1.0771040679260862 -0.2303097729024589 -0.31424320664574007 -0.4048200812479145
