models/latest_3.2_turbo/weights1.npy (npy, 802944 bytes, 1 tensors)

array f8 [128, 784]
000000 aa 67 55 d1 97 01 fc 3f ed 6d 73 e6 68 32 e1 3f
       1.7503889252752551 0.5374035359376969
000010 58 f8 90 4b eb 9f f2 bf 5d a6 ed 0b 6f 11 e4 bf
       -1.1640427543457204 -0.6271281464552875
000020 be 0a 75 51 50 c2 cc 3f f7 82 d1 1c 9b 37 e9 3f
       0.22467998483087642 0.788037830625483
000030 b3 46 e6 91 89 9c df 3f 76 56 de 96 9f 6a b8 bf
       0.49392928359985006 -0.09537694390595583
000040 20 a7 d5 fe 2f c4 e2 3f ef 4c d0 d6 20 32 da 3f
       0.5864486672628324 0.4093095872678551
000050 89 ff df ed f6 09 f3 3f 37 43 3e f4 68 f1 d2 3f
       1.1899327556602393 0.29598449565769464
000060 03 fd 1a 90 e5 2d f0 3f d1 1c a2 9c c3 a6 ee bf
       1.0112052563779919 -0.957856946873017
000070 f2 8e 68 97 cd 1e d1 3f c5 b6 51 55 8a fd d7 3f
       0.26750507150630576 0.37484987575485845
000080 e7 18 d4 06 b4 7f ed bf 6f 76 8e 3e be 2d bc bf
       -0.9218387730950582 -0.11007298495538874
000090 29 6a aa 39 d9 4d 7e 3f 1e 2d bd 6c d9 d8 94 bf
       0.007398460899504169 -0.02035846449079514
0000a0 f9 2f 3d 63 fd 32 da bf 94 85 e0 ea d6 6b f2 3f
       -0.409362170136546 1.1513280081638628
0000b0 82 16 f0 50 5d 3e e3 bf a9 3c 71 55 b0 d6 00 40
       -0.6013628559891944 2.104828517454355
0000c0 ec 08 8b 5b 03 5a f7 bf bb 7f 86 88 d6 31 e7 3f
       -1.4594758582975897 0.7248337427627044
0000d0 ab b1 34 07 fd 18 00 40 41 ec 4a 14 fc c5 fa bf
       2.0122013628917634 -1.6733361046488116
0000e0 8b 67 2e e1 ff 87 03 c0 7a 61 6e ff 67 1b e2 bf
       -2.441406020382549 -0.5658454884424338
0000f0 43 7d 71 9d 56 56 ea bf a4 76 36 38 55 25 c0 bf
       -0.8230393481316373 -0.12613930935633733
000100 5c 78 95 de d4 f4 dd 3f ea 73 0b 04 c8 2f b5 3f
       0.46806833016115035 0.0827603349566314
000110 51 24 a9 71 e8 9a cd bf 85 30 cf c2 31 45 d2 bf
       -0.2312899165138185 -0.28547328972195657
000120 bc 31 a8 62 2f c0 d0 bf 56 02 c9 f7 05 ed a2 bf
       -0.2617300475547173 -0.03696459436151105
000130 1e fe 64 7f e4 5b 85 3f 9d 35 07 11 f0 ae d4 bf
       0.010429177415630039 -0.3231773535051959
000140 f3 83 87 8e c0 ad f5 bf 88 e5 c6 5d 20 db fe bf
       -1.3549199645569814 -1.9284976637994493
000150 4a c2 55 44 87 ee ff 3f 60 6e f8 21 45 43 f5 3f
       1.995734469350412 1.328923351952561
000160 1a d7 06 83 a1 eb e0 bf 36 a3 c5 ce 6d 72 e6 bf
       -0.5287635382762546 -0.7014683760181473
000170 9d 0d c5 35 52 9d e7 bf d1 95 8c 45 f2 19 e6 3f
       -0.7379542398634161 0.6906672819501926
000180 37 b2 bf 90 92 75 f3 3f a2 56 18 fb bc f0 d8 3f
       1.2162042288065444 0.38969349404337994
000190 46 f2 13 a2 b1 72 e8 3f 48 bc c2 16 e2 06 ee 3f
       0.7640007176956451 0.9383402294678342
0001a0 39 cd b3 39 54 b6 f1 3f 4b fc dc ab 69 fc 02 40
       1.1070139173505835 2.3732484270872525
0001b0 30 93 7a da de f8 f5 bf 50 72 5f cd 49 73 e0 3f
       -1.3732594045952276 0.5140732775867694
0001c0 f5 69 90 4e 4a c4 f4 3f ef c3 a1 cd 07 5c d4 3f
       1.297922427073556 0.3181170948146805
0001d0 33 3f de 78 0b c4 e2 bf 01 be a5 db b5 12 cf 3f
       -0.586431251593217 0.24275849556896392
0001e0 3c fc 95 de 68 d6 c0 bf b2 08 4b f5 e7 0f ff 3f
       -0.13154326313449072 1.9413833219301009
0001f0 0d 28 1e e4 ba 6d ab bf 13 a5 68 46 89 31 00 40
       -0.0535715487922773 2.0241876125989022
000200 66 56 69 97 76 ff db bf 01 d2 5b 94 73 d8 b0 3f
       -0.4374672392490083 0.06580278751409453
000210 47 f0 02 9d 97 29 e0 3f d0 8e d9 87 83 d6 e0 3f
       0.5050771776800581 0.5261857655827615
000220 71 99 29 67 95 63 f2 bf 63 a9 d6 fb 54 c8 e6 bf
       -1.149312403658396 -0.7119545859070907
000230 2a a8 50 0e 7b 22 bf 3f fe 19 2c 8c 31 50 f4 bf
       0.1216198835324184 -1.2695785022239074
000240 ab 0b 70 a4 57 b7 af 3f 91 fa 82 0f 63 47 d6 3f
       0.06194566614433169 0.3481071139794177
000250 cf c5 48 55 0b b4 fd 3f 68 61 b7 af a9 f1 f6 3f
       1.8564561206261379 1.4339997161788123
000260 1a 3c ce 67 66 e5 ec 3f 98 eb 22 71 3f ba f1 3f
       0.9030029323056425 1.1079706591978944
000270 f6 d6 7f f9 93 bc e4 3f 40 fc 82 52 ce 8a 9d bf
       0.6480197785410542 -0.028849815164673
000280 5f 40 77 2a 28 a8 fa 3f 92 78 85 25 eb af a7 bf
       1.6660539301701858 -0.04626402695679234
000290 55 0a d9 0f 74 b4 d3 bf 9f ac b5 7c 79 f2 d7 3f
       -0.30788899943960263 0.3741744726054978
0002a0 f2 88 85 14 92 c2 97 bf 96 45 ee a7 e3 a4 e6 3f
       -0.0232031655335811 0.7076280860803077
0002b0 df 46 41 7d 7d de f5 bf 74 e7 94 51 fb b3 f3 3f
       -1.3668188946507411 1.2314408480437722
0002c0 ea 92 14 7f 07 1c d1 3f 44 8f 3b a7 c2 bb e7 bf
       0.26733577165786804 -0.7416699663412847
0002d0 f7 41 f8 bd 1b c7 dc bf 63 95 44 23 6d 0b d5 3f
       -0.4496526103185085 0.32882240718966765
0002e0 79 59 96 af c7 b8 c4 bf b6 35 b1 e2 4d db f3 3f
       -0.16188903878783004 1.2410410742917128
0002f0 28 c1 50 8c 65 30 f2 bf 05 2b a4 da b9 b3 c9 bf
       -1.1368155938217317 -0.20079730201572246
000300 73 26 34 89 cb 46 ea 3f 09 54 53 65 b7 a2 f5 3f
       0.8211419753799433 1.3522256811168083
000310 45 1a 2d e6 05 dc b0 3f 63 0b b3 59 c6 bb e1 bf
       0.06585728520904251 -0.5541717292729625
000320 0f 45 42 d2 2a 32 de 3f 43 3a 50 79 6f 3e e9 bf
       0.4718119672116509 -0.7888715142633561
000330 e1 3c cf e7 68 91 df bf 78 b9 18 2d 28 ab df 3f
       -0.49325010907791805 0.4948215904613771
000340 43 de f7 51 d1 d7 d2 bf e2 dd f3 ab 52 35 f3 3f
       -0.29442246441565006 1.2005182949923143
000350 53 d3 15 0d 24 06 fe 3f 58 08 15 75 40 57 c4 bf
       1.8764992247717671 -0.15891271321203493
000360 9e 47 8d ef 9f 78 e4 3f 4b 64 9f ca d4 eb e7 3f
       0.6397247008082905 0.747537990329087
000370 ca 35 38 2a a7 fd d4 3f a3 c7 88 9e cd cd ce 3f
       0.3279817497539993 0.24065561524326737
000380 cc ee 33 19 13 b0 f5 bf f2 be 91 1e 0b da e0 3f
       -1.3554869636999909 0.5266166302735356
000390 04 34 eb 13 74 24 ce 3f 7b 19 1f 2a 6f 65 dc 3f
       0.23548747036548445 0.44369105447221785
0003a0 52 c5 a5 5b 67 20 f3 3f f5 8e 88 07 54 5a f4 3f
       1.1954110698682894 1.2720527929567969
0003b0 23 4f 1c fa 00 f0 e9 3f 48 bb 20 d5 ab bd f1 3f
       0.8105473408672633 1.108806450396246
0003c0 ec 4e 1a e3 54 d7 ce 3f 47 fc 31 53 9d 27 de 3f
       0.24094639863016398 0.4711678802922887
0003d0 c9 76 ed 8d 8a da e6 bf 89 b4 3c 3f b7 a6 e1 3f
       -0.7141773960135761 0.5516010508632841
0003e0 f5 59 1e 6b 7a bd f2 bf 07 d0 9e b6 7d ad b8 3f
       -1.1712593254393344 0.0963972636080258
0003f0 d1 2c fd 17 0d 95 f1 bf ad 2c 79 d4 d8 60 e2 bf
       -1.0988894402569722 -0.5743221425886041
000400 46 5e a7 58 9f da e3 bf 15 03 98 07 2b 9b f0 3f
       -0.6204373103636918 1.0378828331597039
000410 e8 0f 7c 30 03 71 f9 3f 46 fb a5 46 6e 4e e1 bf
       1.5900909322672252 -0.5408240680552374
000420 3a a9 fe f8 78 68 f6 3f aa b9 06 b5 36 35 f1 bf
       1.4005059934957687 -1.0754916259134952
000430 ed 30 ce 13 75 03 e7 3f 5b 86 3b 05 a8 cb f1 3f
       0.7191720377755054 1.112220783652808
000440 0a 7c 7c e8 b0 8d c6 bf ea 3a a9 e0 f2 07 f3 bf
       -0.17619906761044063 -1.1894406104872197
000450 f3 f5 43 7d 56 44 70 3f b0 ec 6f 9d f3 8a c4 3f
       0.003971422051333817 0.16049046695102254
000460 b9 1f 75 39 f0 1d c4 bf 52 52 69 e5 5a cf c2 bf
       -0.15716364675085773 -0.14695297433594817
000470 dc 41 b4 db 28 a3 03 c0 f3 c8 9f f3 96 c4 f1 3f
       -2.45466777461864 1.1104955212181806
000480 15 f2 2f 56 33 d1 8b 3f 00 cb a1 e7 44 d4 ee 3f
       0.013582612102248462 0.9634117626249861
000490 8a 02 17 94 2a ba d2 bf f1 c0 a4 92 93 6e db 3f
       -0.2926126905622729 0.4286240512910942
0004a0 87 6a bb 27 e6 58 d5 bf 87 bc b2 bc 3c 1c c2 bf
       -0.33355096702658965 -0.14148673261431474
0004b0 87 e3 7a 0f 47 13 e4 bf c7 fa 70 96 bd 3d c9 bf
       -0.6273532202095432 -0.1971966728760519
0004c0 21 17 37 2f 23 45 f7 3f 5f 23 79 52 c6 78 d4 bf
       1.4543792576163883 -0.3198715024378113
0004d0 a5 64 78 eb 88 43 e4 bf 3b 1e 82 97 75 e2 dd 3f
       -0.6332439993886011 0.4669469813893305
0004e0 45 b4 89 98 c1 07 d4 bf 33 58 aa 01 29 f6 ca bf
       -0.3129734029415128 -0.21063721257513776
0004f0 37 cd 19 62 17 36 d9 3f a1 92 49 68 91 5c d2 3f
       0.3939264734282974 0.28689990219417366
000500 cf 68 f7 f4 e9 ab e0 3f da 39 f3 9c e9 29 ee bf
       0.5209855827809181 -0.9426162782127065
000510 7e 70 da ec 28 ba ae 3f bb e7 70 65 5b c0 04 c0
       0.06001403704905871 -2.5939243245202
000520 7b 6d 0e 86 0b 04 eb 3f 9e d8 73 6b db ec ef bf
       0.8442437761581653 -0.9976632212335692
000530 ef 64 31 2c 86 2b f4 bf d0 b3 73 9b 6b c6 e6 bf
       -1.2606260038649528 -0.7117212330027716
000540 05 97 0a 80 94 8b bf bf e2 cd 0a e4 cd 5a ee bf
       -0.12322357297906812 -0.9485845045041368
000550 91 10 ae 4d 9c 4c fc 3f 6e 5d 90 3f cd 96 e0 3f
       1.7687037500736873 0.5184084168894694
000560 b0 cf ba 77 57 26 e9 3f aa fb a8 0e c1 ca 9c bf
       0.7859303797217674 -0.028117195625096215
000570 9d 18 b9 4f 65 b5 f9 bf 92 39 03 85 b6 7e e9 bf
       -1.606786071222394 -0.7967178914930619
000580 58 1b 65 c1 88 e2 bb 3f 61 91 f8 09 4f 77 c8 3f
       0.10892538758808479 0.19114101397384345
000590 e4 a4 85 fa ad 7b b8 bf ba 00 63 74 a9 98 f4 bf
       -0.09563720098744316 -1.2872709795338282
0005a0 08 e7 43 21 f2 9f e6 bf ee 70 a7 55 b3 47 da bf
       -0.7070246362411305 -0.4106262527909753
0005b0 74 97 78 da 49 9e fb bf 63 4a bd 43 11 6c d9 3f
       -1.7261446508432217 0.3972209130780923
0005c0 b4 66 e4 bf 24 96 fc 3f 60 fb 7f 77 2f c6 ef bf
       1.7866561408795123 -0.9929425558073994
0005d0 e9 7c 7c a4 93 90 e4 3f 33 5b 4f 00 6b 90 e9 3f
       0.6426485264418292 0.7988791471533204
0005e0 3f 05 4e c2 e5 3e d8 bf 57 73 8f 91 82 39 d9 3f
       -0.37883895850253063 0.39413513388517657
0005f0 c3 6f 21 f9 23 2e f9 bf 9d c0 e4 21 ea 46 e7 3f
       -1.5737647754349247 0.7274065649017022
000600 56 b1 b0 f8 b0 f7 f2 bf 24 41 2f 09 72 1d f0 3f
       -1.185471507497899 1.0071888312123258
000610 45 1a b0 b8 e8 18 ee 3f c1 8b 85 f2 ff b4 fc bf
       0.9405406577287257 -1.7941894029142846
000620 b8 e5 a0 f5 e6 ac f4 3f fc 64 52 7a 40 7c e9 bf
       1.292212447630261 -0.7964174641703319
000630 c8 c6 76 7c 00 24 f7 bf b5 ed b4 70 6b cf be 3f
       -1.4462895261644224 0.12035247327451411
000640 2d db 6f f6 75 42 ac bf 7a f6 0e 80 9a 77 d7 bf
       -0.05519455559981732 -0.36667501931865554
000650 71 4b 29 2e 9a d6 dd bf 60 73 52 9e 76 f3 fa 3f
       -0.4662232828897493 1.6844392952400185
000660 7d fc 67 9e e6 fe d0 3f 01 c5 3b ac f4 b5 fd bf
       0.26555791348796004 -1.8569227912778958
000670 dd 28 bf 6a 96 68 f0 bf fb c5 31 74 01 4c be 3f
       -1.0255340738099712 0.11834725462701805
000680 46 d2 4e d3 b1 e4 f4 bf ee 6d f6 0b 24 13 f6 3f
       -1.305833650037259 1.3796730487146038
000690 d6 0c ab c5 7e c7 c8 3f ea 75 52 16 61 a3 f2 bf
       0.1935881104637704 -1.1648875114400377
0006a0 a2 bd 76 c6 47 14 fb bf ed 2b c6 e9 ce b6 79 3f
       -1.6924512627118493 0.006277855162248419
0006b0 fa fb 33 ad 1f b1 e4 bf 72 c3 9a 0c 09 74 dd 3f
       -0.6466215498802506 0.460207235631109
0006c0 7f 01 86 3f d7 7a ed bf 78 e9 23 9a 85 4b e0 3f
       -0.9212452164356789 0.5092189798881881
0006d0 93 6d 56 47 8f 94 d8 bf ee 86 b9 02 a4 98 f4 3f
       -0.38406736342013764 1.2872657877382454
0006e0 da 06 da 8b 76 8d d3 3f 39 1c 37 a2 13 7d d0 bf
       0.3055092206705986 -0.2576340755589999
0006f0 bc 0e ab 67 b3 f7 c6 bf 3d 12 96 d3 15 a5 f2 bf
       -0.17943422853396906 -1.1653040185057215
000700 47 82 6c 28 6c 60 f1 3f f0 8d 56 14 fb c1 04 40
       1.086040647416796 2.5947171772875137
000710 31 11 a5 cf ee c2 db 3f 11 75 13 58 8c ad c4 bf
       0.4337727573186099 -0.161546271329748
000720 f9 d9 4a da a8 1c e8 bf 64 7b 1c 02 5b 91 d5 3f
       -0.7534984839938367 0.3369967957132103
000730 28 1d a5 d4 1b a3 c0 3f d6 2f 28 91 7d 61 f7 bf
       0.1299776829057262 -1.4613013906664398
000740 13 8f 16 dd a3 54 fd bf 93 f1 9a 21 24 d5 b8 3f
       -1.8331640850310051 0.09700227566185608
000750 6d 5d e8 a9 0d 81 e3 3f e0 af 43 ff 46 80 d0 3f
       0.6095035856732643 0.25782942703403755
000760 51 71 05 c5 c7 b6 f0 bf 37 72 27 a6 4b 57 00 c0
       -1.0446241089003545 -2.042624757841874
000770 51 c3 37 cc d1 75 bd bf ad c4 94 3c f3 02 e3 3f
       -0.11507903323923797 0.5941101248955839
000780 ad 0d ee 5a b2 89 f2 3f 14 0f 23 f8 ad 4d e1 bf
       1.1586173583935804 -0.5407323690819532
000790 ed 9e 92 28 61 3f ce bf 0f 82 eb 91 eb cc ff bf
       -0.2363091896161146 -1.9875293445585418
0007a0 3d 03 ec dd 14 af f5 3f 6a df 1e 43 fb 03 d8 3f
       1.3552445095849202 0.37524301104303126
0007b0 a4 e7 ed 98 13 d6 fd bf 0d 04 e9 af 5d 8d cc bf
       -1.8647647832681082 -0.22306414689413182
0007c0 d5 ec 83 fa c6 cb eb 3f 04 66 d0 16 d3 bf f3 3f
       0.8686251538159931 1.2343321696447456
0007d0 1d 6a 54 ac 49 7e f8 3f 24 55 95 ae 29 65 c7 bf
       1.5308319789534217 -0.18277474426819496
0007e0 9c 4e 2d 26 04 eb ec bf e8 e3 ff 01 b8 d3 fd bf
       -0.9036885018963008 -1.8641891553982024
0007f0 0e d5 ed 31 d1 b5 c1 3f dd b6 f6 aa b0 48 c0 3f
       0.13836111963215852 0.1272183260711505
