models/latest/b1.npy (npy, 1152 bytes, 1 tensors)

array f8 [128]
0	0xbfdec5bf590a483a	-0.48081954665497373
1	0xbfd26e46b670a125	-0.2879807263984893
2	0xbfdd2cc6d2d43479	-0.45585795010339997
3	0x3ffe8a3cb7389fb6	1.9087493092610948
4	0x3f95996fe3751c1c	0.021093128450299856
5	0x3fd26c90134f75ee	0.28787614713459575
6	0x3ff7a69220fb7a5d	1.4781667030689711
7	0x3febdd9009c93803	0.870796221841147
8	0x3fe193b3e2e7639c	0.5492801124301994
9	0x3fddef9739952ace	0.4677484571772482
10	0x3ff00fe9a69f0203	1.003884936202781
11	0xbffe1d7e7d4df4d7	-1.8822007078845695
12	0xbfd70488fe3fb32a	-0.3596518023394305
13	0x3fc85304bdcd2e04	0.1900335242047363
14	0x3fb3f9fa53baa312	0.07803310913244513
15	0x3ff6f8017d09d5d7	1.4355482944787263
16	0xbfe5a577e0cec579	-0.6764487639212994
17	0xbfc47b2305a19209	-0.16000783705671065
18	0x3fe557557bc730c6	0.6669108789006024
19	0xbfe79d27878a6f26	-0.7379338881760062
20	0xbff5a258b9bad901	-1.3521353964875404
21	0xbfe46263a65425ae	-0.6370104073150082
22	0x3ff3d10b508e979d	1.2385361811406945
23	0x3fdc9eb367bdf320	0.4471863282304174
24	0xbff74efd503f2554	-1.4567845472941672
25	0x3fd291614f13f91b	0.29012329790556785
26	0x3ff19ffde38cbb5c	1.1015604866658668
27	0x3fc564fedddc7a0a	0.1671446402842352
28	0x3fc49ae85b6f425f	0.16097740616398235
29	0x3fea014c102d6702	0.8126583400691916
30	0xbfe08c44f8dc3408	-0.5171227322149443
31	0x3fe3d20db8e08c81	0.619391308868572
32	0x3fc729a61f7abf59	0.18095852410396665
33	0x3fe67ede8ad14ed1	0.7029869757920669
34	0xbfdbb51bff4ffa89	-0.4329290383611029
35	0x3fd893cd7184f33b	0.38402114950058647
36	0xbfe672ca12d91de0	-0.7015123718383016
37	0x3fdb56017e16bf22	0.4271243792854752
38	0xbff303ad3ac02637	-1.1883976263947156
39	0x400354bfe1bd0014	2.4163816104701343
40	0x3fe7fe11b0d1e759	0.7497642949594862
41	0xbfed76d8b9970c42	-0.9207576393895425
42	0xbff2d10573421971	-1.176030588366839
43	0x3fe9fb61e71584fa	0.8119363320694497
44	0x3ff7f16d62ea3e0b	1.4964422096126124
45	0x3fb7b8b1109064ac	0.09266192106624044
46	0xbff9b6f8c82e79cc	-1.60717085071484
47	0xbfecf90c7fbf96fe	-0.9054014678083318
48	0xbfd0abc5f66e9afa	-0.2604842096865664
49	0xbfcf088b5b910a2b	-0.24244825335525041
50	0xc00254234447256e	-2.2910828909122563
51	0xbfe442aa21224033	-0.6331377646583917
52	0x3ff81d3173565fe5	1.507127237831804
53	0xbfcf1bcc04ae24fe	-0.2430357954838555
54	0xbfded080fcb7c779	-0.4814760654399986
55	0x3fe3781928266aa7	0.6084104332142787
56	0x3fdea99b34148d0f	0.47910194478954876
57	0x3fcfb37bc17fe218	0.24766489933223634
58	0xbf9ad56e1938cf05	-0.026204796113417767
59	0xbfed4062a0605e39	-0.9141095287658977
60	0x3f7521d4f7a716bc	0.005159217742805641
61	0x3fd1df65edc79fff	0.2792601415699209
62	0xbfdbec306e182923	-0.43629084350017616
63	0x3fa8c062d1940f0e	0.048342788775725606
64	0x3ff5925a44332a15	1.3482306160027566
65	0xbfdae99cac85ce00	-0.4205085453788513
66	0xbfeb181374bf815a	-0.8466889648662275
67	0x3fb4866f08690985	0.08017629580812098
68	0x3ff90d7e3d418ad2	1.565794219285341
69	0x3fd2087edecd0261	0.2817685294903978
70	0x3fd70d5f23245ae7	0.3601911395248138
71	0xbfc54d4930b25c13	-0.16642107846993834
72	0x3fd785f2629147d3	0.3675504648755325
73	0x3ff42ae42fe7bfc3	1.2604715224551775
74	0xbfe9cca7a5e744dd	-0.806232284574573
75	0xbfce55a6c8a8d8c5	-0.23698887632207835
76	0xbfe3961ada4d7ce3	-0.612073351261554
77	0xbfd2d65a79dfda4e	-0.29433309461402224
78	0x3ff9a60a49ed57d2	1.6030371558931518
79	0xbf9a086bac93cd80	-0.02542274704769687
80	0xbff9c3af51959d89	-1.6102746188060755
81	0xbfd598f776ce6c27	-0.33746134378606246
82	0xbfd224f5c921d303	-0.28350586549576934
83	0xbfcf5e82c51d36a4	-0.24507174133980414
84	0x3fed748752800ef3	0.9204746829350071
85	0x3fc4391987b1a106	0.15799254537274282
86	0xbfe40d475df1c5e2	-0.6266209444858613
87	0xbfc2f14cd6f8a898	-0.14798889633795365
88	0xbfc350bf10316460	-0.15090168276472848
89	0x3ffa754ac448dd19	1.6536357562416184
90	0x3f8e4c27abd1f7e1	0.014793691569362668
91	0xbfe7a07fdd9b07c6	-0.7383422210916641
92	0xbfcde528b80c6c19	-0.23355587946647985
93	0x3fe493fac207c45b	0.6430639066367222
94	0xbfe58f8ca8243236	-0.6737731250773951
95	0x3fe2c85cbd4ca4f1	0.5869582841161486
96	0x3ff14a87e2d72918	1.08069599732932
97	0x3fe64eb47c7f9fef	0.6971075469600673
98	0x3fb593d931feab55	0.08428723784042565
99	0x3fe589066e23eb33	0.6729766989877589
100	0xbffa0d79c7b673dc	-1.628289966705089
101	0x3fdb0b7c520e69e2	0.4225760270434461
102	0xbfe3b9dbff845d30	-0.6164379110877345
103	0x3fd0a01f31e2e4ae	0.25977306243619125
104	0x3ff2bb64bc2b74a8	1.1707503652935802
105	0x3fff99ab41d5bc0e	1.9750168391872225
106	0x3ff6f45732be91b3	1.4346534712031882
107	0x3fd8f3156815f1ac	0.3898366466962908
108	0xbfd61b33c89beebd	-0.3454102953980785
109	0xbff9e4b7e2e211b5	-1.6183394301052492
110	0x3f9965f3c560213f	0.02480297939476483
111	0xbfdae2c471f09468	-0.42009078146867873
112	0xbff6ad95140c7b25	-1.4173785002855734
113	0xbfe354b8cf86e637	-0.6040920308361767
114	0x3feeb2f9df54b602	0.9593476640636143
115	0x3fea68e3c9858543	0.825303929898077
116	0x3ff5cb1adffea761	1.362086176852664
117	0xbffec04d083a56a5	-1.921948463573622
118	0x3fefc88e68bb9c8b	0.9932319684566137
119	0xbfec31dca744c323	-0.8810866610493558
120	0x3fe15caa3a52f160	0.542561639703802
121	0xbff0bdfc2e652138	-1.0463830768877198
122	0x3fe56d44234cabd7	0.6695881547396948
123	0xbfcd54435802ffaa	-0.22913400456854777
124	0xbfcaf3ca0fac7846	-0.21056485905950434
125	0xbffa94610a318e89	-1.6612253568827404
126	0x3fe24d72e94af527	0.5719542080402434
127	0x3fc312a2bd7d1694	0.14900621654867463
