models/latest/b2.npy (npy, 640 bytes, 1 tensors)

array f8 [64]
00000000: 682b 4a0a 75e9 e23f e7d2 8d68 e337 c63f
00000010: 16ba 20ae feaa f23f 22f4 07a2 c143 febf
00000020: cbee d5cb 8226 edbf 66a5 5ea7 a927 ee3f
00000030: ae7b 2974 8f05 e93f 8a9a 2d81 6582 ffbf
00000040: f0d0 380d c9a9 e43f 1a1a be5f 9d24 f4bf
00000050: 8381 db20 137f dfbf c3da 038a d2ef d53f
00000060: c4f8 58f6 5f0f f23f 500e 0fa7 8ec4 d1bf
00000070: 54f5 5405 246a 933f cc21 8828 3250 e03f
00000080: 088d d02e 5c62 e0bf b641 880a 5e66 f4bf
00000090: 5e7d 403d 8a62 08c0 f8a6 8519 20db ef3f
000000a0: 0bc5 9aba f620 e43f 42c9 6848 2d6b e6bf
000000b0: d011 de91 ca3a f7bf 8c6e 29c3 2a3a 9cbf
000000c0: a520 3520 b6d7 f73f b27d 87b6 8036 c5bf
000000d0: 79e8 6f40 ef5c e23f 7a23 2563 18fc 9cbf
000000e0: 9743 f280 c355 ef3f 47b3 612a 2f8f fbbf
000000f0: d304 963d b111 df3f 5336 3319 db1b d93f
00000100: 2ea3 0a8e 1c57 e43f 1698 37de 4310 e93f
00000110: e947 52f6 434c f43f 0099 d2fd ecf8 f13f
00000120: c332 00dc 6af3 fa3f e160 43dc 9bbf df3f
00000130: 568f d769 2e9a c3bf 7d4d 6901 710f c53f
00000140: 3cf0 92be 63ad f23f 8367 ffcd d6d6 eb3f
00000150: 1bdc 449b 3630 e0bf 540b f4ad 9051 e23f
00000160: d5a1 26dd b1ad c73f ad60 a499 f734 fa3f
00000170: 5a78 0eba 1370 ecbf 5c0b 6d79 0e3e f0bf
00000180: 78cd beab 35ee d4bf adb8 2eb1 6028 ef3f
00000190: f3da 9ce3 75ae d7bf 3bcc c003 717b cdbf
000001a0: 0c16 613e 1ff9 bbbf abc0 e6c1 9d21 f33f
000001b0: 097c 6cad 2c66 0640 0846 aa80 e983 c1bf
000001c0: 5a4c 7888 b2c6 f13f 34a9 7e9d f554 02c0
000001d0: ff0c effe d75a c2bf a7a9 a2b6 9bdc db3f
000001e0: e05f a947 e445 f5bf 6468 257d fd33 f83f
000001f0: 9693 b247 64da d83f 669b d631 cf03 f13f
0.5909981919261158 0.17358057599235296 1.1667467882031182 -1.8915420846308355 -0.9109510403790976 0.9423416394176172 0.7819287556447898 -1.9693350835820262
0.6457257517090778 -1.2589391460366017 -0.49213102539763315 0.34276259878189935 1.1287536261511812 -0.27762190164887546 0.018959582162314817 0.5097895423542069
-0.5120068468426391 -1.2749920283714409 -3.0481152329736423 0.9954987047651391 0.6290238995190135 -0.7005831159824896 -1.451853341860545 -0.027565639650090776
1.4901639230829826 -0.16572579300462348 0.5738445528543387 -0.02830541710980892 0.9792191999896315 -1.7224570899517901 0.4854548551011934 0.3923251863569465
0.6356337332009383 0.783235487001323 1.2686195012979573 1.1232728877017166 1.6844280809192902 0.49606987485959847 -0.1531427399451057 0.1645337349788
1.1673314518257163 0.8699754737274222 -0.505885413417562 0.5724566838765477 0.18498824404129147 1.6379314424175775 -0.8886812814632876 -1.0151505225373603
-0.3270391633224885 0.9736789188953218 -0.37002322414211547 -0.2303296345067752 -0.10927005074434976 1.1957070898315958 2.799889902947602 -0.1368381384132109
1.1110101061683708 -2.2914840988425116 -0.1433973307413012 0.4353398593472328 -1.3295634078294754 1.5126929176826929 0.3883295726939705 1.063430018120664
