models/latest/weights2.npy (npy, 65664 bytes, 1 tensors)

array f8 [64, 128]
00000000: b4d0 b2ca 35b6 b5bf 63c7 ce8a b4c7 c8bf
00000010: eef5 1010 1d33 a83f e407 0626 e9a4 e23f
00000020: fb75 1be4 890f dfbf 21d2 7b59 d724 f3bf
00000030: 9513 a184 fdb5 ce3f 0515 7122 895a f73f
00000040: 958d 42f6 72ef f5bf a0e4 d0a3 4337 f2bf
00000050: 529e b059 b77c ecbf 0d2b 666b 6b37 05c0
00000060: 6a5c 9e0a 1786 e1bf ea41 e2b0 75a4 f93f
00000070: 6066 3e17 0626 df3f efb9 058e edb1 e43f
00000080: 47c6 4ecb 75c0 a43f 2419 e4f8 9a9d f83f
00000090: a377 81da 5833 0040 fcb8 5526 b2eb f7bf
000000a0: 3b32 5573 adfd e23f 6b17 0093 2b33 f23f
000000b0: b910 d05f 75ec ed3f 8f80 d435 24bc e2bf
000000c0: 8054 7a3f 1dc8 f13f 6cf3 1209 6aaa dc3f
000000d0: 9d24 3ae6 0030 ddbf 1277 ed32 d829 f13f
000000e0: d232 98bf 6ea5 da3f 6f6c 22b4 6cbb f53f
000000f0: dc13 1290 26f8 e23f f0f0 7c7b ce37 e3bf
00000100: a788 f756 fd6d ee3f e148 1984 1047 c63f
00000110: 3592 7e9d 24ac e03f 500f 106d dd26 f3bf
00000120: ea6c a500 63d2 e0bf 6636 08bc 9951 ef3f
00000130: 03f9 1946 38bc fe3f 9407 77f9 e64f e1bf
00000140: a4a1 5089 8573 c13f 5592 d02d b52f e23f
00000150: a85f 13fd 72a2 f8bf e8cf f171 2f09 c13f
00000160: 8d04 1ae8 eefd b5bf 5a3e e02b d92a dabf
00000170: bef8 70dd 6460 f1bf 2ec2 a516 1209 e23f
00000180: 2353 6564 dd36 f0bf f640 9f2f e785 dcbf
00000190: ed9d dea3 f36e e5bf c496 fe23 6da4 f5bf
000001a0: 05a1 1f66 4d80 dd3f ba2f 03d4 4c2c ad3f
000001b0: 6323 df39 9f03 b1bf 4d26 e729 fbdc b7bf
000001c0: 1cdb 8b59 f0e3 ea3f 5816 36fc e8e7 933f
000001d0: 96d3 4ebe 1665 e63f fddc 171a c13d d93f
000001e0: 6221 de9d 1d45 d23f cbf4 d16f 1ad6 dd3f
000001f0: 3641 eccf b3a1 f53f ebe1 45f0 721c f33f
00000200: ee9b c5c8 3eb7 ec3f d0ad 2be0 dced d73f
00000210: 2767 0304 d224 f73f af59 32b0 b34e c93f
00000220: 4377 6cf4 6bad f9bf 1751 9a48 1262 db3f
00000230: 6e35 51b6 5c4f ddbf d536 541c 3c0e 8b3f
00000240: f1b9 2221 b4d3 d1bf 5635 cf75 4ec9 fe3f
00000250: 7913 1f36 1856 f33f 01e1 24d3 6ac2 c8bf
00000260: 3387 a5bb 9d59 e3bf c2ad 312b 9edb f43f
00000270: 5170 f58c 8e97 cdbf 9cea 5ac1 eb1c d03f
00000280: 24c1 ab75 2473 f13f cc32 3389 3e85 e3bf
00000290: 5b68 4d35 35cc e43f bd0c c8d9 22e6 acbf
000002a0: 9db3 2074 a29a dabf a79d ad89 c887 f3bf
000002b0: 1d7d 6540 517c e63f 9b9a deac 77c6 d33f
000002c0: 7d25 a09d 9b80 f2bf 8704 d749 2096 f43f
000002d0: 1085 0b56 bf05 dd3f ca2c 1dd2 a072 be3f
000002e0: a129 8490 9eea d33f 3177 7c2b 67cd eb3f
000002f0: 5d79 0944 a0e0 c6bf 1369 0992 3184 bb3f
00000300: dd16 75ae 59a0 de3f ba99 836a e972 f43f
00000310: 0b79 dc43 03a6 01c0 65a4 57b9 3233 efbf
00000320: a472 2230 ba98 dc3f 8f53 7f9c 71ee cc3f
00000330: f765 f0ca f4b7 b03f a90b 5dac ffb2 c8bf
00000340: 38d3 9608 c78e f43f 49ec aef6 4c09 9d3f
00000350: 64fe 9c5e 47f4 f53f 4db8 96a5 4a10 df3f
00000360: 96e2 2999 f58a eb3f 4291 4634 cd44 d43f
00000370: dbd8 d605 feb8 e4bf 6eb6 5eee f0a9 b13f
00000380: d39e cc59 7a7e c9bf ad27 bec6 1302 debf
00000390: 43b7 0a19 734b ba3f ff65 dc3b 4d67 e2bf
000003a0: 0b6f c858 40da d1bf 1e8e c3e7 80d3 f13f
000003b0: 0eac 9b32 bef8 efbf 6e61 ce40 5175 f1bf
000003c0: eef9 abb2 bcb0 f13f 85f6 f9f1 3f21 c63f
000003d0: 4d79 9ca0 ecc7 9c3f a901 6782 9b82 f13f
000003e0: 285b 84ad 5eec e23f 6357 963d 1c9f f23f
000003f0: 33cf 83ed 94fc f83f d1f6 ae3e 3ad0 d8bf
00000400: 6238 d9c4 460b f53f 36e4 825a b20c cebf
00000410: 5d36 d276 883b 6dbf ce3e f2f2 baac dd3f
00000420: a3cc c7bc 4694 df3f 612c 1241 fb3d e83f
00000430: c4b1 fb5c 0a0f e53f 43ee 253f f751 e5bf
00000440: 5479 0d8e a007 eabf e4ff 01b1 4de3 eb3f
00000450: 7c8b a180 f117 c83f a6a7 0414 c5ad f43f
00000460: 3f2c c85f f431 b1bf ce08 79f7 1652 c9bf
00000470: 9637 83e2 5876 c0bf bd77 cafb 0b98 fe3f
00000480: 9d2e 4516 86a5 c53f 5bae 0cdd 550a edbf
00000490: 1cbc 659d c589 d7bf 8b51 1efa 2ad9 cabf
000004a0: c2df a49e 7f25 0140 1be1 61d2 d605 ea3f
000004b0: 0df6 91c3 40f4 eb3f 17bc 02ce 06b7 cabf
000004c0: 5d07 6894 bfb6 e0bf ada6 c1d3 43c6 c53f
000004d0: 8e69 09db 6b97 f63f c8d9 6ba0 5c66 d3bf
000004e0: e3c0 c720 5efc f33f 0ca5 2a3a 9ade cebf
000004f0: ca7d 230a 0229 d73f 3684 d94e ab00 c73f
00000500: fad9 3d78 c68c febf a279 9591 5c84 a9bf
00000510: f91e c49a 5c19 f63f e689 e77c 7961 f8bf
00000520: 2625 f726 17f5 febf 63a6 0ed0 35c9 eb3f
00000530: de46 d81c b970 bb3f 1dc9 3264 8027 fa3f
00000540: d758 3135 f824 d43f ac4e 875c b0dd b03f
00000550: af9f b7a2 8dcb eb3f c5ce de24 848a ec3f
00000560: 9340 e0d5 6a6b b2bf 0f12 7408 7e38 febf
00000570: 16ff 77e5 8082 f13f feca 86c7 0793 e13f
00000580: bb64 d19d 1d7f b83f bffc 1f77 41fc fd3f
00000590: e8b0 bb25 55b4 db3f 1536 1951 1dd2 c73f
000005a0: efe6 b861 d7e8 e2bf b1f2 5ac0 60a2 c63f
000005b0: 1709 3439 7cee e43f 44aa 8304 0c77 e23f
000005c0: 52ff 1c97 a2b1 f43f 464f a464 bc45 d03f
000005d0: 408b 8a41 ac10 d6bf c892 52c0 b177 e53f
000005e0: 54f6 aa01 7b2b a43f ef9f f9f3 0af9 dfbf
000005f0: 0dd6 e5af cc3a dcbf bdaa cfe2 19ca e13f
00000600: 3f37 242b 12b7 c23f 6c5f 4f41 4c2c f4bf
00000610: a3b2 4e59 6298 9fbf 4643 51f8 0438 f43f
00000620: 1410 9811 7d41 f13f a593 9376 d9dd f23f
00000630: d774 1e98 d149 ed3f 243a be3a ba0d dc3f
00000640: 085a dd63 660f fdbf cf67 9c01 055a a83f
00000650: 8fbe d97d 73a9 ecbf abab fade cc2e e6bf
00000660: 569a 73c5 3d40 e63f d0b0 74a3 b698 f5bf
00000670: f939 f0e3 0fc6 f23f 685c ffcc 40dc e13f
00000680: 3505 e9c9 be1b c43f 7069 002a e0fb e13f
00000690: 6b5e 1b6e edc5 b53f 53e7 7dbc 33b3 c9bf
000006a0: e006 2333 7a81 fc3f ac60 f0d4 d87e e7bf
000006b0: 9b40 6b9b b923 e2bf 45ff 1f36 0594 e63f
000006c0: 24b8 80b9 4402 ee3f 7478 faa2 664e e2bf
000006d0: 8e5f a978 42e8 d93f c0e5 4c8e 9068 f33f
000006e0: 6594 2662 48a2 ddbf ba9a f743 b1e9 e63f
000006f0: 3d10 2d3e d4a2 fcbf aa60 74c8 c7da c33f
00000700: 6a1f ee63 acbd f4bf 7a57 0944 c7f4 e43f
00000710: fb84 8838 be72 0240 c802 24e0 7978 8fbf
00000720: da79 a707 6073 ee3f 7a14 c6f3 bfc2 e43f
00000730: c453 8044 9f23 d73f bc4a 7f6d af5e f13f
00000740: 75b7 ac2f 2325 f33f 8186 db44 c4e4 e3bf
00000750: 856b f79c 56ec e2bf 7296 ec42 0e97 c93f
00000760: 3958 3055 0965 e4bf e3cc 8f8b 7941 d8bf
00000770: 0e0e 7c24 687a dbbf 06e3 85be e280 d43f
00000780: b22a 7eef 3981 a4bf a9dd 0472 2dfa f0bf
00000790: a11d ca38 8952 f6bf 29ca 2302 ab05 f9bf
000007a0: c19f 3acd ed40 f3bf a4e1 f668 ad97 ca3f
000007b0: be3b c897 d96d df3f 2dae aa9b 2d04 e33f
000007c0: 5f7d ddd8 bbef b73f eaa4 954e 65d0 e1bf
000007d0: d499 0a02 4dab cdbf 8b2d 33df 820d 0640
000007e0: e311 2e03 46a4 ebbf d2df 1cdf 0b6b dd3f
000007f0: 51f9 87f3 60a2 e93f 09d6 7929 86ea cb3f
-0.08481155584996963 -0.19359452035638033 0.04726496525880096 0.582630705132257 -0.48532340313053596 -1.196494435830694 0.2399289033511677 1.459603437936779
-1.3709592456369581 -1.138492240816312 -0.8902241470104377 -2.65206035523932 -0.547618408908318 1.6026513013385917 0.48669578809640335 0.6467197202562697
0.040530854289852196 1.5384778711609863 2.025071818424253 -1.4950429437117796 0.5934664967149453 1.1374927274896105 0.9351145621626734 -0.5854664851540451
1.1113560180286015 0.4479012573827308 -0.45605490191571524 1.072715948997431 0.4163472052612579 1.3582579647543545 0.5927918256644449 -0.6005623256565098
0.9509264658520536 0.1740437169087903 0.5210135532439099 -1.1969885120642694 -0.5256819737072906 0.9787110016347469 1.9209521044099922 -0.5410036918985832
0.1363379402621493 0.5683236975497247 -1.5396604429024396 0.13309281409931306 -0.0859059635786414 -0.40886525425682907 -1.0860336923647504 0.5636072580655929
-1.0133947297774248 -0.44567279482454525 -0.6697939110353538 -1.3526431470904052 0.460955953340559 0.056978608017373714 -0.06646151697999651 -0.09321565411587436
0.8403245686484726 0.01943935431838492 0.6998399464560972 0.3943941836182175 0.28546848694579385 0.4661928264611787 1.3519781229006873 1.194445551458666
0.8973688050581339 0.37389299289381217 1.4464893490571258 0.19771429160455287 -1.6048392818260744 0.4278608044635503 -0.4579688816491715 0.013210744490176488
-0.2785463641729669 1.9241470910959229 1.2085191835514861 -0.19343314466255637 -0.6046894707653564 1.3036176383273959 -0.2311876476550219 0.25176519281709786
1.0906109425087118 -0.6100151710212116 0.6499277154027924 -0.056443299374245616 -0.4156881460247009 -1.220650232129495 0.7026754625075317 0.3089884937457243
-1.1563984067200572 1.286651886403236 0.4534757938655085 0.1189365876172587 0.3111950312892536 0.8688236092891427 -0.1787300426685289 0.10748586478567672
0.47853700672963645 1.2780546341615335 -2.206060915151402 -0.9749997730224435 0.4468217344345169 0.22602672711823543 0.0653069491821937 -0.19296260753807573
1.284857781936081 0.028355791622498825 1.372138375838312 0.4853693596913942 0.8607128135182218 0.31669931511921245 -0.6475820650146277 0.0689993459661424
-0.19917230019313212 -0.4688767853591525 0.10271376954434878 -0.575110070148355 -0.27894600553712284 1.1141366055752608 -0.9991141308249796 -1.0911419421664408
1.1056487063757419 0.17288970294241693 0.0281064007787049 1.0943865865557234 0.5913537396434991 1.1638452916863222 1.5616654661107077 -0.3877091991561033
1.3152530373950175 -0.23476247233864606 -0.0035684266391118728 0.4636676189920593 0.493425068241047 0.7575660963933722 0.6580859962537535 -0.6662555917132028
-0.8134310507264595 0.8714970071014219 0.1882306936341499 1.2924242765388754 -0.06716849649835498 -0.19781767924911836 -0.12861167011436397 1.9121208034116386
0.1691138848058146 -0.9075116460202922 -0.3677839314540863 -0.20975243771375704 2.143309821516568 0.8132127865820026 0.8735660381059361 -0.20871052798381193
-0.5223081492006078 0.17011306609793078 1.4119680935023982 -0.3031226698507479 1.2491132050018272 -0.24116828766026577 0.3618779276857508 0.1797079215057537
-1.9093689629495416 -0.04983796383997975 1.3811918302107513 -1.5237975005226132 -1.9348365327917434 0.8683117927186682 0.1071887679502441 1.6346439279555576
0.3147564429722371 0.06588270434377347 0.8685978105613595 0.8919087143062475 -0.07195155831891702 -1.8887920694552383 1.0943612064001562 0.5491980454447398
0.0956896314904893 1.8740858701055882 0.4328816288459749 0.18609968624007026 -0.5909230145109329 0.1768303813204475 0.6541119687319988 0.5770320976419687
1.2933679488050598 0.2542563422041336 -0.34476763153559276 0.6708611255931709 0.039394229844657375 -0.49957536531155616 -0.44108884027022627 0.5559205465227347
0.14621188265339843 -1.2608149100469417 -0.030854736996547626 1.2636766147517888 1.078488415457291 1.1791624671834395 0.9152610751222267 0.4383378575957144
-1.816259756180104 0.04756179470696475 -0.8956849535006358 -0.6932129244863651 0.6953419548488664 -1.3497835526459774 1.1733549980013989 0.558136368165731
0.15709671839616993 0.5619965381950305 0.08505138338238687 -0.20078131393148144 1.7816106793911146 -0.7342342528309209 -0.5668609653021294 0.705568891251439
0.9377769110776666 -0.5720704253360638 0.404801004251106 1.2130284842117902 -0.46302995286015963 0.7160269095882861 -1.7897531918288359 0.15511414802381768
-1.296306982376303 0.6548801735723224 2.306026879945987 -0.015366508629541711 0.9515838765617517 0.6487731705862096 0.3615492028196139 1.085616519664355
1.196566759328076 -0.6216756195901355 -0.5913498941184662 0.19992235439092415 -0.6373335517735149 -0.37899626378130175 -0.42934611857364835 0.3203665600372435
-0.040048418507543274 -1.0610784963481399 -1.3951503961887755 -1.5638837894044946 -1.2033517853505915 0.20775382638181583 0.49107971022106855 0.5942600288739804
0.09350179714737326 -0.556688931928105 -0.2317901859252759 2.7565972745412117 -0.8638029157742121 0.45965859211309834 0.801071620604299 0.2180946066397811
