models/hopefully/weights2.npy (npy, 640 bytes, 1 tensors)

array f8 [8, 8]
00000000: 0ed4 1033 742b 06c0 162d 71e5 6444 f53f
00000010: e7d8 80e9 8418 02c0 748d 93e7 a64d 0f40
00000020: f372 2c45 ba31 11c0 f326 c14d fd68 18c0
00000030: ba87 de3e a373 cabf 9975 d45b 9cc2 1740
00000040: 00dc cf85 08b3 f5bf c4c7 f170 49fb 10c0
00000050: 0a73 eb03 b017 0540 83ec 9308 7331 e9bf
00000060: 86e2 28e9 5af9 85bf f81b 6e69 f091 c43f
00000070: e5e2 9bdd a0e9 14c0 8b79 22b1 243a 0840
00000080: 34d1 2287 3445 e5bf eb56 20cc cddd a23f
00000090: 9886 ae4b 218a f83f 8448 bbd1 a31c 01c0
000000a0: 5e1f 8799 d117 debf c88c fea2 09e1 efbf
000000b0: adb2 40f9 50b6 f9bf 520b 5a5e a2be efbf
000000c0: e427 8a9e 4f51 01c0 e134 62b6 bd89 1240
000000d0: 788f 4030 d907 1140 b18a 6882 079e ffbf
000000e0: feb3 a585 cf4b cabf 85a9 23ec 6ebf 0840
000000f0: 565f f1c0 4ac8 18c0 76be e687 b186 1c40
00000100: 7b8a 3d61 fc44 d83f f06f ab6b 3fd7 b13f
00000110: 802a 97f8 163a f53f f3a9 f25a ecdb d6bf
00000120: 40eb 9ddb e6ab eb3f 9a96 48c7 831c fbbf
00000130: da87 5216 620e f83f b637 dd44 a940 0140
00000140: 2bd2 5246 d9da c63f 3bb4 236a 8249 e8bf
00000150: 3307 2157 874e 0ac0 e5d2 aac6 8f6e c4bf
00000160: 8a45 3597 b8c3 f0bf c98e dc0e 797b f93f
00000170: a602 0934 8835 1540 8b03 1b9e c6d1 fabf
00000180: eefe 1ed7 7e27 d4bf ff87 5b47 d737 1d40
00000190: ff6b ef83 f1b3 19c0 16e5 1a50 d672 f3bf
000001a0: 4df0 9b28 e485 20c0 1215 96ac df9d 13c0
000001b0: 7135 1502 9789 df3f e077 d67b d2bc 0640
000001c0: 78a8 9b1f 2b08 11c0 b4dd f0b1 83e2 fc3f
000001d0: 57cc b9fa cd24 ebbf 3849 0c66 5b56 1340
000001e0: 69d4 b204 c45c f8bf f15b 93a6 7b69 0fc0
000001f0: 9237 cd81 83ed f3bf dfcf 74c8 6591 1940
-2.771217726660786 1.3291977846700482 -2.2619722597547596 3.912916001501509 -4.298562126958802 -6.10252877704055 -0.20665398187435163 5.940049586145869
-1.356209299757893 -4.245397343403912 2.6365661913135954 -0.7872862975631424 -0.010729513397664602 0.16070370815233992 -5.228152716292901 3.028390296806895
-0.6646978988051502 0.03684847943092769 1.5337231594388978 -2.1389843354491536 -0.47020378106070904 -0.9962204154475325 -1.607010816234076 -0.9920207827384309
-2.16470264300459 4.6345127580109144 4.257664445820289 -1.9760813802792365 -0.2054385569166754 3.0934732864745365 -6.195597662670329 7.131536601503845
0.37921056266910796 0.0696906698098585 1.32668206315671 -0.3571730507052557 0.864734105052186 -1.6944616112245172 1.5035115119903737 2.156572854996706
0.1785537331940231 -0.7589733193432332 -3.2883440787271865 -0.15962407303381734 -1.0477834612432582 1.592644746830887 5.302277386712978 -1.6762148071286187
-0.31491061218183247 7.304532160722373 -6.4257259955293184 -1.2155364159683066 -8.261506337199672 -4.9041735617259 0.4927728195514965 2.842198340876152
-4.257977002978912 1.805301375466894 -0.8482427498805788 4.834333033084754 -1.5226478751694918 -3.9265053762169306 -1.2454867430091991 6.39198983395542
