models/hopefully/weights1.npy (npy, 50304 bytes, 1 tensors)

array f8 [8, 784]
000000 9d 38 86 81 ea ea ee 3f 4f 09 f6 d4 21 09 bb bf
       0.9661762742778311 -0.10560809563870531
000010 c4 c4 07 3d 66 88 df 3f 21 a4 2f 72 4d a8 f8 3f
       0.49270015678400747 1.541089483298727
000020 33 80 39 37 b5 48 f5 3f 0d 12 6a 4a fc 8f 76 bf
       1.3302509457789824 -0.0055084090332724435
000030 cf 13 d8 67 70 da e6 bf 51 9a 1e 60 92 db 08 40
       -0.714164927311339 3.1072127827967866
000040 97 d9 10 28 65 a2 d2 bf 52 6a 3b 49 01 1b e6 bf
       -0.29116181290319204 -0.6907965116800574
000050 59 44 fb e2 7a 89 dd bf 90 cb 65 c6 3a 55 f9 3f
       -0.4615161148659062 1.5833080053241453
000060 da f0 68 48 09 b8 f3 3f 3e a8 d3 52 df ff e4 bf
       1.2324307278168392 -0.6562344186506903
000070 24 f6 2a 37 4d 4e f5 bf 61 3a 58 1c f6 7d f7 bf
       -1.3316166071885016 -1.4682522875988513
000080 0d ac 14 e2 e7 6b db bf cc 0b fb 21 94 97 d2 3f
       -0.4284610469646289 0.2905016261904023
000090 7e 37 fd 88 67 f1 ed bf 26 bf ca 85 9b 9b e7 3f
       -0.9357183147019297 0.7377450574040025
0000a0 12 ec 32 26 66 26 fc 3f 8f 34 1c eb 82 b0 ef bf
       1.7593747608323196 -0.9902968017573971
0000b0 4e b2 05 ae db b9 b0 bf 33 3c 04 3b 95 91 e0 bf
       -0.06533596991148125 -0.5177713539759509
0000c0 31 0f ab cc 21 23 d2 bf a6 d2 32 9a 79 22 e0 bf
       -0.28339428889397583 -0.5042083751382804
0000d0 b9 17 b3 c0 c9 66 f2 3f 93 e7 76 86 67 2d fa 3f
       1.1500947501494763 1.6360850574987793
0000e0 af 00 79 dd bc 69 c4 3f 30 22 d2 00 46 71 9d 3f
       0.15947686018080762 0.02875241642007803
0000f0 7e 6b 84 01 87 91 c6 bf 72 ff bc b1 f5 04 dd 3f
       -0.17631614278874602 0.4534277187085457
000100 5b ac 0e 01 62 78 d6 bf ce ad de 4a 0f 12 00 c0
       -0.35109758475545555 -2.008818230553266
000110 02 a2 3e 79 1b a0 f7 3f f9 1f e5 a5 04 bc e0 bf
       1.476588700878097 -0.5229514351021854
000120 50 9a 91 ab e3 99 f4 bf cf 77 7e b2 ff 9f db bf
       -1.2875706388382646 -0.4316405528169271
000130 19 82 b2 d7 f4 81 04 40 6a e1 b4 d7 86 45 e7 3f
       2.563455281386507 0.7272371495264853
000140 dd 66 cb ea b9 91 f4 bf ce 83 fa 89 e3 e7 f4 3f
       -1.2855776950513509 1.3066134824550661
000150 d8 b0 ad cf fd 65 db 3f 0d 69 b6 58 a2 98 f3 bf
       0.4281000640974191 -1.224764200719224
000160 78 30 e5 70 34 9b fb bf c9 ee 16 cc 9a 66 e0 3f
       -1.7253918085071103 0.5125249849438315
000170 5f a1 a0 94 10 7b c2 bf cd 49 5b 56 05 41 f0 bf
       -0.14438063866806325 -1.015874230699967
000180 cb a1 d0 1d 06 00 f1 3f d3 cf f8 c0 73 f5 d6 bf
       1.0625058331153123 -0.3587312111369531
000190 f2 a9 31 cf 1d e8 e1 3f 00 88 7d ea 86 c0 d3 bf
       0.5595845267064858 -0.3086259164757621
0001a0 92 50 07 12 de 55 e8 3f 6a b0 10 99 31 85 dd bf
       0.7604818679924554 -0.46125450084469455
0001b0 08 1d a7 2e 3d 40 c5 3f 31 01 75 a3 14 e6 f5 bf
       0.16602291849105932 -1.3686720261612886
0001c0 a6 b3 86 e6 1d 1f dc bf ad 88 c1 8f 16 39 e4 3f
       -0.4393992186767782 0.6319687659963812
0001d0 0d a0 52 5f bf 88 cf 3f 39 c5 24 4f c1 dc d8 3f
       0.24636070398742085 0.38847382286901994
0001e0 57 30 a2 6a b1 99 dd 3f aa 10 d5 35 1e 7b ad bf
       0.4625056783049834 -0.057579940863918225
0001f0 33 32 5e d7 2b 1f f6 3f c6 e6 15 e7 91 4d f2 3f
       1.3826101696787532 1.143937971761646
000200 72 01 34 c4 28 11 f1 3f 7b e7 fe 00 89 5a df bf
       1.0666892685113365 -0.48990082833517307
000210 4f b4 62 e3 ca 0c f1 3f 96 09 a0 45 b1 7a e6 bf
       1.0656231767891489 -0.7024771079889429
000220 27 b0 0d ef 43 e7 f3 3f c7 6a c4 18 b0 6e f4 3f
       1.2439612710977686 1.2770234076948996
000230 ef 5e 06 73 7a da f2 bf 67 74 89 1b f8 bb d7 bf
       -1.1783394330176937 -0.370847727672134
000240 60 d3 f3 56 58 16 00 c0 43 b0 03 9c 37 4b 04 c0
       -2.01091068202588 -2.536727160322728
000250 45 f8 68 ae a8 85 e1 bf bd 09 0a c6 e1 12 05 c0
       -0.5475657850690899 -2.6342196914494864
000260 62 e4 1a be 35 38 e2 bf a9 1a 4a ab 3e d5 e2 3f
       -0.569361563967629 0.5885308595178077
000270 a0 f1 31 6d 7a 15 e9 bf c6 a0 c4 e3 38 5b e4 bf
       -0.7838718540875114 -0.6361355255694654
000280 8c 8f 57 c0 da af 02 40 8a 5c 38 b6 e8 6e ed bf
       2.3358664538117804 -0.919788700007204
000290 17 8d 98 c9 df 0f e0 3f 63 2b d9 71 5e 0b f6 bf
       0.5019377648754099 -1.3777756163787778
0002a0 a1 0a 94 8e 09 1c f2 bf ac be da 2d b5 27 d8 3f
       -1.1318450517143577 0.37742356756187223
0002b0 76 9a 69 c7 d7 18 dd bf 67 94 bf 4b 85 11 e1 3f
       -0.454641289461882 0.533388755746853
0002c0 7f a6 65 4f aa cf e0 3f 87 75 2d eb 4b 90 f2 3f
       0.5253497648929651 1.1602286516784674
0002d0 99 e2 e8 9d a8 76 01 40 a0 31 99 05 08 8d ea bf
       2.182938798589316 -0.8297157391876233
0002e0 b2 21 8a 21 49 4f fd 3f 30 07 14 a4 a5 4a ea bf
       1.8318568525447572 -0.8216121868756314
0002f0 44 d2 71 e2 5a 0a dc bf 2d b4 a0 0e e2 69 f5 bf
       -0.43813202012760066 -1.3383503505131202
000300 4a 0f f0 12 79 c2 d3 bf 68 89 02 f0 52 c4 01 c0
       -0.3087446865977098 -2.220861315801063
000310 e6 56 10 97 bd 36 cb 3f 9e 65 d3 ac 60 c7 fa bf
       0.21260805011905076 -1.6736761809355367
000320 52 96 8f 46 9a 53 e3 bf 61 24 a5 63 18 1d dd 3f
       -0.603955400289758 0.4549008343788668
000330 bc b6 72 aa 6f 8f d9 bf 20 aa 46 45 5b d8 f5 bf
       -0.39937965054819435 -1.3653214174361281
000340 9d 6f f0 b7 d6 7b dc bf e4 e5 ed f7 c7 23 d9 3f
       -0.4450585171014099 0.39280890666813506
000350 04 dc d1 6e 65 47 e1 bf e8 d2 44 df d3 07 e3 bf
       -0.5399653591583733 -0.5947055206985086
000360 65 b0 da 27 3d 77 df bf 84 8b e1 52 89 f1 e8 3f
       -0.4916527642442417 0.7794844263811318
000370 b1 a5 38 0e d3 d1 dc bf 91 74 af 53 a7 f6 f9 3f
       -0.4503066672210379 1.6227181691131458
000380 8c be 60 4e d6 2a de 3f bb 42 45 cc 01 3f db 3f
       0.47136457113354235 0.42572064350410316
000390 2b ed 31 08 28 7a b3 3f 89 70 fe 43 39 5e f4 bf
       0.076082708359469 -1.2730038314830685
0003a0 8c b6 75 57 62 ca 9c bf 14 92 d2 3a a9 3c d4 3f
       -0.0281157842522846 0.31620245689762894
0003b0 1c 55 68 a4 95 ad e6 3f 75 45 73 67 d8 96 f2 3f
       0.7086895190319953 1.161827472784663
0003c0 b1 73 4c 17 32 a5 f3 3f 66 7f 2c 24 63 58 e4 bf
       1.227830973635019 -0.6357894617576505
0003d0 28 cb 6b 4b 25 59 f8 bf f9 37 05 a7 d1 38 e1 bf
       -1.5217640825400824 -0.538185907565775
0003e0 0d ad 47 11 6c d5 e6 bf 1d 1c 16 50 5c 37 e7 bf
       -0.7135525071620649 -0.7255078853785367
0003f0 01 4a 8a ad 37 1f f8 bf 4a 3d 63 13 a1 73 d8 bf
       -1.507621457949995 -0.38205744641614514
000400 d2 24 e3 91 af 20 e0 bf a3 eb c5 38 23 e2 c9 bf
       -0.5039899682389211 -0.20221367141843158
000410 7d 74 1e 30 51 dc e6 bf 76 1c 49 2d 43 1a dd 3f
       -0.7143941821883711 0.45472793028279257
000420 67 d4 f4 aa 63 e9 d4 3f 52 8c 04 d0 43 3a e4 3f
       0.326744954061104 0.6321124136778826
000430 22 0a 39 be 18 76 f5 bf 51 64 fa 9e 15 04 cf 3f
       -1.3413321905687856 0.2423121477375241
000440 64 b5 90 7b 20 c9 e6 3f 6f 42 c0 b8 2c 97 dd 3f
       0.7120516217598092 0.4623519710740202
000450 97 aa 01 49 a2 4a f6 bf c9 c8 44 8f a5 02 f0 bf
       -1.3932211734596984 -1.0006461712296633
000460 8e cb dc a8 10 49 f1 3f 51 fd 03 e7 89 c2 f1 bf
       1.0803381534758247 -1.1099947952314617
000470 0e 9c 44 e8 bb f8 f0 3f 6b 80 ad 77 e6 30 ec 3f
       1.0607260773629181 0.88096927046355
000480 b4 9a 2f 9c d2 9a c8 bf a8 0d 38 89 e0 16 d0 bf
       -0.19222481371180822 -0.25139630699433235
000490 3d 06 d7 fc 49 67 01 c0 5a 6a 0d 24 e6 76 d3 3f
       -2.1754340890045385 0.3041320182871111
0004a0 c9 ca 2d 7a 56 48 ce 3f b8 3f 90 da 7b 4e e0 3f
       0.23658257451787382 0.5095805424516504
0004b0 b2 56 75 11 03 96 e8 3f 5f 37 8d f0 1b 3c e2 bf
       0.7683120099051932 -0.5698375414155911
0004c0 9c a4 02 cb 86 f7 f6 bf 91 c6 ed ae 8d 2d e9 bf
       -1.4354312830057898 -0.7868107239321082
0004d0 ca 5a 16 ec 17 22 f4 3f 39 9c e7 09 dd ec d4 3f
       1.2583235952530907 0.3269569966054778
0004e0 71 64 65 f0 c1 8c fd bf 5c 70 d9 35 e4 e4 e7 3f
       -1.846864642188191 0.7466908504243395
0004f0 8e 81 f3 b0 6a 8b ef 3f 8f 32 3c 8c 80 74 8a 3f
       0.9857686477735557 0.012917522697102583
000500 a5 39 e5 1c 48 57 e0 bf dc 77 84 c1 e2 5a f3 bf
       -0.5106545032847875 -1.2096889075542014
000510 5d f1 bb 18 b3 66 e5 3f 35 c8 32 7f ef 6b d1 bf
       0.668786571797266 -0.2722128622218663
000520 ff 99 ef 4a 26 3c 00 c0 dc 3e 9e 6d f7 0e a2 bf
       -2.029369912564334 -0.03527043545829908
000530 e4 0d 5a 46 08 ef f8 bf e7 54 e0 7e 5e 55 e8 3f
       -1.558357500850314 0.7604210355808875
000540 cc 44 ed ab eb 51 bd bf 5b 86 56 75 84 c3 d0 bf
       -0.11453125903541944 -0.2619334360007081
000550 33 f4 4f 0a 59 ce c9 bf 24 b4 33 7b 0f 31 b5 3f
       -0.2016097355225682 0.08277985341892752
000560 34 a1 3d fb 60 b4 f2 bf 4f ad c9 19 0f da ee 3f
       -1.16903780117907 0.964118528715895
000570 cc 1a 8e 61 88 d5 f2 bf 79 de 84 95 b3 bc ed 3f
       -1.1771320162530854 0.929284851102195
000580 76 aa 2e 6f c0 40 d5 3f 8d a1 14 1a c1 e6 f7 bf
       0.3320771299137627 -1.4938365000508356
000590 07 8f f8 1c 84 bb e4 bf b5 be 9c 2b 31 74 fc bf
       -0.6478901449049496 -1.778367205009926
0005a0 3d bf 8b fc 7b 21 0a c0 33 7d f3 34 a8 71 fc bf
       -3.26634976674532 -1.777748305168484
0005b0 05 5a 2d 19 37 a0 98 3f ee 8e dc 89 2f 69 ec 3f
       0.024048672591868953 0.887840050946094
0005c0 e9 65 a4 7f 8b 04 d5 3f 8c b4 45 eb 45 ee c2 3f
       0.32840239968353885 0.14789651859192465
0005d0 62 d8 40 fe 2f 5f e7 3f ab 1c 20 52 64 50 e2 3f
       0.7303695646176147 0.572313461686368
0005e0 d0 b4 ce a7 4b 6a ab 3f 7a b7 6f 5a 16 c9 a9 bf
       0.053545345529849464 -0.05036229948005562
0005f0 28 23 1e ef d7 8c f1 bf 98 8f 53 1c 0a c4 ba bf
       -1.0968856182609645 -0.10455382529795398
000600 ff 73 81 e4 0b 4a 02 40 4c d4 3f 06 07 12 e0 bf
       2.2861554958349184 -0.5022006151253975
000610 b9 dc 64 94 ae c9 e9 3f 3d c9 6a 99 a3 01 cc 3f
       0.8058693788833785 0.2188000201327415
000620 0b 05 10 34 1a 3a dc bf d8 c7 b2 18 71 9c c2 bf
       -0.44104628643260985 -0.14539922433829022
000630 e0 9a d3 9c 0a e9 f3 3f 18 33 eb 28 04 76 8f 3f
       1.2443948865927084 0.015361816881886578
000640 e6 40 d4 a6 f4 0b f4 3f e7 96 4b de ab ec f8 bf
       1.2529188648950877 -1.5577810939225232
000650 e1 13 3e 7e fb 77 c6 bf 73 fe 95 34 fb fc fa bf
       -0.17553657211479304 -1.6867630056512126
000660 73 1e b3 75 53 6b e1 3f 16 3d be e0 09 b1 fe bf
       0.5443513201543752 -1.9182223109272107
000670 7b c7 47 32 5d 45 fc bf 0d 3c fc f6 bf 80 0b c0
       -1.7669345821454658 -3.4378661437726863
000680 ec 21 fa cd e7 a9 03 c0 24 e1 79 10 81 59 d7 bf
       -2.457961663433016 -0.36483790024751017
000690 54 97 52 e9 ab 99 a4 3f 94 1f f4 a9 68 ad ea 3f
       0.04023492072273763 0.8336680716902145
0006a0 fb eb ab fd 90 13 da bf 02 89 bd f1 15 39 ed 3f
       -0.40744423649419986 0.9132184716693532
0006b0 c4 ae 95 f9 8b e0 b7 3f 98 28 78 f6 42 85 cd 3f
       0.09327006190658965 0.2306293204749792
0006c0 36 e9 99 7f a4 34 a2 bf a7 6a e8 44 57 5c e8 3f
       -0.035557880951233065 0.7612720819336872
0006d0 97 16 38 d5 da 1e ea 3f cc f6 b5 b9 c0 c2 d2 3f
       0.8162664570270007 0.29313676963634516
0006e0 a4 02 c1 b6 51 1e f2 3f 7f 25 e9 44 62 34 f9 bf
       1.132402147181133 -1.5752890292954758
0006f0 0c a6 ef 48 b2 fc d5 3f dc 2a cc 7f 0b 24 f1 3f
       0.34354836580914205 1.0713000290003754
000700 83 02 fb bb be 6e ca bf 37 3d d1 e2 86 3f c1 bf
       -0.20650467089400956 -0.13475118708672948
000710 47 88 12 9b 8a ab d6 bf 19 61 9c c3 f2 d0 c9 3f
       -0.3542200579050853 0.20168909598647458
000720 49 ff a2 55 a6 10 e5 3f 20 41 87 06 d1 ca e0 bf
       0.6582824394790602 -0.5247578742510406
000730 df f4 5d a0 d0 9e b2 3f 74 a4 10 64 0b 93 e1 3f
       0.07273582377634423 0.5491997675318445
000740 0d c3 9a 4c 7e 44 f1 bf 29 af 5a 9b 10 8a f5 bf
       -1.0792220108380122 -1.3462072437786878
000750 e5 27 15 f8 ec 17 e5 bf e6 47 d2 ec 9e 05 b1 bf
       -0.6591706128467619 -0.06649201661846824
000760 fd 41 d3 5c 80 6a fa bf 01 09 a5 3c 2d 86 f0 bf
       -1.6510013223634126 -1.032757985013234
000770 ad 92 a5 87 51 c0 dd 3f 27 b0 70 32 db 4c b7 bf
       0.4648631882358057 -0.09101648312997722
000780 ad 6a 31 ff 1c 5c e3 3f b9 17 b5 e5 08 5e f1 bf
       0.6049942955244966 -1.0854577038712547
000790 e0 26 71 8c 69 d2 c4 3f ff 3f 34 c8 9c 30 bf 3f
       0.16267127378005508 0.12183551681323478
0007a0 c0 68 85 d8 ce 86 d5 bf 03 63 d0 5d 6b d1 f2 3f
       -0.3363530268158108 1.1761277832612798
0007b0 ba 26 8f 35 d3 5c d1 bf a9 5b 25 3a ee 7e e2 3f
       -0.2712905905760682 0.5779944549238866
0007c0 3f 6e ed aa a2 b1 f2 bf 71 64 dc 2e 8d f6 e4 3f
       -1.1683680226186792 0.6550966181995489
0007d0 6c b5 34 e6 38 c2 e4 3f ba 1f 70 96 36 44 f4 3f
       0.6487087722977498 1.2666536213382487
0007e0 d6 ad c6 60 71 3f db bf de a8 0e dd 08 be ee 3f
       -0.4257472462729458 0.9606975858235065
0007f0 08 4e df 48 24 ee cc 3f bf 4c 96 48 d2 c2 ec 3f
       0.2260175090619756 0.8987819116322483
